leslie_map_3d/experiments/learning/sweeps/sweep_005/morals_batch/run_10/models/encoder.pt (torch, 12493 bytes, 8 tensors)

encoder.0.weight f4 [32, 3]
0	0x3e71b407	0.23603831
1	0x3e8f146c	0.27945268
2	0x3f1e341b	0.61798257
3	0xbec7a93e	-0.3899631
4	0xbec3528c	-0.38148916
5	0xbeab5400	-0.33462524
6	0xbe669ab7	-0.22519957
7	0x3c1a393b	0.009413059
8	0x3db9677f	0.090529434
9	0xbeee966e	-0.46599144
10	0xbc26c32a	-0.010178367
11	0xbcf03581	-0.029322388
12	0x3dc90b3b	0.09816595
13	0x3e2bd81e	0.16781661
14	0xbea99ace	-0.3312592
15	0x3ec42596	0.38309926
16	0x3ea5e22f	0.32399127
17	0x3e519333	0.20466308
18	0xbf0e2d39	-0.55537754
19	0x3e8f59e3	0.27998266
20	0x3f359478	0.7092967
21	0x3f1b5ae3	0.6068556
22	0xbee0ce4f	-0.439074
23	0xbed47c49	-0.41501072
24	0xbdf78af6	-0.120870516
25	0x3df06f09	0.11739928
26	0x3f0ca953	0.5494587
27	0xbe837b31	-0.25679925
28	0xbe1d4d40	-0.153615
29	0x3e3cd689	0.18441214
30	0xbd8fe305	-0.070257224
31	0xbcc5df20	-0.024154246
32	0x3e2e4445	0.1701823
33	0x3cf49f98	0.029861256
34	0x3dd7b993	0.10533442
35	0x3e116ac5	0.14200886
36	0x3ef96715	0.48711458
37	0x3f1da406	0.61578405
38	0x3a963d54	0.0011462369
39	0x3ebe96f4	0.37224543
40	0xbdef3987	-0.11680894
41	0x3e120017	0.14257847
42	0x3de5eb44	0.11226514
43	0x3e1047dc	0.14089912
44	0xbd2119c3	-0.03933121
45	0xbf3eede9	-0.7458177
46	0x3f4c9d3b	0.79927415
47	0x3e99f6b1	0.30071023
48	0x3eee84aa	0.4658559
49	0x3eb0382e	0.34417862
50	0x3f191483	0.59796923
51	0xbeb6e95e	-0.3572492
52	0x3c3bf3cb	0.011471699
53	0xbe9b91a9	-0.30384567
54	0xbd9b82de	-0.0759332
55	0x3e4a9e6f	0.19787
56	0xbb9f1c17	-0.0048556435
57	0xbee6f515	-0.45108858
58	0xbe9849fa	-0.2974394
59	0x3e6c1415	0.23054536
60	0x3f22ea1a	0.6363846
61	0xbeaf88c5	-0.34284034
62	0xbeca54eb	-0.39517912
63	0xbdda4492	-0.1065761
64	0xbeae22f4	-0.34011042
65	0x3e9feb80	0.3123436
66	0x3e22b7f3	0.15890484
67	0xbec5477b	-0.38531098
68	0xbe08a82e	-0.13345405
69	0x3e13c8ae	0.14432022
70	0x3ec1a5e8	0.3782189
71	0x3eb408ff	0.35163113
72	0xbccbd002	-0.02487946
73	0xbdb7c190	-0.08972466
74	0x3e270be7	0.16313134
75	0xbf5a99d8	-0.85390997
76	0x3f54a563	0.8306486
77	0x3e0fa48e	0.14027616
78	0x3d813d8d	0.06310568
79	0xbf53a7b8	-0.82677794
80	0xbc778f21	-0.015109808
81	0x3e943542	0.28946882
82	0x3e0b3bf7	0.13597094
83	0x3ed65a9e	0.4186601
84	0xbf3211d7	-0.6955847
85	0xbdf8357e	-0.12119578
86	0x3d312f48	0.04325798
87	0x3f29b01a	0.66284335
88	0x3e91f561	0.28507522
89	0x3e9595ce	0.29215854
90	0xbec685aa	-0.38773853
91	0xbe3bb313	-0.1833003
92	0x3e0f25a1	0.13979198
93	0x3e71d144	0.23614985
94	0x3da52225	0.08063153
95	0x3ef6b27f	0.48183057

encoder.0.bias f4 [32]
0	0x3f10b5d1	0.5652743
1	0xbea032e7	-0.31288835
2	0xbe3f347a	-0.18672362
3	0x3e0ba8c7	0.13638602
4	0xbe68d25a	-0.22736493
5	0xbe1222f6	-0.14271149
6	0xbd954b1f	-0.07289719
7	0x3e3887c8	0.18020546
8	0x3eaf667c	0.34257877
9	0x3e8d1cec	0.27561128
10	0xbe5af3ba	-0.21382037
11	0xbecc41bb	-0.39893898
12	0xbe58930c	-0.21149844
13	0x3e95dd4d	0.29270402
14	0x3e5eba62	0.21750787
15	0xbe28d817	-0.16488682
16	0xbe508fdc	-0.20367378
17	0xbc871306	-0.016488563
18	0x3e9aebba	0.3025797
19	0x3ef9cff5	0.4879147
20	0xbd0ef6dc	-0.034903392
21	0xbe99d9be	-0.30048937
22	0xbe81462d	-0.25248852
23	0x3e76e9a9	0.24112572
24	0xbe30978e	-0.17245314
25	0xbe397424	-0.1811071
26	0x3e881014	0.26574767
27	0xbc8320af	-0.016006796
28	0x3e96a997	0.29426262
29	0xbf4190db	-0.75611657
30	0xbef281ae	-0.47364563
31	0x3e522ec5	0.20525654

encoder.2.weight f4 [32, 32]
0	0xbdddd92e	-0.10832439
1	0xbe24b282	-0.1608372
2	0xbe0a43a1	-0.13502361
3	0x3cd38635	0.02582083
4	0x3df577ce	0.119857416
5	0x3e1c095b	0.15237944
6	0x3ddd0421	0.10791803
7	0x3db8a8f9	0.09016604
8	0x3e2a8ed1	0.16656043
9	0xbe177c5a	-0.1479353
10	0x3d201e57	0.039091434
11	0x3d0dfe43	0.03466631
12	0xbe27005e	-0.16308734
13	0x3dd76b04	0.105184585
14	0xbe1de9a1	-0.15421154
15	0xbd85bd7f	-0.06530284
16	0xbd2ce11a	-0.04220686
17	0xbd858c9d	-0.065209605
18	0xbd38033a	-0.044924952
19	0x3cace550	0.021105438
20	0xbe08d1d5	-0.13361295
21	0x3d35cd26	0.044385098
22	0x3d80f254	0.062962204
23	0xbd259687	-0.040426757
24	0x3dd2dee2	0.10296418
25	0xbdef6c23	-0.11690547
26	0x3d5336a5	0.051565785
27	0x3e0ff44a	0.14058033
28	0x3dec52cf	0.11539232
29	0xbde8b64f	-0.113628976
30	0x3de4156e	0.111369
31	0xbe33a6b5	-0.17544062
32	0x3e090a6c	0.13382882
33	0xbdb2008c	-0.086915106
34	0xbe08361a	-0.13301888
35	0x3d796fa7	0.060897496
36	0x3dc262a9	0.09491474
37	0xbdf3b358	-0.118994415
38	0xbe2d2f0e	-0.16912481
39	0x3def334d	0.11679707
40	0xbd86ffdb	-0.06591769
41	0x3c9cecfd	0.019155974
42	0xbd2ae56d	-0.041722704
43	0xbdf7679f	-0.12080311
44	0xbdbd3d1a	-0.0924017
45	0xbcad490d	-0.021152997
46	0xbd6d2441	-0.057895903
47	0xbdfc0839	-0.12306256
48	0xbdb53ba9	-0.0884927
49	0x3d52ad60	0.051434875
50	0xbd6e82bc	-0.058230147
51	0xbdc015c9	-0.09379155
52	0x3e0c6b77	0.1371287
53	0x3d9a5fdb	0.07537814
54	0xbe06af84	-0.13152891
55	0xbd330cce	-0.043713383
56	0xbdd6d24d	-0.104893304
57	0x3e114de2	0.14189866
58	0xbdc6c1ab	-0.09704908
59	0xbdd519bb	-0.10405298
60	0x3d8f3215	0.06991974
61	0x3cc14e07	0.023596777
62	0x3d4f0656	0.05054315
63	0xb9cef8ed	-0.00039476846
64	0x3e08ed0f	0.1337168
65	0x3d80fa27	0.06297713
66	0xbe19572c	-0.1497466
67	0x3e2894c1	0.16462995
68	0xbd91eb14	-0.07124916
69	0xbdaa5b71	-0.08318222
70	0xbd9c1a04	-0.076221496
71	0x3e2f29cf	0.17105792
72	0x3e6a4572	0.22878054
73	0xbcd58868	-0.02606602
74	0x3dd80cfc	0.105493516
75	0xbdb525cf	-0.08845102
76	0x3dcd57a8	0.10026485
77	0x3d8be633	0.068310164
78	0x3dfa64df	0.12226271
79	0x3e8ca65b	0.2747067
80	0xbe2517f6	-0.16122422
81	0xbc8c83f0	-0.017152756
82	0xbe016759	-0.1263708
83	0xbe60baa0	-0.21946192
84	0x3e55328b	0.20820062
85	0xbe2d4f00	-0.16924667
86	0xbe0124ab	-0.12611644
87	0x3e6a19bd	0.22861381
88	0xbd894da3	-0.06704261
89	0xbd792e34	-0.06083508
90	0xbe57207c	-0.21008486
91	0x3ecc83a8	0.39944196
92	0xbe86c47b	-0.26321778
93	0x3e88304b	0.26599345
94	0x3e127653	0.1430295
95	0x3d85a602	0.06525804
96	0xbcfc6367	-0.030809117
97	0xbd133d4c	-0.03594713
98	0xbb6e7b99	-0.0036389588
99	0xbe88c20d	-0.2671055
100	0x3dfa8a62	0.12233426
101	0xbe18c8c3	-0.14920335
102	0x3e840765	0.25786892
103	0x3dcf10a9	0.101105995
104	0x3e1dbd5d	0.15404268
105	0x3e2430d7	0.16034256
106	0x3dd99f3b	0.10626074
107	0x3dc3ef83	0.095671676
108	0x3e85986d	0.26092854
109	0xbe0bd5cd	-0.13655777
110	0xbd12595f	-0.035729762
111	0xbdedfeb6	-0.11620848
112	0x3e092876	0.13394341
113	0xbe1c3ac2	-0.1525679
114	0x3b853036	0.004064585
115	0x3e1a2005	0.15051277
116	0xbe914819	-0.2837532
117	0x3d17959a	0.037007906
118	0xbde57614	-0.11204162
119	0xbc064131	-0.008194254
120	0x3d66742c	0.056263134
121	0x3e5e1f7d	0.216917
122	0x3ea7d2e9	0.327781
123	0xbe2ccbf4	-0.16874677
124	0x3eac85a6	0.33695716
125	0xbf7873e5	-0.9705184
126	0xbdb26da9	-0.08712322
127	0xbdd12806	-0.10212712
128	0x3d73422e	0.059389286
129	0xbd027271	-0.03184742
130	0xbe32ca04	-0.17459875
131	0xbed0e7be	-0.40801805
132	0x3dcb0c1d	0.0991442
133	0x3e2ca710	0.16860604
134	0xbe27e998	-0.16397703
135	0x3db556cc	0.08854446
136	0x3e09ad58	0.13445032
137	0xbe59372b	-0.21212451
138	0xbe23a4dc	-0.15980858
139	0x3db79e2f	0.08965718
140	0x3e521853	0.20517091
141	0x3de58f38	0.112089574
142	0x3dfc774d	0.12327442
143	0x3db6067e	0.08887957
144	0xbe24f840	-0.16110325
145	0xbe106253	-0.14100008
146	0x3d14e17b	0.036347847
147	0x3d2780f5	0.040894467
148	0x3d40e17a	0.04709003
149	0x3e2af88a	0.16696373
150	0x3dd7c01c	0.10534689
151	0x3d2044c2	0.039128073
152	0x3e0738b6	0.13205227
153	0x3c5ba2cf	0.013405516
154	0xbd0ff17c	-0.035142407
155	0xbdb7e95f	-0.08980059
156	0xbe1d879f	-0.15383767
157	0x3eaf8c46	0.34286708
158	0xbdec3c4d	-0.11534939
159	0x3da9fb11	0.0829984
160	0xbda21b58	-0.07915372
161	0xbd2bfb3b	-0.04198764
162	0x3dace690	0.08442414
163	0xbddda976	-0.10823338
164	0x3dcb9236	0.09939997
165	0xbdfc0a0c	-0.12306604
166	0x3d600cb3	0.05469961
167	0x3d63b5a9	0.055593167
168	0x3dd15ca1	0.10222746
169	0x3ca17cc7	0.019712819
170	0xbdaebcc4	-0.08532098
171	0x3da4e019	0.08050556
172	0x3defa73f	0.117018215
173	0xbde85bdb	-0.11345645
174	0xbdde9a0e	-0.10869227
175	0x3d1df485	0.03856327
176	0x3d5e7f49	0.054320607
177	0xbe2541de	-0.16138408
178	0xbe006dd2	-0.12541893
179	0x3cc87f33	0.024474716
180	0xbd5f7d39	-0.05456278
181	0xbd855523	-0.06510379
182	0xbb4c57c2	-0.0031180237
183	0x3e19e3f2	0.1502836
184	0xbd954949	-0.07289369
185	0xbe1fe9ed	-0.1561658
186	0xbd94fba9	-0.07274563
187	0x3d3451a7	0.044023182
188	0xbdcf83ed	-0.10132585
189	0x3c3cbf15	0.011520167
190	0x3e193b0c	0.14963931
191	0x3d4d340b	0.05009846
192	0xbda6c984	-0.08143905
193	0xbcb9d5ca	-0.02268495
194	0xbddc89b7	-0.107684545
195	0xbba37e3c	-0.0049894135
196	0xba1dd2a2	-0.00060204614
197	0x3e401163	0.18756633
198	0xbdbb32bc	-0.09140536
199	0x3e6ae440	0.22938633
200	0xbd18ce67	-0.037306216
201	0xbe409036	-0.18805012
202	0x3d3a36ee	0.04546254
203	0xbdf5b572	-0.119974986
204	0x3e3dca59	0.18534221
205	0x3e2009ac	0.1562869
206	0x3ddd6c98	0.10811728
207	0xbe215e3e	-0.15758607
208	0x3e9a593e	0.3014621
209	0x3df85d9e	0.12127231
210	0xbbdeeb72	-0.0068029696
211	0xbcbb79c8	-0.022885218
212	0xbd00bfcb	-0.031432908
213	0x3cee41cb	0.029084107
214	0xbe059793	-0.13046102
215	0x3e0fad9c	0.1403107
216	0x3d9d7ff2	0.07690419
217	0xbe81336a	-0.25234538
218	0xbe7d9508	-0.24763882
219	0x3de5e704	0.11225703
220	0xbf148aad	-0.580241
221	0xbcc4069f	-0.023928938
222	0xbced5462	-0.0289709
223	0x3de5e8f1	0.11226071
224	0xbc1b8982	-0.009493234
225	0xbd861855	-0.0654761
226	0x3d6ebe11	0.05828673
227	0x3d4c0f38	0.0498192
228	0xbc9f8e77	-0.019477112
229	0xbe8db74f	-0.27678916
230	0x3e4c47a7	0.19949208
231	0x3d0d766d	0.034536768
232	0x3e0f0e04	0.1397019
233	0x3d599432	0.053119846
234	0x3e014199	0.1262268
235	0x3e2d04e0	0.16896391
236	0x3ebdb130	0.37049246
237	0xbd8af72b	-0.06785425
238	0xbe2dc5ce	-0.16969988
239	0x3d0f40f2	0.034974046
240	0x3e09fbce	0.13474962
241	0xbe2e0c4a	-0.16996875
242	0x3dc2d975	0.09514133
243	0x3e43eee9	0.19134106
244	0x3def1a0e	0.116748914
245	0x3e22588c	0.1585409
246	0xbd3a4008	-0.04547122
247	0xbdded565	-0.108805455
248	0xbd304c8c	-0.04304175
249	0xbde20e75	-0.11037914
250	0x3e8ad71b	0.27117237
251	0xbe478712	-0.19485119
252	0x3e0a98bf	0.1353483
253	0xbf09e292	-0.53861344
254	0xbd2d3820	-0.042289853
255	0xbe279cb2	-0.16368368

encoder.2.bias f4 [32]
0	0xbc8421ff	-0.016129492
1	0xbdd25b7c	-0.102713555
2	0xbc7a7b22	-0.015288146
3	0x3e230101	0.15918352
4	0xbc3771e7	-0.01119659
5	0xbe2369c9	-0.15958323
6	0xbde17c6f	-0.11010062
7	0x3dc49e34	0.09600487
8	0x3d033d0d	0.032040644
9	0x3ac2f044	0.001487263
10	0x3e0d9e41	0.138299
11	0xbe256da0	-0.161551
12	0x3e060c04	0.13090521
13	0xbd95faa0	-0.073231936
14	0x3d95c723	0.07313373
15	0xbe07e218	-0.13269842
16	0x3992e11e	0.00028015015
17	0xbe03111b	-0.12799494
18	0x3db0d973	0.08635225
19	0xbe2b2556	-0.16713461
20	0x3e43239d	0.19056554
21	0xbd54c4ad	-0.051945377
22	0x3c038117	0.008026383
23	0xbc83a702	-0.016070846
24	0xbe1a2cd0	-0.15056157
25	0x3e324c01	0.17411806
26	0xbdace97e	-0.084429726
27	0xbe4d2f0e	-0.20037481
28	0x3db49b23	0.088186525
29	0xbe3b3093	-0.18280248
30	0xbe329de5	-0.17443044
31	0xbe1c4275	-0.15259726

encoder.4.weight f4 [32, 32]
0	0x3da731d6	0.08163802
1	0x3c4aaa48	0.0123697
2	0xbe275d38	-0.16344154
3	0x3da39173	0.079867266
4	0x3d9b03cb	0.07569083
5	0xbdd32d05	-0.10311321
6	0x3ddbba64	0.107289106
7	0xbbb52468	-0.0055280216
8	0x3dfadb7e	0.12248896
9	0xbd9e40d0	-0.07727206
10	0x3d11b19e	0.03556978
11	0xbcd603ba	-0.026124824
12	0xbdd100b5	-0.10205213
13	0x3db9a27c	0.090641946
14	0xbc90db65	-0.01768274
15	0xbe1c1f0d	-0.1524622
16	0xbddbfae7	-0.10741215
17	0xbe33d0c2	-0.17560104
18	0x3dd1b649	0.10239846
19	0x3c69240e	0.0142297875
20	0x3e0cae59	0.13738383
21	0x3dcb3f3a	0.09924169
22	0xbd4c79a8	-0.049920708
23	0x3c89be71	0.016814442
24	0x3e0cf17d	0.13763995
25	0x3da5037c	0.08057305
26	0xba30a2d8	-0.0006738133
27	0x3e2a3ac9	0.16623987
28	0xbcb7bfcc	-0.022430323
29	0xbcdb1b55	-0.026746431
30	0xbd5ec258	-0.05438456
31	0x3d828170	0.063723445
32	0xbd195dc2	-0.03744293
33	0xbe233f56	-0.1594213
34	0xbc73b265	-0.014874076
35	0x3d41a71b	0.047278505
36	0x3d4cb4b8	0.049977034
37	0xbd9d3a1c	-0.07677099
38	0xbca21cc4	-0.019789107
39	0x3dd93495	0.10605732
40	0x3dfd52f0	0.12369335
41	0x3e079611	0.1324084
42	0x3e1788b4	0.14798242
43	0x3e8845b3	0.26615676
44	0x3bbc5686	0.005747619
45	0x3cb26b74	0.021779753
46	0xbdb2c9df	-0.0872991
47	0xbee248da	-0.44196206
48	0xbdccf89a	-0.100083545
49	0x3d007774	0.03136392
50	0xbd739c4c	-0.05947523
51	0xbe263a0f	-0.16233085
52	0xbd530b7c	-0.051524624
53	0x3dae7181	0.08517743
54	0x3df984b3	0.121835135
55	0x3dfe8fc1	0.12429763
56	0x3cdf2e67	0.027243806
57	0x3d830ec3	0.063993
58	0xbc0bc26d	-0.008530241
59	0xbdb6b3f5	-0.08921043
60	0xbe0dffb8	-0.1386708
61	0x3d29faa1	0.041498784
62	0x3d4b220e	0.049593024
63	0xbd883a16	-0.06651704
64	0xbe1f1efb	-0.15539162
65	0x3d5ed291	0.05440003
66	0xbe144c5d	-0.14482255
67	0x3df86b8d	0.12129889
68	0x3d331ba0	0.043727517
69	0x3dfec0bf	0.12439107
70	0xbd9d3ebd	-0.07677982
71	0x3e138a88	0.14408314
72	0xbe2d39c1	-0.16916563
73	0xbccb6b91	-0.024831565
74	0x3dc35733	0.09538116
75	0xbd242cfa	-0.040081955
76	0x3dfe8a49	0.124287196
77	0xbe128f84	-0.1431256
78	0x3e439644	0.1910029
79	0xbe954d13	-0.29160365
80	0x3def51ab	0.11685499
81	0x3e185a28	0.14878142
82	0xbe1e5bff	-0.15464781
83	0x3cd33cbe	0.0257858
84	0x3de67c45	0.11254171
85	0x3e26d439	0.16291894
86	0xbda93970	-0.082629085
87	0xbd3b6c4f	-0.045757588
88	0xbdcd9ebe	-0.10040043
89	0xbe5b1423	-0.213944
90	0x3e58d53d	0.21175094
91	0xbd713091	-0.058884207
92	0xbd90261c	-0.07038519
93	0x3e0ddd79	0.13854016
94	0x3dde28ee	0.108476505
95	0x3d2f72a6	0.042833947
96	0xbc8965a0	-0.016772091
97	0x3bbea8c0	0.0058184564
98	0xbdbcee9c	-0.092251986
99	0x3d69d492	0.05708749
100	0x3e087b52	0.13328293
101	0x3dec6bc7	0.115439944
102	0x3daaf451	0.08347381
103	0xbe14e0c7	-0.14538871
104	0xbdd19b65	-0.10234717
105	0x3e52991a	0.20566216
106	0xbd5b2686	-0.053503536
107	0x3e1eaacf	0.15494846
108	0xbdcd1faa	-0.10015805
109	0xbd79f455	-0.06102403
110	0x3ded6774	0.11591998
111	0xbf99a517	-1.2003506
112	0xbe1ded96	-0.15422663
113	0x3dc4866b	0.09595951
114	0xbb8ec193	-0.004356572
115	0x3dd9b1c5	0.1062961
116	0x3e02a019	0.12756385
117	0x3dc32cb7	0.09530013
118	0xbe256a1b	-0.16153757
119	0x3d0d437f	0.034488197
120	0x3dbea041	0.0930791
121	0x3e6425d0	0.2228005
122	0x3d823c8b	0.06359204
123	0x3e009350	0.12556195
124	0xbe12e1cf	-0.14343952
125	0x3b1dada5	0.00240598
126	0x3df2ef7a	0.11862083
127	0x3e0b42e9	0.13599743
128	0xbab676c4	-0.0013920893
129	0xbddc5111	-0.1075765
130	0x3e3e470c	0.1858179
131	0x3e1ab1cf	0.15106891
132	0xbe4a97b9	-0.1978444
133	0xbcac8ca7	-0.021063162
134	0xbd87e127	-0.06634741
135	0x3e41f0fd	0.18939586
136	0xbda99b35	-0.082815565
137	0x3e7169da	0.23575535
138	0x3caf5efd	0.021407599
139	0xbdc64df3	-0.096828364
140	0x3a193f42	0.0005845913
141	0x3e227534	0.15865022
142	0xbe88930a	-0.26674682
143	0x3d7eaa4c	0.062174127
144	0x3cfc3f66	0.03079195
145	0xbe116a90	-0.14200807
146	0x3e2a08f6	0.16604981
147	0x3e05bcd5	0.13060315
148	0x3e009d11	0.12559916
149	0xbdf32e30	-0.11874044
150	0xbe124683	-0.1428471
151	0x3ba61791	0.0050687273
152	0x3da97e07	0.08275991
153	0x3eb8ccbc	0.360937
154	0x3e2b9b5c	0.16758484
155	0xbdf3310d	-0.1187459
156	0xbe34a4af	-0.17640947
157	0xbd9ce0c4	-0.07660058
158	0x3d44148a	0.04787115
159	0x3df34723	0.118788026
160	0xbdc402fb	-0.09570881
161	0x3dd23898	0.10264701
162	0x3d9a8d1a	0.07546444
163	0x3e2f01b0	0.17090487
164	0xbd960b96	-0.073264286
165	0xbdf503fc	-0.119636506
166	0xbc670eda	-0.014102662
167	0x3d973e72	0.073849574
168	0x3c45b687	0.012067444
169	0x3de941f9	0.113895364
170	0xbd0d8931	-0.034554664
171	0x3e2ad706	0.16683587
172	0x3d32750a	0.04356865
173	0xbda0251c	-0.07819578
174	0xbe076d92	-0.13225392
175	0xbed25e74	-0.41087687
176	0xbe566578	-0.20937145
177	0x3ddaeb66	0.1068943
178	0x3da52cc6	0.080651805
179	0xbddc0180	-0.107424736
180	0x3e4d0ee8	0.20025218
181	0xbe20625c	-0.15662521
182	0xbe0dc9eb	-0.13846557
183	0x3db1887b	0.0866861
184	0xbe2e54a7	-0.1702448
185	0x3cc1e1e4	0.023667283
186	0x3ed4bb97	0.4154937
187	0x3d9fbd0e	0.07799731
188	0x3d972df8	0.07381815
189	0x3ccfcb78	0.025365576
190	0xbc3b8e68	-0.0114475265
191	0x3cd9b6b0	0.02657637
192	0x3dc3bb69	0.0955723
193	0xbe2a5155	-0.16632588
194	0xbe121f6f	-0.14269803
195	0x3cedc842	0.029026154
196	0xbe022333	-0.1270874
197	0x387a3a37	5.965886e-05
198	0xbd6df408	-0.058094054
199	0xbd45fd31	-0.048337165
200	0xbdf7ef65	-0.12106208
201	0x3ca5e9b2	0.020253036
202	0xbe31de5d	-0.17369981
203	0xbe1fca0b	-0.15604417
204	0x3d33ef58	0.043929428
205	0x3d913ee4	0.070920736
206	0xbdd0db9d	-0.10198138
207	0x3d47594f	0.048669156
208	0x3d9130f8	0.07089418
209	0xbdab389f	-0.08360409
210	0xbd8d180b	-0.068893515
211	0xbdf94b4b	-0.12172564
212	0xbdf6799a	-0.120349124
213	0xbc83f4a8	-0.016107872
214	0xbe1496f5	-0.1451071
215	0x3c8cc8ca	0.017185587
216	0xbca2b048	-0.019859448
217	0xbe18931a	-0.14899865
218	0x3c5810cf	0.013187601
219	0x3d4029e7	0.04691496
220	0x3cc5d686	0.024150144
221	0xbd0b3f6b	-0.033996027
222	0x3df60f31	0.12014616
223	0x3e26e471	0.16298081
224	0xbe2448fe	-0.1604347
225	0x3d4e4e39	0.050367568
226	0xbd75fb9d	-0.06005441
227	0xbdf70c44	-0.12062886
228	0xbd18ea35	-0.037332732
229	0x3d66421f	0.0562154
230	0xbc4d6602	-0.012536528
231	0x3e2c779c	0.16842502
232	0x3dd78c75	0.10524837
233	0x3b9efc95	0.0048518875
234	0x3da2cef7	0.07949632
235	0x3e12f65c	0.14351791
236	0xbc9786d7	-0.018496914
237	0x3d0f62f0	0.035006464
238	0x3cf9e8aa	0.03050645
239	0xbff045e0	-1.8771324
240	0xbe3671ce	-0.1781685
241	0x3cdea267	0.027177049
242	0xbd145b31	-0.03621978
243	0x3d3d3100	0.04618931
244	0xbd00c033	-0.031433295
245	0x3d905112	0.07046713
246	0xbdfb8a86	-0.122822806
247	0x3dd2f7a5	0.10301141
248	0xbe1144b2	-0.14186361
249	0x3ce44b99	0.027868079
250	0xbd1610d7	-0.036637153
251	0x3d1300a9	0.0358893
252	0x3d80177e	0.06254481
253	0xbdaf3323	-0.085546754
254	0x3e096714	0.13418227
255	0xbe135a20	-0.14389849

encoder.4.bias f4 [32]
0	0xbd8a15b2	-0.06742419
1	0x3de269e2	0.11055352
2	0x3e3fb4f6	0.18721375
3	0x3e202ff0	0.15643287
4	0xbd4a0620	-0.049322248
5	0xbc694671	-0.014237986
6	0xbe2b4ff7	-0.16729723
7	0x3e080898	0.13284528
8	0xbe16adf3	-0.14714794
9	0xbe000230	-0.12500834
10	0x3d9d2b93	0.07674327
11	0x3e223e80	0.15844154
12	0xbd12e42b	-0.03586213
13	0xbe13dd30	-0.14439845
14	0x3c8727e3	0.016498512
15	0xbd1e3eff	-0.038634297
16	0x3e2c82ca	0.16846767
17	0x3b7f83e8	0.0038988534
18	0xbddb4b9d	-0.107077815
19	0x3db72957	0.08943432
20	0xbd951397	-0.07279127
21	0xbe0c17aa	-0.13680902
22	0xbe07bb25	-0.13254984
23	0x3c625aab	0.013815562
24	0xbd20b923	-0.03923906
25	0x3d8515b1	0.06498278
26	0xbd9d98a7	-0.07695132
27	0x3d22766e	0.039663725
28	0x3d83892d	0.064226486
29	0xbde5d5fd	-0.11222456
30	0x3e21d237	0.15802847
31	0xbe747f1c	-0.23876613

encoder.6.weight f4 [2, 32]
0	0xbd908ed5	-0.07058493
1	0x3df6e275	0.12054912
2	0x3e322089	0.17395224
3	0x3e6c975b	0.23104613
4	0x3ca2c928	0.01987131
5	0x3d956900	0.07295418
6	0x3cf36dda	0.029715467
7	0x3db16f28	0.086637795
8	0xbd93203b	-0.07183882
9	0xbe28cd1d	-0.16484495
10	0x3da42379	0.08014578
11	0x3e641bc1	0.22276212
12	0x3d894d45	0.06704191
13	0xbc775d4d	-0.015097928
14	0xbe8f3f41	-0.27977946
15	0xbe8c9baf	-0.27462527
16	0xbf4bf3a1	-0.79668623
17	0xbe2b356e	-0.167196
18	0x3e286b48	0.16447175
19	0x3c9c3a3d	0.019070739
20	0x3dbe2119	0.092836566
21	0x3e33aad9	0.17545642
22	0xbe99b768	-0.3002274
23	0x3e12d87c	0.14340395
24	0x3dbd8fa7	0.09255915
25	0xbd4afbc3	-0.049556505
26	0x3e0ba320	0.13636446
27	0xbe30e7bb	-0.17275898
28	0x3e3a1252	0.18171051
29	0x3f61c3e8	0.88189554
30	0xbd985d68	-0.07439691
31	0x3db4c3f7	0.0882644
32	0xbe092c19	-0.13395728
33	0x3e43186d	0.19052286
34	0x3e0dcb22	0.1384702
35	0xbde2732f	-0.11057126
36	0xbe81264c	-0.2522453
37	0xbcba4f11	-0.02274278
38	0xbe03c694	-0.1286872
39	0x3c5653e7	0.013081527
40	0x3e27dc4b	0.16392629
41	0x3f48628d	0.78275377
42	0x3e377795	0.1791671
43	0xbe033a43	-0.12815194
44	0x3f109454	0.5647633
45	0xbe25266c	-0.16127938
46	0xbf095f75	-0.5366128
47	0x3e3cd29a	0.18439713
48	0xbe9ad085	-0.30237213
49	0x3b168e71	0.0022973085
50	0xbd7cc828	-0.06171432
51	0xbe3edb47	-0.18638335
52	0xbb0ddea6	-0.0021647601
53	0x3e34493b	0.1760606
54	0xbd1ae59c	-0.03781663
55	0x3ea161a9	0.3151982
56	0x3e3bdf64	0.18346936
57	0x3da47a54	0.08031145
58	0x3dbb726e	0.09152685
59	0xbe9c1ff9	-0.30493143
60	0x3e591daf	0.2120273
61	0xbfd1263f	-1.6339797
62	0x3e020c74	0.12700063
63	0x3d147231	0.036241714

encoder.6.bias f4 [2]
0	0xbdd95c1b	-0.10613271
1	0xbe019687	-0.12655078
