examples/single_runs/run_008/models/latent_dynamics.pt (torch, 12925 bytes, 8 tensors)

dynamics.0.weight f4 [32, 2]
00000000: a81c 56be 3ad8 0d3f 35ca 23bf a0e5 e73e
00000010: 1df1 753f 64d1 8ebc 3816 72be 1b37 48bf
00000020: e1c2 72be 8cd2 c4be 56fd 483f 0fb5 1a3f
00000030: 750b 58be e184 a0be aaef 4ebf 283e 09bf
00000040: 228c 4d3f 01fe b23e 97e6 753e 89ec 1e3f
00000050: 5bf2 56be 8dcd 25be 7dbe d7be b1c5 1a3f
00000060: 1ef0 49bf 43b9 70be 4add 26be 3201 d83e
00000070: 33e2 5ebe 0639 26be 974e 38be 7430 dbbe
00000080: ac79 d0bd 6678 8b3e f484 99bf 162a 5b3e
00000090: ccd1 e33e 533b 4dbe f6bc 0ebf 1ee1 2cbe
000000a0: d5c6 d73e 5e6d 22bf a096 87bf f179 c03e
000000b0: f3ca 76be 1035 8fbe 4218 d83e 7b85 19bf
000000c0: c2e4 2ebf 56b8 a9bd 9dcb 893e ebea 1bbf
000000d0: 0079 f8be 19c0 303f 45e1 f23e 75be 083e
000000e0: 3d67 53bf 8f17 cf3e df49 f4ba 087f d2bc
000000f0: be5c b93e 6eaf d33e 515e dbbd 5f0c fbbd
-0.20909369 0.5540806 -0.6398042 0.45292377 0.96071035 -0.01743383 -0.23641288 -0.78209084
-0.23707153 -0.38441885 0.7851156 0.60432523 -0.2109812 -0.3135138 -0.8083445 -0.5361047
0.8029195 0.34959415 0.24013744 0.62079674 -0.20990889 -0.16191693 -0.4213752 0.60457903
-0.78882015 -0.23508172 -0.16295353 0.42188412 -0.21765976 -0.1623269 -0.1799873 -0.42810404
-0.10179457 0.27240294 -1.1993699 0.21402773 0.44496 -0.20042162 -0.5575708 -0.1688275
0.42143884 -0.6344813 -1.0592842 0.37593034 -0.24100856 -0.2797017 0.42206007 -0.599693
-0.68317807 -0.082871124 0.26913157 -0.6090533 -0.48529816 0.6904312 0.47437492 0.13353904
-0.82579404 0.4044766 -0.0018637738 -0.025695339 0.3620357 0.4134478 -0.10711349 -0.12258219

dynamics.0.bias f4 [32]
00000000: 50e6 29bf b4ca 08bf 2361 30be 401f cd3e
00000010: 7108 123f 2fc9 cabe f8d2 3a3f 205e 8ebe
00000020: 3192 943e 2a31 efbc 88ba 593f f69a 5fb9
00000030: 41ab 493d 8093 01bf 0583 513f f8c7 2f3d
00000040: 732d 0b3f 86af 03be 200b cb3c 461e 193d
00000050: 9881 f1be ba44 cfbe a6f3 af3e 7e0b f93e
00000060: d293 e13c 9813 063f 5d6c 80bd 4516 af3d
00000070: c1ec ebbe d0f4 5c3e fc5e 68bd ddc9 2c3f
-0.66367054 -0.534343 -0.17224555 0.40062904 0.5704413 -0.39606616 0.7297816 -0.27806187
0.29017785 -0.029198248 0.8505025 -0.00021324665 0.049235586 -0.5061569 0.81840545 0.042915314
0.54366225 -0.12859926 0.024785578 0.037382387 -0.47169185 -0.40482122 0.34365577 0.4864158
0.027536307 0.5237365 -0.06270669 0.085491695 -0.46079066 0.21577764 -0.05673121 0.6749552

dynamics.2.weight f4 [32, 32]
00000000: 7387 7f3e ccb7 063e 17ab 1a3d 63e9 c13d
00000010: 8249 4aba bf2b 233e 2973 ebbc 1c93 213e
00000020: 44bd 6e3e 7edf 913e 4670 98be 202f 6cbc
00000030: e181 403b 87d7 e83d 776c 36be 9341 92bd
00000040: cc0b f63d 46ab 6cbe d59f 2a3e 7b1c a43c
00000050: 68a5 ca3c 4873 0f3e 5838 d03d cb5e c13d
00000060: fa61 d73c a055 8dbd 2f3e 663e c2c4 8f3d
00000070: b7f0 363e a8e9 3b3d c27b 663e b7c3 7cbe
00000080: 8fc0 9dbd 4903 8fbf 91f3 233e 001a 0ebe
00000090: 12a8 8c3e 1dc5 553e b2c6 8e3e 9bb3 c6be
000000a0: af01 533c 460e c33d 7420 54bb 78e7 25be
000000b0: 6a72 19bf 4159 c73d 259e 4bbc 14f8 4d3e
000000c0: 3da8 1b3e 781f 06c0 031d cfbc 30c9 5cbe
000000d0: b39b 48bd 9371 afbf 90cc fe3d 1d75 91bd
000000e0: 62db 5fbf 74a8 e83d 992b 863d 14e5 2d3e
000000f0: 0643 9bbf 736e cf3d 12ec b73d 8143 103d
00000100: bddb aa3c fa79 16bc 3a9f 4fbe 39a8 213e
00000110: 0b57 b13d 1771 dcbd f148 af3e 3b29 78bd
00000120: ed0b 29be f587 78be 1f41 7c3e 1c49 e03d
00000130: a582 533c cd43 35bd 9c9c a23e bdfe c8bd
00000140: 617d 64bd 4d5d 573e 78a8 c43d ed68 3cbe
00000150: c33b 5dbe 0217 933d d5c6 f6bb 3292 363e
00000160: 1058 e6bc 3ddb 4c3e bbeb 5f3e 035a 27bf
00000170: 1999 3bbe 0941 4fbd 8bc8 e1be 3d64 413d
00000180: 1b2a e6be 0899 58be f2d4 ffbd b9b9 c63d
00000190: 50a5 0b3e 0fd4 d5be 686d e63e e487 cabe
000001a0: 4dab 8dbd 5a8f a5bd 7c38 b63e 70f9 afbd
000001b0: 3e0c 863e ea89 04bf 178f 243e 575b 99bd
000001c0: 7ce0 083e f6b5 aebc 00ee 003e 1b2c 573e
000001d0: 4f49 003d edaa 8ebc ba8e 893e 076b 613d
000001e0: e5c0 4c3d 58b5 733e 31b6 9d3d 31e2 3dbe
000001f0: 30a0 763d 94d8 5f3e e86e b0be 20d6 243e
00000200: 8a77 9c3d edca dbbe fb29 273d efbe 0cbd
00000210: 734e 773e b611 99bb 72e3 693e b7f7 20bf
00000220: 3390 e83d 6d74 3d3e 91a9 a13e 63a3 d1bd
00000230: d319 5f3e 1539 443e d786 003f cbc9 0c3d
00000240: 455e 7e3e 2f03 50be b53a 06be aff6 143e
00000250: f563 a5bd fc87 1fbe 3efa 003f 9c43 6b3c
00000260: e347 1b3f fe91 d4bc 87a6 aabd 2db9 68bd
00000270: 24c9 b8be e456 e63d 21d1 f6bd b007 f53d
00000280: 0e9a 8ebe c2d1 84be a784 d1bc 7991 26bd
00000290: 27b7 b53e f74f 7abf fa5b 113f 6798 1abf
000002a0: e8db 00bf de1d d6bc 0878 653e 4924 143e
000002b0: 64ed bb3d 1d66 71bd bf5c b73e bed9 fc3d
000002c0: b536 203d e8a7 c33b 6d5a 573e 9e6a a93d
000002d0: 0a49 16be 1c03 80be e1de 5a3e 48a5 f33d
000002e0: 2ab6 633e 135f cb3d 22f4 563d 2c03 2ebf
000002f0: 1a80 dabd 2445 dc3c 9b6e f4be 3770 3f3e
00000300: 7696 6d3d 3265 803e 59fa 23bf 812a e33e
00000310: a3be 6bbd e817 8bbe 2f24 6cbe 1ad4 10bf
00000320: d38a 7c3c 005e 81bd 439f 973e 464e 683e
00000330: 758a e9be 0618 18be dc7e a53e 4445 8a3e
00000340: d5f9 083d f7ae 353e ab0e aabe faa6 00bf
00000350: 97c9 84bf 6132 4a3e 7c74 f8bd 2bcf c5be
00000360: a845 ebbe 69bd 95bd fc98 213e c8dc 5bbe
00000370: d82f f63d 9d84 1a3e 90f8 a5be a875 d43d
00000380: 7ba7 c3bd 8871 ebbd 558b 27bd ddf2 01bf
00000390: bbcf 803e 7541 34be 55cc 0c3e 975f 03bf
000003a0: 5f4e f33d 913d a33d 2365 c93e ef9a a83d
000003b0: 08d8 523e 5fac a03b d1a0 483e 7ea3 0abf
000003c0: 399c 60ba 94d9 1ebe 20ff 503d e31f cf3e
000003d0: e862 a2bd fb0a 83be d5b2 aa3e 57cd dcbb
000003e0: 7202 afbe c3cc 6fbe f3e0 2f3e 6a78 133e
000003f0: 2808 91be 0d7f bbbc 3a1d ec3d 7022 2e3e
0.24954014 0.1315605 0.03776082 0.09468343 -0.0007716642 0.15934657 -0.028741436 0.15778774
0.23314387 0.28490824 -0.29773158 -0.014415532 0.002937429 0.113692336 -0.17814814 -0.071414135
0.12013969 -0.2311221 0.16662534 0.020033112 0.024737075 0.1400882 0.10166997 0.094419084
0.026291836 -0.06901097 0.22484659 0.070199504 0.17865263 0.04587713 0.22508147 -0.24684034
-0.07702743 -1.1172878 0.16010882 -0.13877106 0.27471977 0.20875974 0.27885967 -0.38808903
0.012878819 0.09524207 -0.0032367976 -0.1620158 -0.59940207 0.09733821 -0.012427841 0.20114166
0.15200897 -2.0956707 -0.025282389 -0.21561122 -0.04897661 -1.3706535 0.12441361 -0.07102416
-0.87444127 0.11360255 0.06551284 0.16981918 -1.2129829 0.101284884 0.08980574 0.035220627
0.020856733 -0.009184355 -0.20275584 0.15786828 0.0865918 -0.10763758 0.34235337 -0.060586195
-0.16508456 -0.24270613 0.24634217 0.109514445 0.012909566 -0.044254113 0.31760108 -0.098142125
-0.055783633 0.21031685 0.09602445 -0.18399401 -0.21604829 0.07182123 -0.007531027 0.17829207
-0.028118163 0.20005508 0.21867268 -0.6537172 -0.18320121 -0.05059913 -0.44098315 0.047214735
-0.44954 -0.21152127 -0.12491788 0.097033925 0.1363728 -0.4176335 0.45005345 -0.395568
-0.06917439 -0.08083983 0.3558997 -0.08592498 0.26181215 -0.5177294 0.1607021 -0.07488125
0.13366884 -0.021327 0.1259079 0.21012919 0.031319913 -0.017415488 0.26866704 0.05503371
0.049988646 0.23799646 0.07700766 -0.18543316 0.06021136 0.21859962 -0.34459615 0.16097307
0.07639988 -0.42928258 0.04081152 -0.034361776 0.2415102 -0.0046713008 0.2284067 -0.6287798
0.11355629 0.18501444 0.3157468 -0.10236242 0.21787195 0.191624 0.5020575 0.034372132
0.24840648 -0.20313714 -0.13108332 0.14547227 -0.08075706 -0.15579218 0.5038184 0.014359381
0.60656565 -0.02594852 -0.08332544 -0.056817222 -0.36090958 0.11247042 -0.12051607 0.11964357
-0.2785191 -0.25941283 -0.025575949 -0.040666077 0.35491297 -0.97778267 0.5678097 -0.603888
-0.5033555 -0.026137289 0.2240907 0.14466967 0.09176138 -0.058935273 0.35812947 0.123462185
0.039114673 0.0059709437 0.21030588 0.08272289 -0.146763 -0.25002372 0.21374084 0.11896759
0.22237459 0.09930243 0.052478917 -0.6797359 -0.10668965 0.026888438 -0.47740635 0.1869515
0.05800482 0.25077206 -0.64053875 0.44368365 -0.057554852 -0.27166677 -0.23060678 -0.5657364
0.015413958 -0.06316757 0.29613695 0.22686109 -0.45613447 -0.14852914 0.3232335 0.2700597
0.033441383 0.17742525 -0.33214316 -0.50254786 -1.037402 0.1974578 -0.12131593 -0.3863462
-0.4595158 -0.07311518 0.15781015 -0.2147094 0.12020844 0.1508965 -0.324162 0.10374004
-0.09553429 -0.11496264 -0.04090436 -0.50761205 0.25158486 -0.17603095 0.13749821 -0.51317734
0.118801825 0.07970727 0.39334974 0.08232676 0.20590222 0.0049033607 0.19592597 -0.5415572
-0.0008568201 -0.15512687 0.051024556 0.40454015 -0.07929021 -0.25594315 0.33339563 -0.0067383456
-0.34181553 -0.23417954 0.17175655 0.14401403 -0.28326535 -0.022887731 0.11529012 0.17005324

dynamics.2.bias f4 [32]
00000000: 16fa 233e 76dd fd3d bfa9 7f3e cbdb fb3d
00000010: 8774 273e e722 843e 6d31 9c3d 87c8 983e
00000020: 4cbc 0e3e 95c1 5e3e 1ec6 19bd e596 83bd
00000030: 633a 4c3e 0724 cabd 77f5 ff3c 2485 c53d
00000040: f845 a4bd 0b59 3f3e e844 8f3e 5b49 913e
00000050: 5640 81bd 95e2 403e 4b6d 2b3e f436 963e
00000060: 9a6b 323e 84a4 083e 3c38 eb3d dd66 8c3e
00000070: 2289 263e 5231 55bb 1024 9c3c 9ba3 33be
0.16013369 0.12395756 0.24967097 0.122977816 0.16353045 0.25807878 0.07626615 0.2984049
0.13939017 0.21753533 -0.037542455 -0.06425265 0.19944148 -0.09870153 0.031244976 0.09644535
-0.08021158 0.18686311 0.2798226 0.28376278 -0.06311099 0.18836434 0.1674091 0.293388
0.17423859 0.13344008 0.11485335 0.27422228 0.1626325 -0.0032530618 0.019060165 -0.1754288

dynamics.4.weight f4 [32, 32]
00000000: af6f 19be b204 0ebe b77d de3d 4913 24bd
00000010: d96d 38be 8ac2 163e e0aa 5b3d 0155 0dbe
00000020: 32d6 1abe 321e 813d 24c0 b9bb e2c3 ab3d
00000030: ece3 b43d 917f e6bd 96ce dd3d 1df5 1f3e
00000040: 6a07 33be 5992 17be 0f57 78bd c99c d1bd
00000050: 6d4e 07be 14ca 4cbe 0b5d f7bd 8151 373b
00000060: 4a14 0ebd 0de2 88bc d081 8a3d ce7e c23c
00000070: 1c4f 8e3c 5cd5 1bbe f4f5 ff3b ad9d 383d
00000080: 1005 e0be ac9b e13e 2f22 fa3e ee40 0f3f
00000090: e95e 973e 1adb 683f 5825 c5be 3f1f 99bd
000000a0: 3c6a 813e f466 ccbd 599e fdba 0ede 973e
000000b0: 5410 db3e 1b41 b33d 2d79 a73d 31f3 abbd
000000c0: b592 bdbc 4a64 91be 0126 b33e a7ae 9e3e
000000d0: 0968 46be 58b9 803e dd3c eabe 9f76 a63e
000000e0: d387 afbe b052 bc3e 136d 70bd 65be ad3e
000000f0: 62f5 cc3d ceae c43e e854 6d3e c128 943e
00000100: 6f6c c3bd 50a0 f0bd 65fe 26be 7832 743d
00000110: cedf 6fbc c953 23be a3e5 9fbd 7710 133e
00000120: 2320 853d d9d1 d2bd 5d5a 2bbe 071f 453b
00000130: 713b 31bd 096f 01be 8591 1a3c 1e32 11be
00000140: cb42 2ebd d365 5f3c c306 633d 7586 bcbd
00000150: f54a 043e e9c3 30be be66 e9bc bde7 bc3d
00000160: cb92 23be ba64 853d eb67 363b 1fbe ecba
00000170: 8deb 273e 5022 be3d a47f 81bd 51f4 073e
00000180: e002 f8bd e7fd ad3d 1270 783e d49b e73e
00000190: 94db 04be d400 453e 9eb5 02be f567 09be
000001a0: 1202 2d3e 10ed f73d 9659 babc 455c fe3d
000001b0: 2fe3 ad3d a39d 1ebf 2db1 02bd 30f4 d2bd
000001c0: c210 acbd f3f1 223e 86c1 523e 5ac1 2c3e
000001d0: cef8 7fbf 86b4 4f3d 1f6b c83d 3276 14be
000001e0: a91d 1cbe 5df4 a53d 81c9 333e bd2f 7c3d
000001f0: 4901 4a3e b2e6 703a 6c0f 343e caa7 183e
00000200: 06eb 89bd 4d27 f5bd 8b36 15be 48ae 9d3c
00000210: 6f2b 94bd 30ad 0fbe b241 23be a836 a03d
00000220: e02d 43be 0b23 46bd caab 5cbe d431 d5bd
00000230: e94a cdbd 2936 a3bd b2cf a13d a87b b4bd
00000240: 1990 11be b5be 933d cb25 d33d 3e59 233d
00000250: 8e82 cbbd 46f8 33be ad5d 763d 30de 46bd
00000260: d75e 25bd 3b8a 653d eb30 2cbd 4ec8 ecbd
00000270: 3c49 fb3d e4a2 183e 3938 dfbd 1889 13be
00000280: 6e1e 08be 6e97 f0bf f647 57be 8373 0abe
00000290: a035 1a3f 638f ce3c 226c f23d 0861 923e
000002a0: b0a8 b5bf 0bd4 d1bf 1fa2 7a3e a16e d53d
000002b0: 2a20 c4be 6177 403c 2633 dabd 7f4c 22be
000002c0: 2c3a a53d 3b20 793e 56ae ebbf 20b5 623e
000002d0: eb3f 623e 0bca a13c 0cb3 043e 37ed f03d
000002e0: 39b5 303e 2f9e af3d df98 f43e e02d 873f
000002f0: 3c8f b43d 4e8d 163f 9824 363e 08de c9bf
00000300: 0c8a 13bd 4317 2d3e e370 0a3e d0f1 013f
00000310: 81d1 efbc c192 3d3d 4ba1 afbd 9eb0 003e
00000320: b3cf 9e3e 9125 3e3e 011c da3d d4fb 3b3c
00000330: fc1d 15bb cabc ccbe 1011 153e 1fb8 38bd
00000340: c8a3 65be e1a2 143b 0faf e73e 9cff 4d3c
00000350: 6d0e 1cbf e9f9 9b3e aa97 8abe cff2 283e
00000360: e3d5 b43d 1c23 0a3c 1ecc f43d 0557 a83e
00000370: 2f7d dcbd 9cee 853d 41ea ee3d 0af7 d5bd
00000380: a81c b8be 4fb6 943d 17a0 dc3c 5c9a ac3e
00000390: efca 263c d8df 4a3e 44a4 85be e136 0e3e
000003a0: dae3 2f3e 305f 4b3e cc53 e4bd c034 b4bd
000003b0: 4682 9bbc 02e1 bdbe a027 30bd 315f 203e
000003c0: c4f3 d6be 80b4 b0be ab3c 9e3e 967d d93d
000003d0: b389 11bf ebb1 7cbd f6c8 b6be f811 873e
000003e0: 5ed0 1cbd 730a edbc b054 b43e 36a1 1e3e
000003f0: 56ad 413e 5365 5e3d 3fa0 403d 5e61 423e
-0.1498401 -0.13868979 0.10863822 -0.040057454 -0.18010654 0.14722648 0.053629756 -0.13801958
-0.15120772 0.063045874 -0.005668657 0.08386971 0.08832535 -0.112548 0.10830419 0.15620847
-0.17483297 -0.14801921 -0.0606299 -0.102349825 -0.13213511 -0.19998962 -0.120782934 0.0027972164
-0.034687318 -0.016709352 0.06763041 0.023742106 0.017371707 -0.15218109 0.0078113023 0.045072246
-0.43753862 0.4406408 0.48854205 0.5595845 0.29564598 0.9095932 -0.38505054 -0.07476663
0.25276363 -0.09980574 -0.001934956 0.29661602 0.42785895 0.08752652 0.08177409 -0.083959945
-0.023141244 -0.28396827 0.34989932 0.30992624 -0.19375624 0.25141406 -0.4574956 0.32512376
-0.34283313 0.36781836 -0.05869777 0.33934322 0.100077406 0.38414615 0.2317692 0.28937343
-0.095421664 -0.11749327 -0.16307981 0.059618443 -0.014640762 -0.1594993 -0.078074716 0.1436175
0.0650027 -0.102939315 -0.1673369 0.0030078308 -0.04326958 -0.12640013 0.009434109 -0.14179274
-0.042544167 0.013635117 0.05542637 -0.09205333 0.12919219 -0.17262234 -0.028491374 0.09223888
-0.15973966 0.06513353 0.0027832936 -0.0018062032 0.16398449 0.09283888 -0.06323174 0.13276793
-0.12109923 0.08495694 0.24261501 0.45236075 -0.12974387 0.19238597 -0.12764594 -0.13418563
0.16895321 0.12105763 -0.022747796 0.12419943 0.084905975 -0.61959285 -0.03190725 -0.10300481
-0.08401634 0.15912609 0.20581636 0.16870633 -0.9998902 0.05070927 0.09786057 -0.14498213
-0.1524569 0.08103249 0.17557336 0.061568964 0.19727053 0.000918965 0.17584008 0.14907756
-0.0673428 -0.11970387 -0.14571588 0.019248143 -0.07234847 -0.1403091 -0.1594303 0.07822925
-0.19060469 -0.048373263 -0.21549907 -0.104098946 -0.100240536 -0.079693146 0.07900943 -0.08812648
-0.14215125 0.07214109 0.10309943 0.03988003 -0.09937011 -0.17575178 0.06014793 -0.04855174
-0.04037365 0.05604003 -0.04203884 -0.115616426 0.12269828 0.14905888 -0.108993955 -0.14407766
-0.13292858 -1.8796213 -0.21023545 -0.13520627 0.60238075 0.025214856 0.11837031 0.28589654
-1.4192104 -1.6392835 0.24475907 0.104214914 -0.3830579 0.011747212 -0.10654287 -0.15849493
0.08067736 0.24328701 -1.8412578 0.22139406 0.22094695 0.019749662 0.12958926 0.11763995
0.17256631 0.08575093 0.4777288 1.0560875 0.08816382 0.58809364 0.17787397 -1.5770884
-0.036020324 0.16903405 0.13519625 0.507596 -0.029274704 0.046282534 -0.08575686 0.12567374
0.31017837 0.18569018 0.106498726 0.011473615 -0.0022753468 -0.39987785 0.1455729 -0.045097467
-0.22425759 0.0022680091 0.45250747 0.012573149 -0.6095951 0.30464104 -0.27068835 0.16498874
0.08829858 0.008431222 0.11952995 0.3287889 -0.107660644 0.06539652 0.11665774 -0.104475096
-0.35959363 0.07261335 0.026931806 0.33711517 0.010180219 0.19811952 -0.26101887 0.13888122
0.17176762 0.1986053 -0.111487955 -0.08799124 -0.018983018 -0.3708573 -0.04300654 0.15661313
-0.41982853 -0.3451271 0.3090566 0.10619657 -0.5685074 -0.061693113 -0.35700196 0.26380897
-0.038284652 -0.028935647 0.3522086 0.15491185 0.18913779 0.05429585 0.047027823 0.18982455

dynamics.4.bias f4 [32]
00000000: 88e0 d13c 1f34 17bd 7f85 30be 792f cf3d
00000010: c403 503d 3d4f 453e b240 6e3e 2920 5a3e
00000020: a08a 55bd 71c6 543e 2c2c 00be a72f a23e
00000030: 3dbb 993e 8338 6ebe 6653 2ebe ed46 03bd
00000040: 6b4a c8bd 8e70 ab3d 08f4 7a3d f7e5 8e3e
00000050: 5235 f63d cd60 a23c 8db9 b3be 69ef 903e
00000060: db54 02be e35f 813d 501e ad3e d77c a8bc
00000070: 80fe 883e dbc8 473c 5395 093e 6c19 133e
0.02561976 -0.03691494 -0.17238425 0.101164766 0.05078484 0.19268508 0.23266867 0.2130133
-0.052134156 0.20778824 -0.1251685 0.3167698 0.30025664 -0.23263745 -0.17024001 -0.032050062
-0.09779819 0.083710775 0.061267883 0.27909824 0.12021889 0.019821549 -0.35102502 0.28307655
-0.12727682 0.06317117 0.3381219 -0.02056734 0.26756668 0.012193884 0.13435869 0.14365166

dynamics.6.weight f4 [2, 32]
00000000: db23 05be b8f2 6b3c 4bf4 c83d 8fbf 7e3e
00000010: fb4d 043e fe34 0abf ccb0 3e3e 20e4 b8bd
00000020: 8800 2c3e f57a 5a3e b3bb a23d fe99 783e
00000030: 6de1 b0bc 68cc 5d3c b946 b5bd ad9c aebc
00000040: c123 43be 8439 29be f9d7 c6be a928 d53d
00000050: 5177 1abe 3a15 243e aee9 96bc 2d3c 173e
00000060: 2cc2 b93e d9ca f23a ac2e 423e 6326 2dbe
00000070: f57c 873e 2dd4 1dbe 5e8b 893e 7c09 4b3e
00000080: 3335 a6bd 8799 12bf 71f1 ea3b be96 fd3d
00000090: caec 48be f00e eb3e 7962 863e 4c1c a93e
000000a0: e17b f8bc 6143 5bbd 06f1 9a3e 3a42 53bc
000000b0: 990d edbd ea06 e2be acf8 2f3d b4bb 45bd
000000c0: 6268 57bf 6db4 4b3d ba9d 953d 16d1 613f
000000d0: 3e81 0f3e b450 cfbc 41d8 ba3e 14e3 063e
000000e0: 3fa5 7e3e 19d6 17be 5db0 48bd d424 913e
000000f0: 8c83 ff3e 2fa0 74bd 2cc4 9f3d 1314 2b3e
-0.13001959 0.01440113 0.0981222 0.24877761 0.12920372 -0.5398711 0.1862213 -0.090278864
0.16797078 0.21335967 0.07945957 0.24277493 -0.021591866 0.013537504 -0.0885138 -0.021314943
-0.19056608 -0.16525847 -0.3883665 0.10408146 -0.15084578 0.16023722 -0.018421974 0.14769049
0.36280954 0.0018523588 0.18963116 -0.16909175 0.26462522 -0.1541297 0.2686414 0.19827837
-0.08115616 -0.57265514 0.0071698953 0.123822674 -0.19621578 0.45909834 0.26247004 0.330294
-0.030332508 -0.053531054 0.3026201 -0.012894208 -0.11574859 -0.441459 0.04296176 -0.04827471
-0.8414365 0.049732614 0.073054746 0.88209665 0.14014146 -0.025307037 0.36493114 0.13172561
0.24867724 -0.14827766 -0.048996318 0.2834841 0.4990505 -0.059723075 0.07801089 0.16706876

dynamics.6.bias f4 [2]
00000000: 2e4c 833e 8311 413d
0.25644058 0.04713584
