examples/multiple_run_001/no_activation/run_no_activation_029/models/latent_dynamics.pt (torch, 12925 bytes, 8 tensors)

dynamics.0.weight f4 [32, 2]
000000 3f fb 2c bf 6d 52 2c 3f 97 d7 d4 be 2e f8 cd bd
       -0.6757087 0.6731327 -0.41570732 -0.10057102
000010 e7 5d 49 3f 60 fd 8b be e2 f7 1e bf 80 d9 42 3f
       0.7865891 -0.27341747 -0.6209699 0.7611313
000020 73 31 61 3e ec b6 52 3e fd ce f2 3e d9 6d a9 be
       0.2199152 0.20577592 0.47423545 -0.3309162
000030 fc bc e2 be 45 bd 1e 3f 76 1d 66 bf 17 72 23 3f
       -0.4428481 0.6200755 -0.89888704 0.6384596
000040 07 43 a2 3d 8d 7c 6d bd 68 27 2d bf ce ac 16 bf
       0.07922941 -0.05798011 -0.67638254 -0.5885743
000050 86 7a bf 3e 23 68 a2 bd 85 59 4f bf b5 e4 19 3f
       0.37398165 -0.07930019 -0.8099597 0.60114604
000060 69 47 44 3d bb f2 6b bf 04 26 98 be 9d d7 b6 be
       0.047919665 -0.9216725 -0.29716504 -0.35711375
000070 3b be 4e 3e 31 ec 9c 3e 1e bc 93 be 17 32 1d 3f
       0.20189755 0.3064895 -0.2885446 0.61404556
000080 7e 06 43 3f ec d2 18 bf 8e 01 54 3f 38 98 e9 3e
       0.7618178 -0.5969684 0.8281487 0.45623946
000090 ec da dc bc 68 6b 1a bf 46 32 a1 3e e8 ab 60 bf
       -0.026959859 -0.6032014 0.31483668 -0.8776231
0000a0 9b 7a 74 be 35 27 00 3f ae c5 12 3f dc 53 e2 be
       -0.23874895 0.50059825 0.57332885 -0.44204605
0000b0 f3 7e 14 3e 83 bc 1e 3e 0d 4c 65 3d 7c 5e 65 bc
       0.14501552 0.15501599 0.05598073 -0.013999578
0000c0 e1 c7 34 be 81 80 d2 be ec 83 b7 3f 0a 00 a4 be
       -0.17654373 -0.41113666 1.4337134 -0.3203128
0000d0 9c 6c 0b be d9 7e 69 bf eb e9 01 3e d9 b1 59 3d
       -0.1361565 -0.9120918 0.12686889 0.053148124
0000e0 8c ef 6f be 12 35 c4 bd 13 88 40 3f db 0d 1a bf
       -0.23431224 -0.09580435 0.7520763 -0.6017739
0000f0 6c 37 8d 3d a7 4e de be 93 1a 04 3f 8a 17 11 3d
       0.068953365 -0.43419382 0.5160305 0.03542284

dynamics.0.bias f4 [32]
000000 0b 3d 94 bd 1c 3f 34 bf b4 09 61 3f 8d ca 2a 3e
       -0.072382055 -0.704088 0.8790543 0.1667883
000010 a6 a4 79 3f 28 cc 8e 3e d6 cd 52 bf 71 f5 fa be
       0.9751686 0.27890134 -0.8234533 -0.49015382
000020 9e 25 33 3f 96 fc 15 bf d5 1f f1 3e cc 0d 0e bf
       0.69979274 -0.5858854 0.47094598 -0.554898
000030 cb 47 a7 3e d3 30 4c 3f fb 1a 0b 3f 36 3a e9 3e
       0.3267196 0.79762 0.54338044 0.45552224
000040 97 79 9f bc 02 c5 91 3d 12 85 46 be db a2 36 be
       -0.019467158 0.071176544 -0.193867 -0.17835562
000050 44 09 4b 3e 5d f7 38 bc 64 0e 52 3f d8 c2 15 3f
       0.19827753 -0.011289445 0.8205321 0.5850043
000060 85 5c 39 3e 2a 94 59 3d 53 20 04 bf da e4 0e bf
       0.181017 0.053119816 -0.5161182 -0.5581795
000070 b0 10 31 3f 16 ff 29 3d 49 60 09 3f 03 de 70 3f
       0.6916609 0.041503035 0.53662544 0.94088763

dynamics.2.weight f4 [32, 32]
000000 e4 3f 3d be f7 f6 83 3e d5 08 6f 3e 69 7f e1 3d
       -0.18481404 0.25774357 0.23343213 0.1101063
000010 91 6e 06 3d 3b bb d4 bd a1 8d 67 be f4 b9 a2 bb
       0.032820288 -0.10387274 -0.22612621 -0.004966015
000020 90 65 ca bd a3 52 c2 3d ae a8 0d bd 22 c4 b3 3d
       -0.09882653 0.09488418 -0.034584694 0.08777644
000030 fe 27 dd bc 9c 29 af 3d 2a 78 3c 3e f2 b6 f9 3d
       -0.026996609 0.08552858 0.18405214 0.12193097
000040 8d 6a 40 be 16 5a b3 3e 7f d4 bc bd 9c ae 33 bf
       -0.18790646 0.35029668 -0.09220218 -0.7018831
000050 b0 c6 07 3e a1 a0 da bd ca e3 22 bd b6 f1 1b bb
       0.13259387 -0.10675169 -0.039768018 -0.0023795194
000060 b4 4d 8f bd 61 3b ce be 5d f5 44 be 25 f2 13 be
       -0.069972426 -0.40279678 -0.19234224 -0.1444784
000070 e7 2a 2e 3e e3 ab d2 be 93 70 38 be 19 fe 88 3e
       0.17008553 -0.41146764 -0.18011694 0.2675636
000080 52 f1 32 3d 97 ca a5 3d 80 59 cd 3d ca 62 06 3d
       0.043687172 0.080952816 0.100268364 0.032809056
000090 3a 1f ec 3d f5 d6 7d be 13 06 5b bd 85 eb de bd
       0.115293935 -0.24789031 -0.05347259 -0.108847655
0000a0 e7 b0 1d 3e 5e 79 05 3e a9 ee 7f 3c f6 12 b3 3c
       0.15399514 0.13034579 0.015620866 0.021859627
0000b0 62 64 f0 bd c2 f8 a1 3d 0b 0b 0d 3e 62 0d 22 be
       -0.117378965 0.07908775 0.13773744 -0.15825418
0000c0 df 02 9b be de 64 e9 3d ab 8a 44 3d a6 47 08 bf
       -0.30275628 0.11396192 0.047983807 -0.53234327
0000d0 8f 26 b2 bc 90 a5 e9 be ab db 1b 3e 97 00 0f bd
       -0.021746902 -0.45634127 0.15220515 -0.034912672
0000e0 2d 07 02 3e 33 1d 0e bf 91 06 58 be 2a 23 3f be
       0.1269805 -0.55513304 -0.21096255 -0.18665758
0000f0 30 5a dc 3d cb c0 d6 be cb a4 ed bc fa 2f d4 3e
       0.107593894 -0.41943964 -0.029009243 0.41442853
000100 cf 0f 11 3d 96 b8 bf 3e 0d 72 7c be 03 ec 58 3e
       0.035415467 0.37445515 -0.24652882 0.21183781
000110 44 54 5c 3d 46 76 1d bf 23 a0 9f 3d d7 cc b7 3e
       0.0537913 -0.61508596 0.077942155 0.35898468
000120 9d fe 10 3e 2e ef 0e 3e 49 49 27 be ee 97 8c 3e
       0.14159627 0.13958427 -0.1633655 0.27459663
000130 5b 47 9e be 5f 01 1a be 6b a9 b6 be dc 60 5f 3e
       -0.30913815 -0.15039586 -0.3567613 0.21814293
000140 d7 bb cb bc 51 f0 8e 3c a7 0a ff be 03 e6 bf 3e
       -0.024869842 0.017448576 -0.49812815 0.37480173
000150 f5 16 8a 3e d2 9a c2 bd 5d 6d b7 bd c7 fc a8 bb
       0.2697064 -0.09502186 -0.08956406 -0.0051570865
000160 32 c0 72 bd 2e 8b 4a bd 7b b1 43 bf 58 f8 d2 3d
       -0.059265323 -0.04944914 -0.7644269 0.10301274
000170 5b a2 4f 3e e3 52 69 be d6 2a 3a be b1 01 08 bc
       0.20276777 -0.22785525 -0.18180403 -0.0083011845
000180 86 3d f9 ba ff 78 12 3b ec d4 8e be d3 35 15 be
       -0.0019015528 0.0022349951 -0.27896821 -0.14571314
000190 06 78 0c be 08 8f 03 3e ff 77 aa 3d 5e d3 2c bd
       -0.1371766 0.12847531 0.08323669 -0.042193763
0001a0 f3 48 7c bc 9c 14 08 3e 3b 13 3c be 1e 61 c3 3d
       -0.015398252 0.13289112 -0.18366711 0.09540008
0001b0 5f 6a b5 3c 1f 62 06 be be fa 33 be 06 68 b2 3d
       0.022145448 -0.13123368 -0.1757612 0.08711247
0001c0 d5 83 0f bf 6c 09 6c 3e 36 7d 59 3e bd 4c 85 3e
       -0.56060535 0.23050469 0.2123917 0.2603511
0001d0 b5 c3 33 3e 33 f5 26 bf 8b 76 8c 3e 9a f3 06 3e
       0.17555125 -0.65217894 0.2743419 0.13178864
0001e0 45 91 c4 bd f7 96 b9 be 5a b8 06 bc 13 7c 4f 3d
       -0.095980205 -0.3624799 -0.008222664 0.050655436
0001f0 c5 c1 98 bd 15 f5 09 bf 71 4e 3d be 04 e6 87 bd
       -0.074588336 -0.5388959 -0.18486954 -0.06635669
000200 39 ae 45 be a3 48 81 be 79 d3 87 3e 4c a4 23 be
       -0.19304742 -0.2525073 0.26528528 -0.15980643
000210 f3 11 10 3f 63 88 80 be 32 8e b1 be 12 cf 5e be
       0.5627739 -0.25104055 -0.346788 -0.21758679
000220 d0 29 70 3e 52 fe 20 be 06 16 85 3e 58 93 1c be
       0.2345345 -0.15722016 0.25993365 -0.15290582
000230 7f d0 ba 3d b4 3e 07 3e 8a 04 c0 3e 9a 84 b2 bd
       0.09121799 0.13207513 0.37503463 -0.08716698
000240 2b 6a e0 be 61 90 68 be ac af 1b bd 72 c9 8e 3e
       -0.43831 -0.22711326 -0.03800933 0.27888066
000250 d1 ba 10 be c2 e3 88 be 91 64 0d 3f a4 39 50 3e
       -0.14133765 -0.26736265 0.5523158 0.20334488
000260 e5 0e ef 3d f6 1d 64 bf a7 d1 0c bd 7e 53 03 be
       0.11672763 -0.89108217 -0.034379628 -0.12824818
000270 ac cd 49 3e 18 fe f3 be 53 a3 8b 3e 62 22 34 3f
       0.19707364 -0.47654796 0.27273044 0.70364964
000280 ea 7b c7 3d 87 35 e9 bd d6 e4 f1 3e 9a ce 0e 3e
       0.097404316 -0.11387163 0.472449 0.13946
000290 c8 d9 1d 3c 32 6d 66 3e f8 63 2c be a9 90 36 3d
       0.009634443 0.22502592 -0.1683501 0.044571552
0002a0 73 23 2f 3e cc 6b 8c bd 0b fe 40 3e 21 25 13 be
       0.17103367 -0.06856498 0.1884691 -0.14369632
0002b0 df dd 06 be 89 69 b7 3d 97 34 fc 3d 7b 15 a5 3d
       -0.13170575 0.08955676 0.12314718 0.08060738
0002c0 61 bb 45 3d 26 3e 73 be 6e d5 5f bd 75 f0 aa bf
       0.0482744 -0.23754176 -0.0546469 -1.3354632
0002d0 14 4a d9 3d a9 91 82 be 34 82 41 bc 49 42 aa 3d
       0.106098324 -0.25501755 -0.011810828 0.08313424
0002e0 48 fa 24 3e bc 84 4d bf b2 88 04 be 9b 21 a5 3c
       0.161111 -0.8028066 -0.1294277 0.020157626
0002f0 8f f4 2c bd be bc 3b be 19 9f 05 3d 63 b5 bd 3e
       -0.042225417 -0.18333718 0.03262243 0.3705245
000300 fc 12 94 be dc d7 56 3d 5b 51 e8 bf 24 3a fa bd
       -0.28920734 0.052451953 -1.8149828 -0.12218121
000310 01 79 6f be 70 76 a2 be 6c a5 34 3e ec 44 5c be
       -0.23386003 -0.31730986 0.17641228 -0.21510667
000320 51 05 1a bc 85 89 1d 3e 9c fa f6 bf 10 7f ed be
       -0.009400682 0.15384491 -1.929523 -0.46386003
000330 cd 06 dc 3c 9a ed 06 3e 85 52 29 bd 8c 31 89 be
       0.026858712 0.13176575 -0.041338462 -0.26795614
000340 70 ec 88 bf 66 c0 ee 3e 27 68 55 3e 88 b3 a2 3e
       -1.0697155 0.46631163 0.20840512 0.31777596
000350 23 5f 8d be 68 b7 a9 bf 70 61 b3 be 8f 06 10 3e
       -0.27611646 -1.3259096 -0.35035276 0.14065002
000360 e7 71 50 3e 1e 58 d6 bd 33 82 28 bd 34 4f 3b 3d
       0.2035595 -0.10466026 -0.041139793 0.04572983
000370 27 ef 04 be b9 f3 2e bf 91 72 82 3e e7 fb 03 c0
       -0.12981854 -0.6834064 0.25478032 -2.06225
000380 88 8b f3 3d a1 89 ff 3b 9e bc e7 3c ab d1 02 be
       0.11891848 0.007798389 0.028288182 -0.12775294
000390 50 f3 44 3d b4 81 36 3e c5 cb 03 3d a9 ba 40 be
       0.048083603 0.17822915 0.03217675 -0.18821205
0003a0 ec 0d 18 3e 0b 6c 24 bd df 2d 07 3c a8 d5 18 be
       0.14849061 -0.0401421 0.008250683 -0.14925253
0003b0 e4 75 d1 bd 5b a8 30 be 72 a3 ed bd a6 b2 2b be
       -0.10227564 -0.17251723 -0.1160344 -0.16767368
0003c0 16 2b b7 bd 2f 6a ce bd 5d 80 07 bd c8 61 27 3e
       -0.08943765 -0.10078847 -0.0330814 0.16345894
0003d0 2e e7 b5 3d 94 e5 15 be 69 9d 2f be a2 38 80 3d
       0.08881985 -0.14638358 -0.17149891 0.06260802
0003e0 bf 8e fc bc 4d 76 74 bd 66 4d 64 3d bc 4f cf 3d
       -0.030829785 -0.059683133 0.055737875 0.1012263
0003f0 e5 83 6e 3b 38 3f 3f bd d5 58 25 be 2b ae 25 3e
       0.0036394533 -0.04669115 -0.16147168 0.16179721

dynamics.2.bias f4 [32]
000000 b0 28 82 3e ac d4 62 3e 4c db d1 3d 55 aa 7a 3e
       0.25421667 0.2215144 0.10246906 0.24479039
000010 67 9b bc 3e 84 f8 3a 3e 90 ed 60 bc fd 5d ee 3d
       0.36837313 0.18258864 -0.013728514 0.116390206
000020 1d 22 81 be 36 02 e2 3e 57 b3 23 be 97 7a bf bd
       -0.2522134 0.44142312 -0.15986381 -0.09349554
000030 c0 4c ef 3e 50 5e b8 bd 3b 81 61 bd 27 05 2b 3e
       0.46738243 -0.09002364 -0.055054884 0.16701184
000040 71 4f 1c 3e 39 14 87 3e f6 87 85 be d3 12 be 3d
       0.1526468 0.26382616 -0.26080292 0.09280934
000050 bc 59 85 bd f5 e9 1a be bf 0a 02 3e 9c 6a a3 3e
       -0.06511256 -0.1512831 0.12699412 0.31917274
000060 f9 3a 20 bd 51 d4 30 be 0b 4b 80 3e 62 e8 9a bd
       -0.03911874 -0.17268492 0.25057253 -0.07563855
000070 1d 58 ad bd 7e 96 fd bd 22 f4 1d bd a6 b1 e8 3e
       -0.08464072 -0.1238222 -0.0385629 0.45448035

dynamics.4.weight f4 [32, 32]
000000 fb d4 9e bc 3f e6 21 3d 51 48 45 3e 8d 97 69 bc
       -0.019388666 0.03952622 0.19265868 -0.014257324
000010 46 2e ea 3e 9c c5 02 3e a6 30 df 3c 6f 4a ff 3d
       0.4573843 0.12770694 0.027244877 0.12465369
000020 c2 a5 c3 bc 45 c9 7e 3e 1a 4f 25 be 80 96 15 be
       -0.02388275 0.24881466 -0.16143456 -0.14608192
000030 a4 de 84 bd 5e 30 ef bd a5 4b 96 3d 9b 17 2f 3e
       -0.06487778 -0.11679147 0.07338647 0.17098849
000040 b0 4d 0f be f1 18 5f 3e 14 46 f3 3c 50 cf 2b 3e
       -0.13994479 0.21786858 0.029696502 0.16778302
000050 f6 b2 d3 3d 73 19 16 3d cd 50 6f 3e 39 20 c7 3d
       0.103368685 0.036645364 0.23370667 0.09722943
000060 40 19 b4 3d 2c 9a a0 3e 52 3e 1c 3f 33 81 b5 3d
       0.087938786 0.31367624 0.61032593 0.088625334
000070 20 e1 69 bd 5b dc cc 3d 44 95 f0 bd 3c ad fa 3c
       -0.05709946 0.10002967 -0.1174722 0.030600183
000080 1d b6 83 bd e2 59 69 bd 7f e8 69 3d e7 f5 32 be
       -0.0643122 -0.056970485 0.05710649 -0.17476617
000090 d3 6d d8 bd 39 83 f2 bd 1d 88 cd bd 03 00 0c 3e
       -0.10567822 -0.11841435 -0.10035727 0.1367188
0000a0 9e 7b 5a 3d 04 6c f7 3c 9e c9 f6 bd 10 29 2b bd
       0.053340547 0.030202873 -0.12050174 -0.041787207
0000b0 67 d7 64 be 05 06 1f be f7 f6 51 bd 95 0c 74 be
       -0.22347794 -0.1552964 -0.051260915 -0.23832925
0000c0 9e e4 8f 3d dc ea 61 bd b8 c1 e3 bd 1d eb d2 bd
       0.07026027 -0.05515562 -0.11120933 -0.102987505
0000d0 cc f7 f2 3d a4 cc b1 bd a9 c4 f6 3d 9c 49 ae 3d
       0.1186367 -0.0868161 0.12049229 0.085101336
0000e0 7d f8 47 bd f9 3b df bd 94 16 cf 3d 49 1f 8e bd
       -0.04882096 -0.10900111 0.10111728 -0.06939561
0000f0 65 ab 95 bd e7 7d 27 be 6c 2f 24 3e d6 fa 1a be
       -0.073080815 -0.16356622 0.16033715 -0.15134749
000100 1a 50 45 3e 79 61 49 3e b6 ad fa bd ca 81 a1 3d
       0.19268838 0.19666089 -0.12240164 0.078860834
000110 96 47 f2 3d 5e be d1 be 35 6a 82 3c 4f f4 86 bd
       0.1183006 -0.4096555 0.015919784 -0.06589567
000120 fe 8c 40 bf 8d 76 97 bf 3b 6a 8a 3e d3 e8 59 3d
       -0.75215137 -1.1833054 0.27034172 0.053200554
000130 da 36 01 bf 05 f0 d4 3d e5 41 38 be 17 ba 22 be
       -0.5047432 0.103973426 -0.17993887 -0.158913
000140 55 58 ef bd eb a7 15 3f ce c2 51 3e 9d 99 07 be
       -0.1168677 0.5845935 0.20484468 -0.13242193
000150 20 79 f0 3d b2 a4 5e 3c 05 52 37 be ac 8a e2 bd
       0.11741853 0.013589071 -0.17902382 -0.11061606
000160 c6 20 de 3d 09 ea f2 3d f2 16 69 3e 32 9e da 3d
       0.10846095 0.11861045 0.22762659 0.106747046
000170 fc 2b 9d be 93 bb 84 3d 54 f1 c3 bd 89 dc 75 3e
       -0.3069762 0.064810894 -0.09567514 0.24009909
000180 e5 7f 42 3e de 8c 01 3b c8 a5 f9 3d d6 e3 33 3d
       0.189941 0.0019767801 0.121898234 0.043918453
000190 32 53 98 3e 05 c8 25 3c 39 f9 12 be 21 f4 49 3c
       0.29750973 0.010118489 -0.14352883 0.012326271
0001a0 4f c3 e1 bd 62 16 e2 3e 9d b9 37 be 0e 4c 23 3d
       -0.1102358 0.44157702 -0.179419 0.039867453
0001b0 c9 69 91 be 6f ed 7a bd 15 6b 71 bd 9b d9 3c 3e
       -0.2840102 -0.06126159 -0.058940012 0.18442385
0001c0 38 e7 89 be 54 56 b1 3e 8f a9 17 3e 96 e2 1e be
       -0.26934218 0.34636176 0.14810775 -0.15516123
0001d0 c3 3b 65 3d ef fb e5 bd f3 eb ec 3d 11 7c 4a 3e
       0.055965196 -0.11229693 0.11568441 0.1977389
0001e0 80 79 da 3d 16 af b6 3e 25 4b 0e 3f 2c 6a ad 3d
       0.106677055 0.35680455 0.5558341 0.08467516
0001f0 12 56 68 be a1 a8 07 bc 98 aa 90 3c 4f 8c 4e be
       -0.22689083 -0.00827995 0.01765947 -0.20170711
000200 96 ab 03 bc 3f c1 d9 bd d2 fd 27 be 45 c9 f6 bd
       -0.008036515 -0.10632562 -0.16405419 -0.12050108
000210 26 bb 3c be 06 3e a6 bd 2e d7 e2 3d 6b 2c d2 bd
       -0.18430766 -0.08117299 0.110761985 -0.10262378
000220 8e fb 86 3c 38 ba 85 bd c2 76 65 bc e1 1d 07 3e
       0.016477372 -0.06529659 -0.014005365 0.13194992
000230 8b c0 e5 bd 09 7a e2 bd ac 70 85 3d e7 e5 67 bd
       -0.11218365 -0.110584326 0.06515631 -0.056615736
000240 e7 12 39 be 3c af 76 bd 9b 7f 73 be 91 2f 1d be
       -0.18073617 -0.06022571 -0.23779146 -0.15350176
000250 19 c8 16 be f0 bc 9a 3d fd 6f 1e be d7 67 f1 3d
       -0.14724769 0.07555568 -0.15472408 0.11787384
000260 0f 45 49 be 19 7f e4 bd 08 36 83 3d 66 27 0a be
       -0.1965525 -0.111570545 0.0640679 -0.13491592
000270 e5 09 15 3e 93 48 00 3e 03 7b 00 3e 9a 33 63 bd
       0.14554556 0.12527685 0.12546925 -0.055469133
000280 39 58 fd bd f2 4d 73 bd 52 cb ad be 56 69 0b bd
       -0.12370343 -0.059400506 -0.33944184 -0.034036003
000290 0f 17 fe bd e6 48 34 3e 38 8b c1 bf fe bd cd bd
       -0.12406742 0.17605934 -1.5120611 -0.10046004
0002a0 96 5f e4 3e 36 26 a4 be c2 18 92 3e 69 77 1b 3d
       0.44604176 -0.32060403 0.28534514 0.037955675
0002b0 76 80 dd 3e ae a1 2f be 87 d0 d1 3c 89 06 1c 3e
       0.4326207 -0.1715152 0.025612129 0.15236868
0002c0 88 aa a9 3d 84 26 27 3d 49 71 64 bc e0 14 84 3d
       0.082844794 0.040808216 -0.013943025 0.06449294
0002d0 a5 27 21 be 26 63 3e be a8 d7 af be 62 f1 9e bb
       -0.1573778 -0.1859251 -0.3434422 -0.0048505524
0002e0 48 42 1e 3e 83 66 10 c0 51 f6 4a 3c 70 91 75 3d
       0.15454972 -2.2562568 0.012387828 0.059953153
0002f0 d2 9e e0 3e 7a d8 77 be 06 7c 09 bd 06 19 97 3e
       0.4387117 -0.24203673 -0.033565544 0.2951128
000300 48 fb 06 3c 35 bd 05 be 01 46 bb bd 8f ba f2 3d
       0.008238621 -0.13060458 -0.091442116 0.118519895
000310 63 0a 59 be ed 15 b6 bd dd a2 ef 3d 9b da 94 3d
       -0.21195368 -0.08890901 0.117009856 0.07268258
000320 22 9c 09 be 97 0a 24 3c 2d 29 32 3e 21 b5 54 3c
       -0.13438466 0.01001229 0.1739852 0.012982638
000330 1b 3a 7c 3d da ae 20 3e d9 7e 01 3d 38 77 9c 3d
       0.06157885 0.156917 0.031615112 0.07639927
000340 7d 5c 0f bf 54 56 3a 3e a3 46 a8 3e e3 62 a8 bd
       -0.560005 0.18196994 0.32866392 -0.08221986
000350 9b b8 b5 bd f8 2d aa bc 26 8e 1a 3e bf 78 42 3e
       -0.08873101 -0.020773873 0.15093288 0.18991373
000360 7d f0 97 3d 38 7e a0 3d ff be f8 bd 5b 12 cb bd
       0.074189164 0.07836574 -0.121458046 -0.099156104
000370 82 9a a9 3b eb 1e 76 3d 61 f5 11 be fe 91 fd bd
       0.0051758895 0.06008808 -0.14253761 -0.123813614
000380 f4 6d 15 3e 0d 46 90 3d b2 82 d7 bd 5f af 7b 3d
       0.14592725 0.07044611 -0.10522975 0.061446544
000390 24 1d fc bd 81 92 60 3e bf f7 0b bf 60 3a 69 3d
       -0.12310246 0.21930887 -0.54674906 0.056940436
0003a0 65 f5 b3 be 32 b4 73 bd 68 33 38 be 67 f9 f2 bd
       -0.3514816 -0.05949802 -0.1798836 -0.11863976
0003b0 95 9a 79 3e 04 4a 0f 3e a9 ed f7 bd b4 22 2d 3e
       0.24375375 0.13993078 -0.12105877 0.1690777
0003c0 d0 2f a3 3c 8f ff 33 3d c3 3f 0c bd 8f dc d7 3d
       0.01992026 0.04394489 -0.034240495 0.10540115
0003d0 b6 f3 cd 3d 35 c8 82 bc 72 c9 90 be 36 0b f8 3d
       0.1005625 -0.015964607 -0.2827869 0.12111513
0003e0 ca db 19 be 11 d7 bb bf ca e2 a2 3d 96 8c 30 3e
       -0.15025249 -1.4675008 0.07953413 0.1724113
0003f0 37 9a 83 3c 47 05 eb 3c b4 bb 0b bd 33 f5 0f 3e
       0.016064746 0.02868904 -0.034114555 0.1405838

dynamics.4.bias f4 [32]
000000 8d 74 98 bc c9 e7 15 be 51 93 f5 bd ca 29 2d 3e
       -0.018610263 -0.146392 -0.11990989 0.16910473
000010 71 ee df 3c d3 5f e9 3e ec 62 e3 bd 70 a9 a0 3e
       0.027335377 0.4558092 -0.11102852 0.3137927
000020 48 42 85 bd e4 f9 69 3b e7 86 d8 3e 3e 5f e5 3e
       -0.06506783 0.0035701925 0.42290422 0.44799227
000030 e9 c2 9d 3d f1 4e e7 3b 1e 9b b9 3d 0f 8a 35 bd
       0.07703192 0.007058971 0.090627894 -0.044321116
000040 25 91 04 be 53 d3 bd 3e 21 1d 63 bd da 78 fc bc
       -0.12945993 0.3707529 -0.0554477 -0.030819345
000050 36 b2 26 3d 5a d8 8a bd fb 21 8e bd d6 25 9a bd
       0.0406973 -0.06779547 -0.06940075 -0.07526748
000060 10 94 96 3e 7c 41 19 3e cb 2d 82 bd 89 d8 9d 3e
       0.29409838 0.14966387 -0.063563906 0.30829266
000070 c0 fa 27 3d 28 b7 84 be d6 ea f7 bc 0f 3d 0e 3f
       0.04101062 -0.25920987 -0.030263346 0.5556192

dynamics.6.weight f4 [2, 32]
000000 1d 2a 5b be a4 28 87 3d 7e 06 e5 be 49 e3 59 be
       -0.21402784 0.065995485 -0.44731516 -0.21278109
000010 55 05 8c bd 40 e6 24 3f ef 28 d2 bb 46 54 4c bd
       -0.068369545 0.64413834 -0.006413571 -0.049885057
000020 b0 40 c2 3d 84 52 8c bd e5 c0 20 be 98 72 e1 be
       0.094849944 -0.06851676 -0.15698583 -0.4403274
000030 48 13 21 3f 20 60 d1 3e fd 61 43 3e 9a 8e ba 3d
       0.62920046 0.4089365 0.19080348 0.0910923
000040 0b 2a 83 be f7 a2 a0 be ad 6d a9 3e 4a 55 0b 3e
       -0.25618014 -0.31374332 0.33091488 0.13606754
000050 82 94 0a 3f dc aa 97 3c 8c b6 e1 bd 61 4a a6 bd
       0.54132855 0.01851409 -0.11021146 -0.081196554
000060 36 94 45 3e 40 eb 90 3c fa f3 f4 bd bb a1 95 be
       0.19294819 0.017690301 -0.11960597 -0.29224953
000070 1a 40 8a 3d fd 07 ae be 04 4a 01 bd c9 37 bc be
       0.06750508 -0.3399047 -0.031564727 -0.3676131
000080 a3 a4 c0 bd cf bc dc bd d1 7e 3c 3e d7 6e ce bd
       -0.09406402 -0.107782 0.18407752 -0.10079735
000090 af f7 24 3d 77 07 09 3f da c2 25 be d2 3e f7 3e
       0.040275272 0.53527015 -0.16187611 0.48290116
0000a0 07 2d 81 be 9d 75 aa 3d b1 7d 13 3f 04 87 26 3d
       -0.25229666 0.08323214 0.57613665 0.040656105
0000b0 23 5f bb 3c 46 d4 f2 bd fb 27 26 3d ba c5 09 be
       0.022872513 -0.11856894 0.040565472 -0.13454333
0000c0 cb 2c 50 be 62 09 8a 3e b6 ed a0 3d 9c e0 db be
       -0.20329587 0.26960284 0.0785784 -0.429448
0000d0 d2 6d 11 3d a3 b1 42 3d 41 e1 e3 bc b5 b6 c5 3d
       0.035505123 0.04753269 -0.02781737 0.09653989
0000e0 df ac 58 3e d4 a0 59 3f ae cf cb 3d c1 bf 16 3e
       0.21159695 0.8501103 0.09951721 0.14721586
0000f0 76 d6 ab 3d 83 e1 9b 3d 10 47 c4 bd 56 bb 39 bb
       0.083905146 0.07611372 -0.095838666 -0.002834042

dynamics.6.bias f4 [2]
000000 70 93 21 be cb 5b a5 3d
       -0.15778899 0.08074149
