ives_model/experiments/learning/single/run_004/models/encoder.pt (torch, 12429 bytes, 8 tensors)

encoder.0.weight f4 [32, 3]
000000 e3 1d 0c 3f 95 bd 36 be 43 1a 26 3e 5d bd f4 be
       0.54733104 -0.17845757 0.16220956 -0.47800723
000010 0d a8 f9 3d 03 10 64 be e7 96 61 3e 5b a6 28 3d
       0.12190256 -0.22271733 0.22030221 0.041174274
000020 27 b3 0f 3f f4 34 d1 3e 7c f6 98 be f5 29 01 3f
       0.5613274 0.40860713 -0.29875553 0.50454646
000030 26 0c 83 3e ac 82 1a bf 13 ed 9f be b0 6d 58 3d
       0.25595206 -0.6035564 -0.3123556 0.05283898
000040 88 68 ad bd 1c 7e 48 be b3 f5 02 3f 67 08 4c be
       -0.084672034 -0.19579357 0.5115616 -0.1992508
000050 1d 75 9a 3e c9 92 ca 3d 75 d8 1b bf 08 e9 83 3e
       0.30167475 0.09891278 -0.6087716 0.25763726
000060 42 81 b2 3e e6 9d 02 3f cd 36 9d 3e cd c1 1a bf
       0.3486424 0.51022184 0.30705872 -0.60451967
000070 a2 92 99 3e 10 58 ac 3e b5 91 c8 be 1b 17 d3 3e
       0.29994684 0.33660936 -0.39173666 0.41228566
000080 3e 6c 0a 3e 1f 97 a3 3e 5b ce ad 3e c3 41 4a 3d
       0.13517854 0.31951234 0.339465 0.04937912
000090 db 77 19 3e 0d 25 97 3e 99 37 a6 3e d6 d1 67 3e
       0.14987127 0.29520455 0.32464293 0.2263864
0000a0 fa 06 37 3f e3 72 69 be 90 60 bd 3e d7 0e d9 3e
       0.7149502 -0.22797732 0.36987734 0.42394134
0000b0 c6 40 dd 3d d9 e8 ab be ea 03 d1 be 5b d6 88 3e
       0.1080337 -0.33576086 -0.408233 0.2672604
0000c0 36 d1 0c bf 6e aa e4 be 24 82 0a bf 46 22 f0 3e
       -0.5500673 -0.44661278 -0.5410483 0.4690115
0000d0 62 0e f7 be d9 f0 71 3e 76 6c d7 3e 5a f1 fd 3e
       -0.4825316 0.23627032 0.42074937 0.495982
0000e0 b3 c3 bc be b2 d0 f4 be f5 93 ab 3e bf 03 7b 3d
       -0.36868057 -0.47815472 0.3351132 0.06128287
0000f0 3d 0a f2 be 3d fa 48 3e bb 18 bd be 14 47 1e bf
       -0.47273436 0.19626708 -0.3693293 -0.61827207
000100 0a 32 b4 be ea 41 f6 3e 05 a5 a4 3e c2 4b f0 3e
       -0.35194427 0.48097163 0.3215715 0.469328
000110 56 8a c9 be f1 3c c2 be 48 ca 71 be 25 08 d5 3e
       -0.39363354 -0.3793712 -0.2361232 0.41607776
000120 df b1 cb be c7 b0 a0 3e 8c 77 f2 3e f1 75 0a be
       -0.39784142 0.3138487 0.47356832 -0.13521554
000130 2c 2a f1 be 30 44 11 bd 44 60 06 bf 4c f1 cc 3e
       -0.47102487 -0.03546542 -0.5249064 0.40027845
000140 82 80 14 bd 70 93 f4 bd 34 0c 06 3f cd de af be
       -0.036255367 -0.11942184 0.5236237 -0.3434967
000150 30 ca 59 bd 6b 91 b0 be b4 ac e7 be 1a 0e 76 be
       -0.053171337 -0.34485945 -0.4524895 -0.24028817
000160 70 45 5f be 01 ab ab 3e de 80 f5 be dd 53 7c 3e
       -0.21803832 0.33528903 -0.4794988 0.24641366
000170 49 b4 36 3d 46 6e d4 bd 52 0d 01 bf d1 07 2a be
       0.044605527 -0.103725955 -0.5041095 -0.16604544

encoder.0.bias f4 [32]
000000 ca e1 b8 be e9 3f 39 bf a7 bf 46 3e 6f e6 5c bb
       -0.36109763 -0.72363144 0.19409047 -0.0033706685
000010 6d e3 84 bd 05 98 17 3f 9b 6e d7 be 1d 31 9c 3e
       -0.064886905 0.5921634 -0.42076573 0.3050622
000020 80 25 88 3e 3f 0e 34 be 54 26 ba bd 84 d1 19 be
       0.2659111 -0.1758356 -0.09089342 -0.1502133
000030 3b a6 f9 be 50 55 9d bd 5f 74 f5 be d6 31 b1 bd
       -0.48759636 -0.07682288 -0.47940347 -0.086520836
000040 d5 e0 ac be fc 26 da be 71 74 e2 be 2e 24 a5 3e
       -0.33765283 -0.42607868 -0.44229463 0.32254165
000050 92 3c d3 3e ae 63 8a 3e d4 b5 d3 bb 6c b7 bb 3e
       0.4125715 0.27029175 -0.0064608846 0.36663377
000060 30 74 30 be c6 df 0e bf 32 94 8b 3e 0b c2 c4 3e
       -0.17231822 -0.558102 0.27261502 0.38429293
000070 7e 0f f2 be 33 a7 c2 3d 21 26 4b 3e 9b 79 17 3f
       -0.47277445 0.09504547 0.19838764 0.5916993

encoder.2.weight f4 [32, 32]
000000 b4 01 c1 bd 5a 36 7d 3f 29 88 04 3d 9a 6b f6 3c
       -0.09424153 0.9891106 0.032356415 0.030080605
000010 ab a9 4c 3c 65 67 ab 3d f2 12 03 3d c7 0c fb 3c
       0.012491624 0.0836933 0.03200049 0.030645741
000020 e8 f7 bd 3c 62 47 3a bf 28 d7 cc be 7b ad 1e 3c
       0.0231895 -0.7276517 -0.400079 0.009684916
000030 92 08 04 bd fe 67 39 3e a9 2d 0c 3c ee 88 24 3e
       -0.032234736 0.18106076 0.008555808 0.1606786
000040 9f 27 e7 3c 88 71 e4 3d 2a 8c e1 bd 87 34 7c 3c
       0.028217135 0.11154467 -0.11013062 0.015393383
000050 33 61 a4 3c 0d 56 6a be 20 d7 6a 3d 50 19 1c 3e
       0.02006588 -0.22884388 0.057334065 0.15244031
000060 af 73 b5 3d dd 0f e4 bd ab af 95 be d5 31 f0 bd
       0.088599555 -0.11135838 -0.29235587 -0.11728255
000070 13 be 03 3e 7a 17 2a be a0 fc 31 be e8 ed 5d 3d
       0.12865476 -0.16610518 -0.17381525 0.054181963
000080 79 07 b6 3d da c2 97 bd 25 be 90 3d 34 9c cc bd
       0.08888144 -0.07410212 0.07067517 -0.09990731
000090 25 04 1a 3e 21 55 37 be f9 90 b7 3d fe 2d ec 3d
       0.15040644 -0.17903568 0.08963198 0.1153221
0000a0 82 57 27 be 3b 62 10 be 15 bc fc bd 53 90 08 3e
       -0.16341975 -0.14099972 -0.12340561 0.13336305
0000b0 84 d9 43 bd 5c 07 83 3d 28 49 c0 3d 3e ff eb bd
       -0.04781486 0.06397888 0.093889534 -0.11523293
0000c0 51 22 9b bc 93 91 ef bd 55 3d 3c be 1d de fc bd
       -0.018937262 -0.11697688 -0.18382771 -0.12347052
0000d0 13 5e 03 3e 8b 4b 3c bd 02 fb ea bc 21 de 13 3e
       0.12828855 -0.04597048 -0.028684143 0.14440204
0000e0 69 ce 24 be c3 26 53 bc f4 fd 42 bd 4e 34 de 3d
       -0.16094364 -0.0128876595 -0.04760547 0.1084982
0000f0 07 80 8b 3b f9 be 65 bd ef c6 08 3e 3f 5b 27 be
       0.0042572054 -0.05609033 0.13357137 -0.16343401
000100 5a 01 79 3e 79 d0 7a be 13 1c 09 3e 8f 60 6e bc
       0.24316922 -0.24493589 0.13389616 -0.014549389
000110 4b cc 51 bd 56 68 6a 3d 62 12 72 3e 98 f7 e2 3d
       -0.05122022 0.05722841 0.23639825 0.11082381
000120 64 75 31 bc 2e 67 f9 be ba 3c 80 be e7 73 f7 3d
       -0.010831211 -0.48711532 -0.2504633 0.120826535
000130 ec bf 2d 3e b9 35 8b 3e 45 01 b2 3c 15 86 1a 3e
       0.16967744 0.27189425 0.021729121 0.1509021
000140 0b 35 5a 3e 18 c8 76 3e 69 ba a7 3c 8a 90 38 be
       0.21309297 0.24099767 0.02047463 -0.18023887
000150 ae bd 24 be 7f 02 60 3c 2c 98 48 3e 0c fd 00 be
       -0.16087982 0.01367247 0.19589299 -0.1259653
000160 d5 81 84 3d 1f 3d 76 3e 79 d3 be be 03 ce df 3d
       0.06470076 0.24046753 -0.37270716 0.109279655
000170 6c 9c eb 3e c9 ba 86 3c a2 73 b6 be fa d1 7b bd
       0.46017778 0.016446488 -0.35635096 -0.061479546
000180 50 df 4f bc cf dd e4 3d 83 14 c6 3c 5a a7 ec bc
       -0.012687519 0.11175119 0.024179703 -0.028888393
000190 23 0a 2e 3e 51 30 1d 3d 63 37 84 3d 5d ab 22 be
       0.16996054 0.038376156 0.06455877 -0.15885682
0001a0 a5 cb 95 3d 7c b1 42 3d 63 48 8f 3c 71 3e 10 bc
       0.07314233 0.047532544 0.017490571 -0.00880395
0001b0 bb 57 4e 3e 90 df 98 3d 1f 0a b7 3d f3 1f 38 3e
       0.20150654 0.07464516 0.08937477 0.17980938
0001c0 67 5a ad bd b7 5c 81 3d b6 bb 69 3d c9 69 a8 bc
       -0.084645085 0.06316512 0.05706378 -0.020558255
0001d0 ab ae 91 3d 2e 41 d2 3d 5c 5e a8 3d 27 ee b5 3d
       0.071133934 0.10266338 0.082211226 0.088833146
0001e0 83 7f 24 3e 86 07 53 3c 17 b6 5e be c9 6d a7 bc
       0.16064267 0.012880212 -0.2174915 -0.020438092
0001f0 40 31 0a bd 03 14 a0 3d f5 fe 9b bd 22 37 ea bd
       -0.033738375 0.07816317 -0.076169886 -0.11436297
000200 e0 fd 17 3d bb 9c c2 3d 7a f0 77 be 55 ed 47 3d
       0.03710735 0.0950255 -0.24212828 0.04881032
000210 5c f1 52 3e 9b 91 b0 be e9 9b ce 3d 33 c1 0e be
       0.20599884 -0.34486088 0.10088331 -0.13940887
000220 4b d1 c0 3d a7 1a bc 3d 40 96 e5 bd 1d d4 95 3d
       0.094149195 0.09184771 -0.112102985 0.07315848
000230 1a 4c 8b be 5f 29 df bc 13 9e ef be da 79 82 be
       -0.27206498 -0.027241407 -0.4680029 -0.2548359
000240 6a dd 67 be 19 7a 88 3e 95 9b a1 3e 2f 6e 7d be
       -0.22643057 0.26655653 0.31564012 -0.24749063
000250 36 20 a3 be 6a ba 21 bf 03 ab a3 be 5e 43 3a bd
       -0.31860512 -0.6317507 -0.3196641 -0.045474403
000260 b6 3d cd 3c ee 4d 3c 3f 1f 5c d5 bd 37 2a 7f 3d
       0.02505384 0.7355641 -0.10417961 0.06229612
000270 1d c0 e0 3e ca b6 ea 3d c7 f8 5e bd 0c d0 1a be
       0.4389657 0.114606455 -0.05443647 -0.15118426
000280 6e 8e 07 bd 80 8a 34 3f ab 84 d5 bd 2d cd 10 3d
       -0.033094816 0.70523834 -0.10425695 0.03535192
000290 59 1f f6 bc 70 c7 4b 3e e5 32 df bd f7 f0 03 3d
       -0.030044245 0.19900298 -0.10898379 0.032212224
0002a0 38 a5 06 3e 37 2a 09 3f 2d b9 52 3d 7a 3f 0c bc
       0.13148963 0.5358004 0.05144613 -0.008560056
0002b0 fe 5e 72 3d 1f c3 71 3d 59 f2 ad 3d 18 75 5d bc
       0.059172623 0.059023973 0.0849349 -0.013516687
0002c0 a7 0b 43 be 2a b9 bc bc fb 83 93 3e 41 ca a7 bd
       -0.19047414 -0.023037512 0.2881163 -0.08192874
0002d0 31 e6 b8 bd ff 44 24 3d 76 9f f6 3d 79 24 2e bd
       -0.090282805 0.040104862 0.120421335 -0.04251525
0002e0 8e d2 ff 3d ad b1 02 bf 56 7c ab 3d a9 f1 6e 3e
       0.12491332 -0.5105236 0.083733246 0.23334374
0002f0 ff 33 b4 be 14 bf 43 be 30 ef db bd cb a2 40 3d
       -0.3519592 -0.1911586 -0.10738981 0.04703025
000300 00 21 d8 bd 5e a2 6f be f8 28 61 be 58 77 97 bd
       -0.10553169 -0.23401782 -0.21988285 -0.0739581
000310 84 81 9b 3d 47 ac 8a 3e 27 d1 8c be 09 22 13 3e
       0.075930625 0.27084562 -0.2750332 0.14368452
000320 63 86 bc bd 01 d1 4f 3e 4e 5b a9 bd 5d 33 a7 bc
       -0.0920532 0.20294572 -0.08269368 -0.020410234
000330 62 fd 17 bf 93 08 1b 3e ae f5 1d be 12 70 6b 3d
       -0.59371006 0.1513999 -0.1542575 0.057479925
000340 cc 82 97 bc 06 47 52 bb a1 52 46 3e fb 0a 5f 3e
       -0.018494986 -0.003208579 0.19367458 0.21781532
000350 02 ac f2 3c 74 6e 43 3e 9f 77 65 bd 69 10 3b bd
       0.029623035 0.19085103 -0.056022283 -0.045669947
000360 42 d7 d1 3c ad b9 d8 3d c6 c8 20 3e 91 de 4f 3e
       0.025615338 0.1058229 0.15701589 0.20299746
000370 94 94 ca bd 7e 5b 91 bd d2 a4 48 be 66 be 19 bd
       -0.0989162 -0.07097529 -0.19594124 -0.037535094
000380 b5 b4 69 3e a8 10 1a 3f 87 66 31 be e8 a7 41 3d
       0.2282284 0.60181665 -0.17324267 0.04727927
000390 6f 93 e7 be 05 74 c3 bc 56 37 ec bc a0 66 24 bd
       -0.4522967 -0.023859033 -0.02883498 -0.040136933
0003a0 a3 6b 0b 3e 9a b2 fa 3e ea c9 9e 3e fa 18 02 3e
       0.13615279 0.48964387 0.31013423 0.1270484
0003b0 71 73 6b 3d 3b 04 76 3e 33 d0 98 3e 0d 1a 77 3e
       0.05748314 0.24025051 0.29846343 0.24131031
0003c0 9c 9f 17 3d 7a 30 00 be 1a 47 16 3e de c6 03 3e
       0.03701745 -0.12518492 0.1467556 0.1286883
0003d0 0b 17 02 3d b8 ea 39 3e 32 cb ac 3d b5 62 2b be
       0.031760257 0.18155944 0.08437194 -0.16736872
0003e0 59 3a b1 bc 63 32 41 bf c8 43 95 be f3 d1 b1 bc
       -0.021634268 -0.7546751 -0.29153275 -0.021706557
0003f0 68 aa 0d bf c2 dc 31 be 90 ba f6 3d 08 49 84 bb
       -0.55338144 -0.17369369 0.12047303 -0.0040370263

encoder.2.bias f4 [32]
000000 15 1e 7a 3d e8 5d 09 be 0c 44 51 be 26 12 9f 3d
       0.061063845 -0.13414729 -0.20436114 0.077671334
000010 53 da 63 be d2 5c 9d bd d6 5c 23 bb e9 b0 15 be
       -0.22251253 -0.0768372 -0.002492716 -0.14618267
000020 66 54 fb bd 5a 5f e3 ba fc 44 44 bd 7c 0c 56 bd
       -0.12271957 -0.0017347143 -0.04791735 -0.052258
000030 18 5d 15 3d 31 5f 08 3e 67 71 00 3e 5d c0 23 bd
       0.036465734 0.13317563 0.1254326 -0.039978374
000040 e5 46 18 be c7 51 69 3e 36 f3 7b 3d 60 18 4e be
       -0.14870794 0.22785102 0.06151124 -0.20126486
000050 17 ee 5f 3e 67 34 1c 3d a1 f1 c2 3c f1 0c 01 bd
       0.21868168 0.038135912 0.023796858 -0.031506483
000060 5b 70 26 be 05 d7 ad 3d 7a 21 b4 3d e9 cf 2e be
       -0.16253798 0.08488277 0.08795448 -0.17071499
000070 48 a3 f2 3c 63 20 96 3d 89 0a f8 3d f4 12 c9 bc
       0.029618874 0.07330396 0.121113844 -0.02454517

encoder.4.weight f4 [32, 32]
000000 03 5d e0 3d 20 20 57 bc 16 1f 40 3d 88 72 ab bc
       0.109552406 -0.013130218 0.046904646 -0.020928636
000010 a1 b4 5a 3e 90 16 72 3e 96 d6 3d 3e 56 59 19 be
       0.21357967 0.2364142 0.1853889 -0.14975485
000020 e6 b8 13 3e bc cd 4d 3e f5 5a 25 3d be df 41 bc
       0.14426002 0.20098013 0.040369947 -0.011833129
000030 18 4d 7f 3d 5c d8 a7 bd 65 55 83 3d 49 63 fb bc
       0.06232938 -0.08195564 0.06412772 -0.030686991
000040 fd 8b de bd 0b 99 da 3d cf ec 08 3e 6d 0c a3 3e
       -0.108665444 0.10673722 0.13371585 0.31845418
000050 1a b0 72 be d8 1b ac 3c 69 9b 09 bf 0d aa b5 3d
       -0.2369999 0.02100937 -0.5375276 0.08870325
000060 71 00 74 bc 67 0a a4 be 69 04 fa bd 26 c5 1b bd
       -0.014892683 -0.32039186 -0.122078724 -0.038029812
000070 68 bb c3 3d d8 fe aa 3d c4 51 32 be ce 60 91 be
       0.09557229 0.08349389 -0.17414004 -0.2839417
000080 d9 be c5 bd 28 d7 6a bd 59 e5 b2 3d e4 19 d9 bd
       -0.09655542 -0.057334095 0.08735151 -0.10600641
000090 5f e3 5b 3e da 60 05 bd 6d cb 43 3e d0 6b f2 3d
       0.21473454 -0.032563068 0.1912057 0.1183697
0000a0 04 d3 b3 be 02 9e f2 bd c6 88 71 bb 67 fa 54 3e
       -0.3512193 -0.11846544 -0.0036855205 0.20798646
0000b0 97 12 11 3e 03 f1 aa bc 26 9a 92 bd 88 ec 40 bf
       0.14167248 -0.020866876 -0.07158308 -0.7536092
0000c0 df 99 d9 bd be 10 cb bc 67 90 b9 bd 5e 79 8e be
       -0.10625052 -0.024788257 -0.09060746 -0.2782697
0000d0 2b 2d 0f 3e 90 51 16 bc 19 1e 06 3e 1e c2 27 3e
       0.13982074 -0.009174719 0.13097419 0.16382644
0000e0 5a 1f 4b 3c 7d 66 a9 3e d1 1f c9 bb ca 46 23 3f
       0.0123976115 0.33086005 -0.006137826 0.6377989
0000f0 ad 70 a1 3d 6b 02 85 bc be 94 31 3e c8 ab ce 3d
       0.07882819 -0.016236505 0.17341897 0.100913584
000100 45 e1 84 be 42 fc b5 3d 4d 14 62 bf 65 57 e3 3d
       -0.25953117 0.08886005 -0.88312227 0.111006536
000110 96 5b 30 3e e9 96 96 be 67 03 9d bd 06 74 59 be
       0.17222437 -0.2941201 -0.076666646 -0.21235666
000120 d6 b0 1a be d6 db bd bf 28 61 4a 3e 10 33 00 be
       -0.1510652 -1.4832714 0.19763625 -0.12519479
000130 d7 f1 21 3d f6 7e 4c bf 4b 5b 88 3b 9d 82 32 be
       0.039537277 -0.79881227 0.0041612736 -0.17432638
000140 c1 d6 03 bd e0 06 17 3d a4 a2 d8 be 3b 01 36 bf
       -0.032187227 0.03687179 -0.42311585 -0.7109563
000150 1d 54 66 be 19 e2 59 bd 62 6e 8c 3e b0 c5 9a 3d
       -0.22493024 -0.05319414 0.27427965 0.07557237
000160 8f 12 26 3e af 22 cb 3c e8 3b 7f 3d 4b ca 9e 3e
       0.16218017 0.024796812 0.06231299 0.31013712
000170 9a c1 e8 be 02 05 e4 3d fe ab e3 bd 42 3f df bd
       -0.45460206 0.11133768 -0.11116789 -0.10900737
000180 d1 84 84 3e bd 9d aa bd 08 3c 00 3e 51 c0 63 3e
       0.2588258 -0.083308674 0.125229 0.22241332
000190 01 02 14 3e 5b 5c a0 3e 21 84 da bd b3 70 26 3c
       0.1445389 0.31320462 -0.10669733 0.0101587055
0001a0 ce 28 a0 3e 65 b1 d3 3d 3c c8 52 bb e8 26 81 bd
       0.31281132 0.1033657 -0.0032162806 -0.06306249
0001b0 ad f7 9a 3d 30 a9 2e 3e 27 39 ff bc 74 f9 b2 be
       0.07566772 0.17056727 -0.031155182 -0.34955943
0001c0 1b 40 98 bd c5 ae 8d bd e8 6b 95 3b 04 ee be 3e
       -0.07434102 -0.069181 0.0045599826 0.37290967
0001d0 2e 47 a4 be 23 ea 45 3b a7 ee 6e be da 31 4f 3d
       -0.32085556 0.003019937 -0.23333226 0.05058465
0001e0 e9 46 e3 bd 64 49 9b be 5a dd 80 3e 1c 36 48 3e
       -0.110975094 -0.3032943 0.25168878 0.19551891
0001f0 14 b2 28 3e 83 18 9d 3d d0 cb 76 3e c7 cd 5f be
       0.16474181 0.07670691 0.24101186 -0.21855842
000200 4d 45 a0 3c ca cb ca 3c 73 ba a6 3e a3 ab 14 bd
       0.019564295 0.024755377 0.32564124 -0.036296498
000210 95 ab 93 3f eb 9b c4 be 92 92 c1 bc 0a b2 14 be
       1.1536738 -0.38400206 -0.02362946 -0.14521042
000220 75 b9 a4 3e 97 c4 96 3b 15 c7 75 3d 07 ef 8b be
       0.32172742 0.004601072 0.060004313 -0.273308
000230 46 4d 63 3d 45 9f 05 bc 4f 1f 9a bd 33 bb ab 3e
       0.055493616 -0.008155649 -0.07525503 0.3354126
000240 09 d5 ee 3d 6a ca dc 3c 55 08 3f bb ff e8 13 3e
       0.11661727 0.026951987 -0.0029149253 0.1444435
000250 83 bb 8f bc 0d 21 62 3d 1e df 44 3e 74 e0 25 3e
       -0.017545467 0.0552073 0.19225737 0.16198903
000260 91 71 31 be 0e f0 59 be 47 9f 26 3f b6 e5 f9 3e
       -0.17328478 -0.2128298 0.6508679 0.48808068
000270 67 f2 b9 3b 8f 11 af bc 50 d7 af 3e 42 89 95 be
       0.0056746486 -0.021370677 0.34343958 -0.29206282
000280 4b ed a4 bd 35 cb e4 bd 73 2d 49 be db d6 f2 3d
       -0.080530725 -0.11171571 -0.19646244 0.11857387
000290 92 aa 87 3e a2 cb b3 bd 39 53 09 3e b9 9f 31 bd
       0.26497322 -0.08779074 0.13410653 -0.043365214
0002a0 0f 15 80 3e 93 20 6d 3c 64 50 a0 3d 66 d9 0c be
       0.25016066 0.014473098 0.07827833 -0.13754806
0002b0 ba 6d 48 bd 95 32 18 3e ef 20 e0 3d 9d 5b 26 bd
       -0.04893277 0.14863046 0.109437816 -0.040614713
0002c0 fc 7f 12 bd 81 1d 63 3e 0f 57 17 3e cb 00 8f 3e
       -0.035766587 0.22179224 0.14779304 0.27930292
0002d0 ea 5e c4 bd 4e 3b 2b bd 79 e8 17 bf 73 a1 07 3d
       -0.09588416 -0.041804604 -0.593391 0.033112954
0002e0 54 07 b7 3c 1c 77 31 be dd bd d0 3d 6f 75 af 3c
       0.022342362 -0.17330593 0.101924635 0.021418301
0002f0 88 9d b7 3d f1 4c 89 3e fa 08 16 be a6 7f 49 be
       0.089655936 0.26816514 -0.14651862 -0.196776
000300 0f f5 ab bc 2a 6f 2b 3e 82 8a 1c 3e a6 9c f7 3d
       -0.020990876 0.16741624 0.15287212 0.12090425
000310 ae 03 2a 3c ff 5c 5a 3c e4 73 47 3c 36 f8 1a 3e
       0.010376854 0.013327836 0.012173627 0.15133747
000320 e8 01 e4 3e 55 64 a1 be cf dd bc bd b4 2d 27 3e
       0.44532704 -0.3152186 -0.09221994 0.16326028
000330 1c 4b d5 bc d2 bf 62 be 1e 91 29 be cb 92 a2 3e
       -0.026036792 -0.22143486 -0.16559264 0.3175262
000340 8c 4e 0b 3e 1e 5b c5 be 76 d5 14 be b0 60 08 3f
       0.13604182 -0.3854608 -0.14534554 0.53272533
000350 23 d3 d6 bd 99 07 0a 3d 19 0d f9 bd 11 14 80 be
       -0.1048949 0.033698652 -0.12160701 -0.2501531
000360 87 77 04 3e 2a c4 8a be 82 5f 58 3e e2 85 9d bd
       0.12936221 -0.27102786 0.21130183 -0.07691552
000370 97 8f 41 be 40 33 70 be aa 3b 0f bc 40 92 7a 3d
       -0.18902431 -0.2345705 -0.008742252 0.06117463
000380 db 37 11 be 3e a1 e1 3d 0e ab 02 3c 15 a3 85 3b
       -0.14181463 0.11017083 0.007975353 0.004078279
000390 ba 62 3a bd 45 e5 31 be 03 74 8b bd 34 f9 67 3d
       -0.04550431 -0.17372616 -0.06809237 0.056634143
0003a0 b1 4f 1c be 72 7e a1 bd 0e 36 9d 3d 89 f5 1e 3e
       -0.15264775 -0.07885446 0.07676326 0.15523352
0003b0 16 d2 e6 bd bc 1b 5b be ce 7f dc 3c fb 1e 3f be
       -0.112705395 -0.21397299 0.02691641 -0.18664162
0003c0 41 50 ad 3c 5e 5c e7 bd e5 a3 7c bd 79 be 11 3e
       0.021156432 -0.112969145 -0.06167974 0.14232816
0003d0 88 42 af 3d 56 62 32 be 36 87 c2 bd b7 25 3a 3d
       0.08557612 -0.17420325 -0.09498446 0.045446124
0003e0 a0 e2 42 ba 8d 1e bb 3d 2f f6 5a 3d a3 45 8c bd
       -0.00074342825 0.091366865 0.053457435 -0.0684922
0003f0 01 9a 40 bd 93 a1 70 3d 58 66 06 3e 87 2d ab bd
       -0.04702187 0.05874784 0.13124979 -0.08358293

encoder.4.bias f4 [32]
000000 a9 d8 00 3e a9 33 a1 3d c4 49 22 3e f3 a9 fe bd
       0.1258265 0.078711815 0.15848452 -0.12434759
000010 cf 04 d9 be 1a 2e e5 3d a5 97 b4 3c b6 88 32 be
       -0.4238648 0.11190434 0.022044966 -0.17434964
000020 a4 d5 5a 3e af 07 b5 3b 05 1c d2 3c 38 6f cd bd
       0.2137056 0.0055245976 0.025648126 -0.10030979
000030 1e 5a 4c bd 41 6f 9b bd 0f 57 a5 3c a5 d3 8d 3e
       -0.04989063 -0.075895794 0.020183114 0.27700534
000040 51 87 81 3d db eb 0d be 96 66 46 3e 10 eb a3 3d
       0.06324638 -0.13859503 0.19375071 0.08003819
000050 4c fa a7 3d 65 9e 41 3e 25 6f cc bd 21 a4 c2 3d
       0.08202037 0.18908079 -0.09982137 0.09503961
000060 1f 4a f6 bd fd 37 2c 3e 6c 3f d2 3d b6 0d bd bb
       -0.12025856 0.16818233 0.10266003 -0.0057694567
000070 58 1c e7 bd 1e 87 3d be 74 7d 1c bd fe a9 d5 bd
       -0.11284703 -0.18508574 -0.03820558 -0.10432814

encoder.6.weight f4 [2, 32]
000000 3e ff b7 bd eb 49 0c 3e 10 8b 10 3f 2b b5 25 3d
       -0.089842305 0.13700072 0.5646219 0.04045598
000010 65 78 32 bf 82 55 05 be e2 23 7d 3e de 25 b5 bd
       -0.6971496 -0.130209 0.2472072 -0.08845113
000020 b1 67 a0 3e b2 82 5a be 29 e0 86 bd 4c 7e e7 3f
       0.3132911 -0.21338919 -0.06585724 1.8085418
000030 f3 fe 4f 3d 26 fe 2e 3e 66 d4 b3 be 1c 04 af 3e
       0.050780248 0.17089137 -0.35122985 0.34182823
000040 3a af 4e 3d 1d f2 37 3f 45 d1 64 be 08 2f 92 be
       0.050460078 0.7185381 -0.22345455 -0.28551507
000050 73 f9 df bd 15 b5 2a be ff e9 ad bd 89 1b 25 3c
       -0.109362505 -0.1667064 -0.08491897 0.010077366
000060 1c ea 68 3d cc c5 04 3f 68 80 19 be b2 c8 2e be
       0.05686389 0.51864314 -0.1499039 -0.17068747
000070 b8 ae 0d be 43 7b a4 3d 91 b4 55 bd 80 ed 58 3d
       -0.13836181 0.08031323 -0.052174155 0.052960873
000080 9d 60 ab 3d 13 56 58 be 8f 4e 07 3d c8 d3 82 3e
       0.08368037 -0.21126585 0.033033904 0.255522
000090 7a 02 56 be a7 9d b1 3d 49 8c 6a 3e 3f 02 9e 3d
       -0.20899382 0.08672648 0.22905077 0.07715272
0000a0 34 83 40 be e6 3e 96 3c 8e 20 49 be 31 7e 8b bf
       -0.1880005 0.01834054 -0.19641325 -1.0897886
0000b0 58 38 57 be ba 0e 72 be 07 e3 00 bf 33 0b b4 3c
       -0.21017587 -0.2363843 -0.50346416 0.021977996
0000c0 af 4f cf bd 50 72 98 3e ff ba da bd 33 55 fe bc
       -0.1012262 0.29774714 -0.10680198 -0.031046486
0000d0 cb 87 40 3e 95 a5 cb bd 53 fe 74 bd 35 60 bb bd
       0.18801801 -0.09943692 -0.059812855 -0.091492094
0000e0 d5 43 cf bd 48 02 61 3d e7 65 f6 3d 57 4a a3 3e
       -0.1012036 0.054933816 0.12031155 0.31892654
0000f0 03 fa 3f bf 6b 89 9a bd 68 93 0d 3e 03 11 e2 bd
       -0.7499086 -0.07545742 0.13825762 -0.11038401

encoder.6.bias f4 [2]
000000 25 ac c7 bd c3 7f 75 3d
       -0.09749631 0.059936296
