ives_model/experiments/learning/multiple/multiple_001/morals/run_05/models/encoder.pt (torch, 3165 bytes, 4 tensors)

encoder.0.weight f4 [32, 3]
000000 88 19 c5 be 98 88 32 be f9 48 0a 3f 42 be 53 be
       -0.3849604 -0.17434919 0.540176 -0.20678046
000010 2a ec 8f be 53 6f 66 bd 33 2d ea be 19 57 24 3e
       -0.28109866 -0.05625851 -0.4573761 0.1604885
000020 99 41 ab be 82 5a 80 3f 56 32 00 bf 35 3c ac 3c
       -0.33448485 1.0027621 -0.50076807 0.021024803
000030 90 6a 94 be 8f 14 0a bc 21 db a3 bd c0 96 53 3e
       -0.2898755 -0.008427753 -0.0800078 0.20662975
000040 c1 c4 96 3f 96 9b 4d 3e 64 49 4f 3e 0a 1e 41 bd
       1.1778795 0.20078883 0.2024284 -0.047147788
000050 12 f6 1c 3f 98 a9 a0 be df 86 0b 3f 39 03 32 3d
       0.61312973 -0.3137939 0.5450267 0.043460105
000060 f8 12 01 3f 6c ce a5 be 6c ab 10 3f a8 51 67 3e
       0.5041957 -0.3238405 0.5651157 0.22589743
000070 df fe 2c 3e b7 3a 92 3e 51 0c 4b bf 9e 03 35 3f
       0.168941 0.2856042 -0.7931567 0.70708644
000080 5c 0a a2 3d ea 70 bd 3e af df a9 3e fe 6a 62 3e
       0.07912132 0.3700021 0.3317847 0.22111127
000090 a4 f5 12 3e 61 50 69 3e 39 48 c4 3e a2 71 15 3e
       0.14351517 0.22784568 0.38336352 0.14594129
0000a0 79 ef ca 3e a3 9d 1a 3f 8f 0f 7a be 88 ec bf 3e
       0.39635828 0.60396785 -0.24419998 0.37485147
0000b0 ad 5f d7 3e 65 57 49 be 84 78 8e be 75 a6 16 3e
       0.42065182 -0.19662245 -0.2782632 0.14711936
0000c0 00 05 47 be 97 44 03 3f 5f 4e e8 3e b0 ea ce be
       -0.19435501 0.51276535 0.45372292 -0.40413427
0000d0 75 78 c0 bd 33 4d ec 3e d1 4b b5 be 9a c5 f9 3e
       -0.09397975 0.46152648 -0.35409406 0.4878357
0000e0 88 cc c4 3e e4 7b 95 3e 16 b8 17 3f a7 f8 22 3e
       0.38437295 0.29196084 0.5926527 0.15915166
0000f0 a8 da 49 bd b1 24 50 3e fd 45 b6 3c ab e2 0f 3e
       -0.049280792 0.20326497 0.02225017 0.1405131
000100 b4 a5 a9 be a0 52 0c 3f dd 2f 47 be 1e 37 ae 3e
       -0.33134234 0.54813576 -0.19451852 0.34026426
000110 b2 ad 6b 3e bb 09 0c bf 7e 39 c1 3e 76 a7 80 be
       0.23015478 -0.5470235 0.37739176 -0.25127763
000120 db d4 d5 3e 46 f6 d6 3e 62 ce 31 3e ce dc c6 3e
       0.41763958 0.41984767 0.17363885 0.38840336
000130 8f fa c5 be d7 7f e4 be ed b2 13 3e b7 d2 8d bd
       -0.38667724 -0.44628784 0.14423724 -0.06924956
000140 ad 4b e8 be 44 f2 a6 3e 74 ce 10 3f e8 63 74 3d
       -0.45370236 0.3260671 0.5656502 0.05966559
000150 14 aa 17 3e 66 04 9e 3e a2 a7 26 3f 31 6d b1 3e
       0.14810973 0.3086273 0.6509954 0.3465362
000160 2b 90 9b be 01 63 9b 3e 8b 01 92 be 32 32 1d 3e
       -0.3038343 0.3034897 -0.28516802 0.15351179
000170 04 dc 86 bd 2a 5e 0a 3e 2a f7 c0 be a7 3e 8b 3e
       -0.065849334 0.13512483 -0.3768857 0.27196237

encoder.0.bias f4 [32]
000000 77 9c 02 3f 07 53 22 3f d2 15 c6 be e6 24 50 3e
       0.51019996 0.6340794 -0.38688523 0.20326576
000010 8d 25 53 bc f8 dd 0c bf b3 fa 8b 3e 31 01 8a 3e
       -0.012887371 -0.550262 0.27339706 0.26954034
000020 2b 73 04 3d aa 78 a5 3d ae 09 d5 3e c2 ae f9 3e
       0.032336395 0.080796555 0.41608948 0.48766142
000030 3e d1 ac bd 52 6d fb bd 30 96 81 3e 20 37 3b be
       -0.08438347 -0.122767106 0.25309896 -0.18282747
000040 67 e6 af be 8c 8a 80 3e a3 b9 19 3f 04 b1 c7 bc
       -0.3435547 0.25105703 0.60048884 -0.0243764
000050 37 50 53 be 06 cd bb 3d 13 60 11 3e f3 29 a8 be
       -0.20636068 0.091699645 0.14196806 -0.32844505
000060 5d d4 37 be 6f 1d fb be c9 25 07 3f 71 34 ed bd
       -0.17952104 -0.49045894 0.5279203 -0.11582268
000070 a5 e9 4f bf ac 77 03 3e 8c a4 d4 3e 23 9a a2 3e
       -0.8121589 0.1283862 0.4153179 0.31758222

encoder.2.weight f4 [2, 32]
000000 ba e8 9d 3a 85 c7 b9 3e 4d 3b aa bd dc d9 cb 3c
       0.0012047507 0.36285034 -0.08312092 0.024884157
000010 55 06 2e bd 2d 6d 88 be 08 4b 25 be 6a bd fa 3e
       -0.042486507 -0.26645795 -0.16141903 0.48972636
000020 f3 90 19 be 4b ce 86 3d 69 01 67 bd a4 11 9b bc
       -0.149967 0.06582316 -0.05639783 -0.01892931
000030 0b 4f 40 be a9 60 07 be 6c d8 a7 bb 3f 52 f0 3d
       -0.18780152 -0.13220467 -0.005122235 0.11734437
000040 10 2c 94 3e 75 2a ab 3d a2 65 47 3e aa 7a b9 3c
       0.28939867 0.083577074 0.19472364 0.022641499
000050 24 de a9 bd ec 36 50 be 9b ae eb bc c8 d6 03 3d
       -0.08294323 -0.20333451 -0.028769782 0.032187253
000060 3d 1c 1f be f6 b6 28 3e 80 5c 8d 3e 6e 58 0f be
       -0.15538116 0.16476044 0.27609634 -0.13998577
000070 ad c2 8e bf 96 7e 92 be ae 35 81 3e 95 13 2d bd
       -1.115316 -0.28612202 0.25236267 -0.042255003
000080 c4 c9 06 be 2b 47 21 3d fd 97 11 3e 62 fd 38 3f
       -0.13162905 0.03937451 0.14218135 0.7226163
000090 2b 0c de 3d c5 44 23 bf ef 13 c3 bd 51 b5 70 3d
       0.108421646 -0.6377681 -0.095252864 0.058766667
0000a0 6c 1b fa 3e fa 10 20 be 7d aa 18 3f 2f 44 fc 3d
       0.48849046 -0.15631476 0.59635144 0.123176925
0000b0 76 5c c3 3c bb 80 8b bc 56 b7 0a be 15 72 81 3d
       0.0238478 -0.017029157 -0.135465 0.063205875
0000c0 11 8f 06 3f 64 2a 83 bd 98 79 ad 3c 7a 95 00 bd
       0.5256205 -0.0640457 0.021176144 -0.031392552
0000d0 2f 22 0c 3e 12 c5 25 bd 61 13 5c be 99 29 e5 3d
       0.13684915 -0.040471144 -0.21491767 0.11189575
0000e0 57 72 3a be a1 07 b2 bd 10 4e 50 bc 2e 13 4c be
       -0.1820768 -0.08692861 -0.012713924 -0.19929191
0000f0 4b 8b 4a bf 36 a7 19 be 90 c1 1c 3d bf 47 7b 3c
       -0.79118794 -0.15005192 0.038270533 0.01533693

encoder.2.bias f4 [2]
000000 69 ed e3 3c 4e f2 34 be
       0.027823167 -0.17670557
