examples/data/learned_models/5_decoder_epochs_500.pt (torch, 139075 bytes, 8 tensors)

decoder.0.weight f4 [128, 2]
00000000: 2c56 2abf e356 b13e e166 53be f21f 02bf
00000010: dbe5 5abd cd4e fcbe e4b6 8cbd 3c65 2bbe
00000020: 6064 c5bd 89bc 263e fe89 84bd 4b19 8fbf
00000030: 8240 233f c83e 9b3e c1f4 8abf 601c 0fbf
00000040: f5a8 d6be d7df 543d 229f 7a3f 8e86 fcbe
00000050: e497 2ebf e431 dd3e 4360 82bf 8e56 71be
00000060: 66b3 9bbf 4968 85be 7887 e9bd 52ef 5dbf
00000070: 3588 bfbd 6065 d03e fabc 0abf 3811 3ebf
00000080: ef98 07bc 87ab 403b 01e6 f1bd 8a29 8f3e
00000090: f8a6 9fbe c528 0e3e d30a 263f 1788 733e
000000a0: 3690 453e 981c 0f3f 302b 993e 1581 6bbf
000000b0: 10ce 40bf 02e3 9d3e 887c 47be b63a 4cbd
000000c0: e25e 153d e731 5cbe 9200 0bbf 3332 2cbe
000000d0: a10c 7a3c 8608 8a3e c564 91be 79d9 dd3e
000000e0: 85cc 1f3c 0a56 28be c51e e5be b140 efbc
000000f0: f00a e43e 542f 393c 3a34 f53d 9b31 a43e
00000100: 8f07 0dbf 702f 8a3e 0dab 5fbe 2dd3 943e
00000110: 6352 8bbd e413 943d c92d 303f 6da3 80bf
00000120: 6b95 523f 9412 cdbe 3457 63bf 3e72 12bc
00000130: a32e 9ebe 39b0 1fbe d47a 9dbe f95f 32bf
00000140: 37bc b93b cbec 793d d8dc 773e b054 1c3d
00000150: 3f17 233f 8919 cc3d 045d 213f 46a8 34bf
00000160: f7dd 203f 0dcb 5dbe 4beb 55bf e055 ec3e
00000170: 4dc4 68bf d04d 79bd 02e0 e33c 6761 a53e
00000180: b0c5 cdbc 4ca2 c0bd efe3 43bf 92d9 97bd
00000190: 5c7a acbe a803 debe 7eeb 83be 5aab 8abf
000001a0: 8825 fbbe 1a78 e53e 1c51 ba3e e127 183f
000001b0: cb78 743c 595c 893e b11f ac3e 5d9a 6d3d
000001c0: 5fe0 213f 890b 52bf 0c6b a53d dce8 3d3e
000001d0: ea5a 0bbf c3be bbbf 2a05 babe 41f3 b4be
000001e0: 47bf 033f 86ac 543d 262e c23e 2da4 a93d
000001f0: 86b0 75bb d082 d3bc 3588 3dbf c0d3 0c3f
00000200: ac9a 853e 2a25 cdbe 203d 01bf 0eaa c93e
00000210: b1ca 303e 6bf3 8e3e edf4 38bf 4922 79be
00000220: ed1a b6be 260b 74bf 0462 493d b622 26bf
00000230: 7e42 0a3e 3827 b43e 9c1b 3fbf b806 bc3e
00000240: 4c5f 75be 1e7f d03e d885 1b3f eff9 ba3e
00000250: e68e 0b3f 5f2a ffbe e1c1 57bf 7a6c 88bf
00000260: 924f 1a3d 5f01 3b3e c533 273f e710 c3be
00000270: d2e9 a43e 91a6 19bf 19f2 343f aef6 debe
00000280: d1f8 1f3f e735 cabe b047 c23e 8ed7 c13e
00000290: bd02 23be 75ec ec3d 0eed 79bd e01f a6be
000002a0: 1c78 893e 96f5 07bf 21d8 113e 708f e93e
000002b0: b37c c93e 9029 cebe dfc0 e4be 3ad0 20bf
000002c0: 3a9a babe aa25 1dbf 19c7 98be 46db ab3e
000002d0: 56bc 933e 97ad aebf cf54 03bf 88b6 093f
000002e0: 949a 593f 057d fbbe 3bd5 4a3e 0771 81bf
000002f0: 5f67 16be eea5 0fbf 6852 ffbe 1207 c13e
00000300: e6c3 ebbe 542a 073f 6867 e3be 9b41 983e
00000310: 6933 40bf ff51 0ebf 972e 243f 7e1d a4be
00000320: e424 bfbe 7b9f 76be 995e ae3e aea7 bf3e
00000330: 82d0 93bd 8ad4 eabd 2240 a53d fb50 b93e
00000340: 42d3 8e3e d71c 1dbf 4b18 fdbc bae9 2a3d
00000350: 322d 353e ba83 d93e d341 42be a1cf efbd
00000360: dc1e 62bf 6432 6bbd 9f30 d2bd 57bb 0e3f
00000370: a4d4 46bd 4148 b93d 6418 f73e e470 44be
00000380: 4652 d9be 5d6d 37bf ee65 083f 3ff7 6fbf
00000390: 0521 c8bd 6f56 bc3e 80f7 09bf 9a6d 8b3e
000003a0: 9d2f 913e 1281 e63d de55 9c3e 7729 c53e
000003b0: 655d 87bf b349 d53e 28d3 22bf f4d4 5a3e
000003c0: 1ee9 07bf 7ce9 b23d ea76 69bf d144 4fbf
000003d0: df2e 85bd 9ece 81be b006 643e 20e8 ec3d
000003e0: 7d7e 06bd a453 9dbe 9ae2 6abd f2d8 7fbf
000003f0: 6b90 adbe 5170 6c3e e213 e03e 33fd 0abf
-0.6653774 0.34636602 -0.20644714 -0.50829995 -0.053441864 -0.4927887 -0.06870821 -0.16737837
-0.09638286 0.16282858 -0.064716324 -1.1179594 0.63770306 0.30321336 -1.0855943 -0.5590267
-0.4192578 0.051971283 0.9789907 -0.49321407 -0.68200517 0.43202126 -1.0185627 -0.23568174
-1.2164123 -0.26056126 -0.11402792 -0.866933 -0.09352151 0.40702343 -0.54194605 -0.74245024
-0.008276208 0.0029399113 -0.11811448 0.2796138 -0.31182075 0.1388274 0.64860266 0.23782383
0.19293293 0.55903006 0.29915762 -0.9199384 -0.75314426 0.30837256 -0.19481099 -0.04986068
0.03646744 -0.21503411 -0.54297745 -0.16816024 0.0152618 0.26959628 -0.28397194 0.4332998
0.009753351 -0.16439071 -0.44750038 -0.029205652 0.44539595 0.011302788 0.11972852 0.32069096
-0.5508966 0.26989317 -0.21842594 0.29067364 -0.068028234 0.07230356 0.6881986 -1.0049874
0.82259244 -0.40053236 -0.88804936 -0.00893837 -0.30894956 -0.15594567 -0.30757773 -0.6967769
0.005668189 0.06101684 0.24205339 0.0381667 0.63707346 0.09965808 0.63032556 -0.70569265
0.6283869 -0.21659489 -0.83562154 0.46159267 -0.9092453 -0.060865223 0.027816776 0.32300875
-0.025118679 -0.09405956 -0.76519674 -0.07414545 -0.33687103 -0.43362164 -0.25765604 -1.0833542
-0.49052072 0.44818193 0.36390007 0.5943585 0.014921377 0.26828268 0.3361793 0.05800854
0.6323299 -0.8204885 0.08077058 0.1854586 -0.544356 -1.4667591 -0.36332065 -0.35341838
0.5146374 0.051922344 0.37925833 0.08283267 -0.003748925 -0.025819212 -0.7403596 0.55010605
0.26094568 -0.40067416 -0.50483894 0.39387554 0.1726482 0.27920088 -0.7224873 -0.24329485
-0.35567418 -0.9532951 0.04916574 -0.64896715 0.13501927 0.35186172 -0.74651504 0.36723876
-0.23962134 0.40721983 0.60751104 0.3651881 0.5451492 -0.49837014 -0.8428021 -1.0658104
0.03767354 0.18262242 0.6531337 -0.38098833 0.3220964 -0.60019785 0.7068191 -0.43547577
0.6248904 -0.3949425 0.37945318 0.37859768 -0.15919013 0.11568538 -0.06101709 -0.32446194
0.2684945 -0.5310911 0.14242603 0.45617247 0.3935295 -0.40266085 -0.446784 -0.6281773
-0.3644579 -0.61385596 -0.298394 0.3356573 0.28854626 -1.3646725 -0.5130128 0.53794146
0.8500149 -0.4911882 0.19807903 -1.0112618 -0.1468787 -0.56112564 -0.49867558 0.37700707
-0.46047896 0.5279896 -0.4441483 0.29737553 -0.75078446 -0.55593866 0.6413359 -0.3205375
-0.37332833 -0.24084274 0.34056547 0.37432617 -0.07217504 -0.1146632 0.08068873 0.36194596
0.27895552 -0.6137213 -0.030895373 0.041726805 0.17693022 0.42483312 -0.18970422 -0.11709524
-0.8832834 -0.057421103 -0.1026318 0.5575461 -0.048542634 0.090469845 0.48260796 -0.1918369
-0.42445582 -0.7165125 0.5328053 -0.9373664 -0.09771923 0.36784694 -0.5389328 0.27232057
0.2835664 0.11255087 0.3053426 0.38508198 -1.0575377 0.4165779 -0.6360345 0.21370298
-0.53090084 0.0873594 -0.91197073 -0.8096438 -0.065030806 -0.2535295 0.22268176 0.11567712
-0.032835472 -0.30727875 -0.05734501 -0.9994041 -0.33899245 0.2308972 0.4376517 -0.542926

decoder.0.bias f4 [128]
00000000: c954 f6bd 542a 22bf e693 b53e 90ea 2bbf
00000010: 0657 843e 8f84 18bf f1fb 13bf 00e9 b93e
00000020: 34a4 57bf 66e7 a13e ce99 d83b 46fc c93e
00000030: cbde a0bd b56c 5f3e 40e6 f7bd fd7a 70bf
00000040: 8469 14bf 2d19 08bf 0c0a 073f f663 fdbe
00000050: 2252 6fbf 03e5 05be ed32 1d3d b4e2 4a3e
00000060: 01b5 153e 7263 e8be d733 b0be b1ab 4c3e
00000070: abe8 c7be cb45 fa3e f73e 093f e6fc 10bf
00000080: f0ee 04b9 1210 adbe fa62 94be 0791 9fbd
00000090: 9dc1 ecbe f7e6 5fbe 9af0 98be 869e eb3e
000000a0: f83d a5be 8fbf e13d f182 f63e f19b 293e
000000b0: 5e7e 1b3f 0147 8bbe 1348 65bf c1a9 d43e
000000c0: 5bb7 82bd c2b1 5f3f f16a 303f 0ba8 adbe
000000d0: 44d0 19bf f454 86bf a4af 033f fa41 253e
000000e0: a75f 843d c187 19bf 78d2 dbbd ebdc 5c3f
000000f0: e374 013f 7b58 6e3e c3ce efbc 5b37 20bf
00000100: c5fd 8b3e 10e1 ae3e 824d 2dbf 3999 213f
00000110: f385 ddbd 1ebc be3e 3646 20bf 1b62 033e
00000120: 104c 1dbd baf0 2e3b c82e 553e 805e 93be
00000130: 3af3 12bf 73ca 0fbd eb03 6b3f 918c 4bbc
00000140: 8b01 f53e 7ce5 9fbe f953 b33e df3f 1dbf
00000150: 5b58 da3e a4a4 3cbf 0ce0 2abf e15d 443c
00000160: 5be1 f1be 5490 9a3e 514b 74bd 1187 383e
00000170: bf80 0d3f ab2b 51bf bc76 23be 8025 033f
00000180: 68b9 803e 9df3 f43e 332d 8fbe 5c28 4cbf
00000190: 7782 573f bb1e 3fbe 9860 c0be 3b87 0abf
000001a0: 93b5 163f 10b9 70be fe75 75bf 72c9 2ebf
000001b0: 0e6d 783e 95bf 86bf 3f92 b7be 129d 73bf
000001c0: a8be 2bbe 30e2 00bf 33c4 f6bd 7738 c7bd
000001d0: 1e12 e73c b4ec 50bf 96c1 a1bc a631 df3d
000001e0: 186a 993e b898 f83e 9706 e3be 035b d3bd
000001f0: 4073 123f bc3d 09bf c8a8 f93e ba9e 18be
-0.1202789 -0.6334584 0.354644 -0.6715479 0.25847644 -0.5957727 -0.5780631 0.36310577
-0.8423493 0.31621855 0.006610132 0.39450282 -0.078549944 0.21818812 -0.121044636 -0.93937665
-0.57973504 -0.53163415 0.52749705 -0.49490327 -0.934847 -0.13075642 0.038378645 0.19813043
0.14619829 -0.4538837 -0.3441455 0.1998737 -0.390447 0.48881373 0.536117 -0.5663589
-0.00012677512 -0.33801323 -0.28981763 -0.07791334 -0.46241465 -0.2186545 -0.29871064 0.4601938
-0.3227384 0.11022865 0.48146775 0.16563393 0.60739696 -0.2720261 -0.895631 0.41535762
-0.063826285 0.8738061 0.6891318 -0.3391727 -0.60083413 -1.0494676 0.5143988 0.1613845
0.06463557 -0.5997277 -0.10733503 0.86274594 0.5056898 0.2327594 -0.029273396 -0.62584466
0.27342048 0.34156084 -0.6769639 0.63124424 -0.108165644 0.37252897 -0.62607133 0.12830393
-0.038402617 0.0026693777 0.20818627 -0.28783035 -0.57402384 -0.03510518 0.91802853 -0.01242365
0.4785274 -0.3122977 0.35025004 -0.61425585 0.42645535 -0.7368872 -0.6674812 0.011985273
-0.47242245 0.3018824 -0.05964214 0.18020274 0.55274576 -0.8170726 -0.15963262 0.51229095
0.25141454 0.47842112 -0.27964172 -0.79749084 0.8418345 -0.18664066 -0.37573695 -0.54112595
0.5887081 -0.23508096 -0.95883167 -0.6827613 0.24260351 -1.0527216 -0.35853764 -0.95161545
-0.16771948 -0.50345135 -0.12049141 -0.09727567 0.028206881 -0.8161118 -0.01974563 0.108981416
0.29963756 0.48554015 -0.44340965 -0.103200935 0.5720711 -0.53609824 0.48761582 -0.149043

decoder.2.weight f4 [128, 128]
00000000: 4ea4 15bf 7acf f7bc d2dc 643e fabb 973d
00000010: b31d efbd f0f2 babe 8fad f7be f258 95be
00000020: c859 7bbe 2ab7 113e f8df e53e d4af b4be
00000030: f29d 12be a202 f63c 37c8 41bf c700 65be
00000040: 0c37 c9bc c1df 53bf 90ee 4a3d 92a2 68be
00000050: 3f3b fcbe c2a1 d3be c598 18bf 5a79 f83d
00000060: 8a7a 253e 2ae1 383c c48f 49bf 5c8c 9abe
00000070: 834e 16bd af16 c73e deac 663a fe8c 00bf
00000080: f52e b33e a371 85bf 18a3 a6be 7b5a db3e
00000090: 9cb0 023e 8424 72be 2666 103e 5138 5abe
000000a0: 6cf1 82be 4c9d 73bd 42a5 9d3a f28e a33e
000000b0: 999f aabc 8322 6a3e fae1 66bd f333 10be
000000c0: b90f 0fbe 0fe7 e23e 8e75 783e fa82 f7be
000000d0: ff8e 36bf 71cd 23bf 5f0b 54be 804d cabd
000000e0: ffe8 c03e 5786 f7be defa 99be 16f7 a03e
000000f0: 4d37 9dbd 197d 16be 16cc babd 7b03 ecbe
00000100: 97cd ae3e b8c0 c5bd da13 04bf c07a af3e
00000110: c26c 7fbe 70a1 753e 1785 1abf 679f c43e
00000120: 8034 1cbe 4f88 0abe de45 e13d 2b93 9b3e
00000130: a93e 95be 2bfc 853e 431d 6c3e d340 9d3d
00000140: 66e1 1abc 9efb b5be adfe d8bb 8e5f 8e3d
00000150: ba08 933e 4ec9 14bf e598 19bb f2ed 013d
00000160: 1fcd 0dbd 6e66 60be c88b 22bf e5e9 f43d
00000170: b8f0 823d 98fc 84be 1f32 c5bd 547c 0f3e
00000180: f909 cdbe c2fd 17be 019f 013f d519 333d
00000190: 25d3 6e3e bf96 afbe 6058 0dbc c621 eabe
000001a0: 4969 b43e fa51 91be 77cb 0bbf e71e 4abd
000001b0: dd60 77be bb64 b93d 6122 15bf a4c8 2fbf
000001c0: 9083 50be 359d 01bf edea 3cbf 6901 173e
000001d0: 17b1 e5bd 78ce 3bbf e686 1fbe 54ae a93e
000001e0: c55a db3d e0c8 1abe da5d c9bc 471f 51be
000001f0: aa32 813e 5cad 22be ad43 eabd f1ee 7e3e
00000200: 39d9 883c b279 ff3c 449f 36bd 5711 19bd
00000210: 5ad1 2e3d cc87 87bd 37be 1ebd 2b56 89bd
00000220: cfd6 f4bd 4321 b2bd bcd6 44bc 57fb 1b3d
00000230: 54b5 3ebd 4577 abbc 9843 b9bd 0337 f6bd
00000240: c4ec a7bd 94cc 233c 62c5 89bd 7a6b c0ba
00000250: f59f a2bd 5cd1 f3bd 5f3d a5bd 0a4f 1e3d
00000260: 35cb 553d 5895 05be 9070 67bd a63c 503d
00000270: d3dc b13d 4b2e 05bd 4d3b abbd 8f69 2a3d
00000280: 979b 4e3c 430e 40bc 1118 bbbd 2cf4 d5bc
00000290: a1f8 16bd 5b1b a6bd c1e1 d53c 18ab 27bd
000002a0: bdf7 5fbd 3205 8e3c 7f6d c8bd d0f9 a8bd
000002b0: a0e8 723d b538 a23c c0df 26be 2e36 f23b
000002c0: aea8 87bd 427c 87bd 80a6 813c 817e 87bc
000002d0: 7c52 86bd a6d8 99bd 0dd1 9bbd 189d 9bbd
000002e0: 311e 163d bcd3 c6bc 31e2 873d 064c 07bd
000002f0: f772 34bd f382 23bd ae05 cfbd fc6e 9bbc
00000300: eb9a e93c aca2 da3c 4d49 65bd 0067 2abd
00000310: ee59 9d3b 3eb2 f0bd c91e 4abc 55d5 a3bd
00000320: f247 74bd 1650 e63c 3363 3dbd f457 49be
00000330: 4df4 e4bd a4c7 d0bd aaaf b73c 10d0 c3bd
00000340: 1f62 9d3c 4b7e 2f3d b4a9 43bd 1acb a73c
00000350: 741a 513d 67cc bebc e0a6 bbbd d8e2 c9bc
00000360: 334b acba 554c e73c 3b9a 8a3c 7602 be3c
00000370: d1dc 253d aa00 68bd 55d4 d6bc c146 6abd
00000380: eff7 abbd baea bbbd e29b bdbc e138 1fbd
00000390: 4a06 45bd d0e3 a2bd 13b6 8fbd 1c0e a5bd
000003a0: 0544 cebd 24ff 19bd 04f2 52bd 21f5 823d
000003b0: 9bdc 14bd 4b8f 0fbd cf5f 37bd 3178 90bd
000003c0: 8b39 3bbd 440b 6fbc 0c07 07bd d08c a6bd
000003d0: b60a d6bc 9d99 7bbc b8e3 e5bd ea88 04bc
000003e0: 7b0f 583d 69d7 c0bd c6c6 ecbc 9255 3fbd
000003f0: 7543 a1bd 79e9 a4bc 63ae 9abd cbe3 5ebc
-0.58453834 -0.0302503 0.22349861 0.074089006 -0.116755866 -0.36513472 -0.48374602 -0.29169422
-0.24545968 0.14230028 0.44897437 -0.35290396 -0.14318064 0.030030552 -0.7569613 -0.22363578
-0.024562381 -0.82763296 0.049543917 -0.22718266 -0.4926395 -0.4133435 -0.5960811 0.12132521
0.16160026 0.011284152 -0.78734994 -0.3018521 -0.03669597 0.38884494 0.0008799563 -0.50215137
0.34996763 -1.0425304 -0.32546306 0.4284247 0.12762684 -0.23646742 0.14101467 -0.21310546
-0.25574815 -0.059476182 0.00120274 0.31944996 -0.020828055 0.22864728 -0.05636785 -0.14082317
-0.13970841 0.4431691 0.24263594 -0.48342115 -0.71311945 -0.63985354 -0.20707463 -0.09878063
0.37677762 -0.4834468 -0.3007421 0.31438512 -0.076765634 -0.14696158 -0.091209576 -0.46096405
0.34141228 -0.09655899 -0.5159279 0.34273338 -0.24943832 0.23987365 -0.6035933 0.38402864
-0.15254402 -0.1352856 0.10999654 0.30385718 -0.29149368 0.2616895 0.23058037 0.0767838
-0.009453153 -0.3554353 -0.0066221566 0.06951819 0.28717595 -0.58119667 -0.002343708 0.031721063
-0.034619447 -0.21914074 -0.6349454 0.11958674 0.0639357 -0.25973964 -0.096287005 0.14012271
-0.4004667 -0.14842895 0.50633246 0.043725807 0.23322733 -0.34294698 -0.008627027 -0.45728892
0.35236576 -0.28382856 -0.5460734 -0.049345877 -0.24158044 0.09052416 -0.58255583 -0.6866553
-0.20362687 -0.50630504 -0.7379597 0.14746632 -0.11215418 -0.7336192 -0.15578803 0.33140814
0.10710672 -0.1511569 -0.024580885 -0.20422088 0.25233966 -0.15886444 -0.114386894 0.24895836
0.016705142 0.031185959 -0.04458548 -0.037370052 0.042680122 -0.06617698 -0.03875562 -0.06705888
-0.11955034 -0.086977504 -0.012014087 0.038081493 -0.046559647 -0.020930896 -0.090460956 -0.120222114
-0.08199456 0.009997506 -0.06727101 -0.0014680468 -0.07940666 -0.119051665 -0.08068346 0.038649596
0.052195746 -0.13045251 -0.056503832 0.05083909 0.08684697 -0.03251485 -0.0836092 0.041604575
0.012610338 -0.01172215 -0.0913545 -0.026117407 -0.036858205 -0.081106864 0.026108624 -0.040934652
-0.05467962 0.017336462 -0.0978651 -0.08250773 0.05930388 0.01980243 -0.16296291 0.0073917126
-0.0662397 -0.06615497 0.015826464 -0.016539814 -0.065587014 -0.075120255 -0.07608233 -0.07598323
0.036649887 -0.024270885 0.066349395 -0.033031486 -0.04405495 -0.039919805 -0.10108505 -0.01897382
0.028516253 0.026688896 -0.05597811 -0.041602135 0.00480198 -0.11752747 -0.012336441 -0.07999674
-0.059638925 0.02811436 -0.046237182 -0.19662458 -0.11179409 -0.101943284 0.02242263 -0.09561169
0.019211827 0.04284505 -0.047769263 0.020482589 0.05105062 -0.023290826 -0.09162688 -0.0246443
-0.001314497 0.02823464 0.016919246 0.023194533 0.04049379 -0.05664126 -0.026224295 -0.057196382
-0.08396899 -0.0917563 -0.02314562 -0.038872603 -0.0481017 -0.07953608 -0.0701715 -0.08059332
-0.100715674 -0.037596837 -0.051500335 0.06394411 -0.0363432 -0.035048764 -0.044769105 -0.07054175
-0.045709174 -0.014590088 -0.032965705 -0.081323266 -0.026128154 -0.0153564485 -0.112250745 -0.0080892835
0.05274914 -0.09416086 -0.028903376 -0.046712466 -0.078741945 -0.02013086 -0.07552793 -0.013604115

decoder.2.bias f4 [128]
00000000: b1c3 a03d eeed debd 5f0c b6bd 3a81 70bc
00000010: c434 52be ce33 0d3e 12b8 dcbd 7516 093e
00000020: 682d f03d 527d 44bd 4201 60bd 1783 fdbd
00000030: b39a d4bc fa5d 873d d736 3cbd 1815 f53d
00000040: 4f9d 47bd 82b8 8ebc 9a43 7abd c63b 0c3d
00000050: 208e 4d3e cc64 9abb a5f4 1ebd aeec 173d
00000060: 90da 5bbd 4394 9abe 2b4d f1bd a949 1cbc
00000070: be06 81bd 72ae a53e 1b4c 1bbe fa76 093d
00000080: b333 a6bd 8d04 cebe 6434 3cbd 6043 dcbb
00000090: 7d3e cdbc 631a 93bd 82c9 463e 6ec1 de3d
000000a0: 6faa 9bbd 98f8 dcbd b7ce f4bc 4a71 023d
000000b0: 32a1 55bd 72d8 85bd c7d4 a03e 619b 463d
000000c0: 56d5 a6bd a931 9ebd 30b7 5f3d 842a eebd
000000d0: ae50 56bd 5222 10bd 2f2e 8cbd 6470 413e
000000e0: d54d 803e 7dab a73e 0035 063d 71ce 16bd
000000f0: 2505 783d 4e63 a3bd 140c 0c3d f60a 023c
00000100: 9835 96bc 69be 143e afd9 7c3d d7b9 333d
00000110: 72d6 2abd dd02 033d 52dc 733e 9df0 4d3e
00000120: e277 14be 4802 d43d b0ae 1d3e cf3f 5f3e
00000130: 608c 303d bc50 b6bc 9eda ff3c b523 34bd
00000140: 1a3a 2d3e 6c78 1e3e 7f2f 903d 1865 b1bd
00000150: f893 163c c9a0 e93d 93ff a9bc f00e 433d
00000160: 0720 823e d263 c5bc fd56 0abc c05d e73d
00000170: 92a6 23bd bbb5 80bd 2c2e b4bd 0a5d 36bd
00000180: 2d68 88bd ff2d 77bc c2b1 283e 1a3b b9bd
00000190: d858 90bd 6605 b93e bd34 11bc d138 24bc
000001a0: 3bec d93b 8205 4dbc 5bf2 033e e27c a0bc
000001b0: 85a5 a9be 5d36 963d b778 153d f1ec 993e
000001c0: f31e df3c fb20 4cbd 8c00 bcbc d5d4 7f3e
000001d0: 98da b43d ed62 bbbc 1880 b4bd c65e 1e3e
000001e0: 896c 89bd bce5 2ebd 2e1c f23d cca2 2c3e
000001f0: 4dfe 97be d333 bbbc 9382 debd 77b1 3f3d
0.07849825 -0.10885225 -0.08889078 -0.0146792475 -0.20527941 0.13789293 -0.10777296 0.13387473
0.117274106 -0.047971077 -0.0546887 -0.12378519 -0.025952673 0.066097215 -0.045950737 0.11966914
-0.048734006 -0.017421965 -0.061099626 0.034236692 0.20073748 -0.004711723 -0.03880753 0.03709095
-0.053675234 -0.3019124 -0.11782297 -0.009539046 -0.06300114 0.32359654 -0.1516575 0.03356073
-0.081153296 -0.40237847 -0.0459484 -0.006721899 -0.02505421 -0.07182767 0.19412807 0.108767375
-0.07600867 -0.10789603 -0.029883726 0.031846322 -0.05215568 -0.06535424 0.31412336 0.048488025
-0.08146159 -0.07724316 0.05461806 -0.11629203 -0.052323036 -0.03518898 -0.06844746 0.1889053
0.2505938 0.32748023 0.03276539 -0.03681797 0.06055178 -0.07977925 0.034191206 0.007937184
-0.018336102 0.1452576 0.061731037 0.043878403 -0.041708417 0.031985153 0.23814514 0.20111318
-0.14498857 0.103519976 0.15398669 0.21801685 0.043102622 -0.022255294 0.031232174 -0.043979365
0.16916695 0.15475625 0.07040309 -0.0866186 0.009190552 0.114076205 -0.02075175 0.047621667
0.2541506 -0.02409545 -0.008443591 0.11297178 -0.039953776 -0.06284662 -0.08797869 -0.044522323
-0.06660495 -0.01508665 0.16474059 -0.09044476 -0.070481956 0.3613693 -0.008862671 -0.010023312
0.0066504753 -0.01251352 0.1288542 -0.019590799 -0.33134094 0.07334588 0.036492076 0.30063584
0.027236437 -0.04983614 -0.02294948 0.24983533 0.08830756 -0.02287432 -0.088134944 0.1546584
-0.067101546 -0.04269956 0.11821781 0.16858977 -0.29686204 -0.02285186 -0.10864749 0.046800103

decoder.4.weight f4 [128, 128]
00000000: 00dc 09be b716 bb3c 0dc5 b13d 9509 86bc
00000010: 91f5 33be 42ea 4ebc 4c42 6b3c dd61 753e
00000020: 346f 56be 3fac 0f3d 5b93 8c3c 1baf 7fbd
00000030: 2284 35be 6b97 b13e ab36 1e3d 69f7 8fbc
00000040: 5400 18bd 9d4a 9c3c 391f 7abd b63a 253d
00000050: ecd0 a5be ce75 4ebd 4a64 05be c573 0fbe
00000060: a988 9ebd 0a6a a6be 3390 01bd 19ec 943d
00000070: 69b9 893d 208d 7e3d 29ae cfbd b036 853d
00000080: 6cd0 fbbc 1350 803c 70d4 d2bc c991 07bc
00000090: dc2f b93c e62b 43bd 3b7b 1abc 60e9 67be
000000a0: 509d fdbc 82b7 743d f6fe a5bd 106e 5bbd
000000b0: d93c 163d 130b 7dbd 7554 81bc 5398 043c
000000c0: 08ef 81bd d7a7 183d 3747 12bc 065d cb3c
000000d0: d9ab 1bbd ee9e 443d 7a87 81bd 0691 8b3e
000000e0: ebaa 15be ef08 8d3d fb36 a03c 69ae c33d
000000f0: 5cc7 35bd d63e 93bd 36df 813d 3794 3abc
00000100: 2ff4 223d 4fee 793d 082f 2ebe 111c 96bd
00000110: 5787 bebd 9613 9cbc 51a5 07be 6dad 02be
00000120: db84 c73d fa34 cabe f756 34be 38c4 a0bd
00000130: 48b9 333d 51fb a83c 95fa 67be 3f84 e8bc
00000140: 3b44 5bbd 62ce a3bd 054a 84bd c728 56bd
00000150: c30f 6a3d 9626 5c3e 2928 46bd cb27 3fbd
00000160: e0de 943d ba2d 88bd 700e 16bc 3a94 0cbd
00000170: 1658 eebc ba2c 563d 3e40 ab3d d8ad b8bc
00000180: c294 b6bc 650e 583c 33e2 913d 0890 563d
00000190: d9fa 623d 28b2 1bbe 6504 58bd bb77 92bc
000001a0: f987 3fbd ba40 823e a211 3bbd ba43 42bc
000001b0: cdad c0be 4189 a23c 6a40 133d 03ef a83d
000001c0: 7322 9c3c 7775 203d adaa 82be e219 bc3d
000001d0: 604b adbd 6277 613e 2482 6c3d b08c 56be
000001e0: e416 80bd 3cac adbb d036 3fbc bd7f d7be
000001f0: fee2 2b3b 381d b93d 6cc8 5abd 5ece bbbd
00000200: 4f2c a23e 85d1 3abd d3a5 a9bd f84e 45bd
00000210: 3508 84bd 666f 93bc 0a7d 85bb 972e acbd
00000220: 4784 e9bd b132 943d 44aa 9bbc c5fb 5dbf
00000230: 9cd5 62bd a6bc c73d 9921 1ebc 97e7 243d
00000240: 61f2 b63d 6635 98bd b870 d4bc 76d8 cbbc
00000250: eea7 df3d cc95 39bc 26e7 3cbc 905d cb3d
00000260: 5674 bc3d 8816 54be 27ee 413d cd1f 5f3c
00000270: d5e7 a33d 1240 183e 104f e4bf 2b25 873d
00000280: 1e38 2bbd 6f8c 21be 1857 febc ceed 8dbd
00000290: 8080 eabc 91a6 62bc e030 07bc 3d65 bb3d
000002a0: 0ffe 6fbd 03e1 fdbb d7fe 923d 2ec3 a7bd
000002b0: a5f2 c23c 947d a43d cba0 87bd 241a d0bd
000002c0: 84a6 aa3d e971 6abc 9645 783d b17c d6bb
000002d0: ca28 043d 4fca be3d 49b5 803d c376 49be
000002e0: 7e35 963d 01ea a03c 1567 e83c 6fe0 033d
000002f0: 24ac 61bd 5d39 af3d 3d90 d4bd 34c3 cbbb
00000300: da47 043d b8d0 f83c ca4c 783d 04e0 963d
00000310: e657 e8bd cd3c 14bb 3f04 c33d 7412 d9bc
00000320: f922 86bd d27e 8f3e b456 e93c 257d a93d
00000330: 85bf 863c 3cbc 68be e8b7 5fbd 9745 ea3b
00000340: 3d49 963d 14a5 00bc ba9f 893d f68b ccbc
00000350: 4335 e23c 96c6 a43d 9241 703d 0a48 71bb
00000360: 5570 8fba 8ca5 83bc cf55 0f3c 60f5 3ebb
00000370: 9063 883c a9bc d0bc f6e8 abbd 8e6f 65bd
00000380: 4081 97bc 5251 9ebd 9c58 68bd 7332 95bd
00000390: 7f63 57bd c105 173f ab6b 49bc b0ee 033d
000003a0: 05cc 043d bc47 613d 00ca ab3d 29a4 743d
000003b0: e962 7b3d f2f4 cbbd 2912 2fbc cf44 2e3e
000003c0: 7f3d 94bc 0773 42bc 0f34 0a3d 353a 1f3d
000003d0: 617e 563d f1e6 65bd c6da 1a3d a909 babe
000003e0: 08bd 7b3d 524e 573d c423 03be 37e2 053f
000003f0: 0e0e cf3c e276 b4bc 4d65 b83c 913d 2f3b
-0.1346283 0.02283798 0.086801626 -0.016361991 -0.17574145 -0.012629094 0.014359068 0.23963113
-0.20940858 0.035076376 0.017160108 -0.062422853 -0.17726186 0.34685835 0.038626354 -0.017574029
-0.037109688 0.019078547 -0.061064932 0.040339194 -0.32385957 -0.050405316 -0.13026538 -0.14009006
-0.077409096 -0.32502776 -0.03163166 0.072715946 0.06724817 0.062146306 -0.1014064 0.065045714
-0.030739032 0.015663182 -0.025736064 -0.008274504 0.022605829 -0.047649287 -0.0094287945 -0.22647619
-0.030958802 0.05974532 -0.081052706 -0.05357176 0.036679123 -0.06177814 -0.015787343 0.008092958
-0.0634442 0.03726944 -0.008928112 0.02482463 -0.038005684 0.04800313 -0.06324668 0.27259082
-0.14615981 0.068864696 0.019557467 0.095547505 -0.044379577 -0.071897194 0.06341402 -0.011387876
0.039783653 0.061018284 -0.17010128 -0.07329572 -0.09303158 -0.019052308 -0.13246657 -0.12761469
0.09742137 -0.39493543 -0.176113 -0.07849926 0.04387787 0.02062765 -0.22654183 -0.028383372
-0.053531867 -0.07998349 -0.064594306 -0.052284982 0.057143938 0.21499094 -0.048378143 -0.04666881
0.072690725 -0.06649347 -0.009158716 -0.034321047 -0.029094737 0.05228875 0.083618626 -0.022543833
-0.02228773 0.013187026 0.07123222 0.052383453 0.05541501 -0.1520468 -0.052738566 -0.017879358
-0.046760533 0.25440007 -0.045671113 -0.011856968 -0.376326 0.019840838 0.035950102 0.08248713
0.019059395 0.039174523 -0.2552084 0.09184624 -0.08461642 0.22018197 0.0577413 -0.20952106
-0.06254366 -0.005300073 -0.011670783 -0.42089644 0.0026227827 0.09038776 -0.053413793 -0.09170221
0.3167443 -0.04560997 -0.082835816 -0.048171014 -0.06446878 -0.017997455 -0.0040737437 -0.08407324
-0.11402183 0.07236231 -0.019002087 -0.86712295 -0.055379495 0.09752779 -0.009651565 0.040259924
0.08932949 -0.0743206 -0.025932655 -0.02488349 0.10920702 -0.011327218 -0.011529719 0.09929955
0.09201877 -0.2071172 0.04734626 0.013618422 0.08003203 0.14868191 -1.7836628 0.06598886
-0.041801564 -0.15776227 -0.031047389 -0.06930123 -0.028625727 -0.013833658 -0.008251399 0.09150169
-0.0585919 -0.0077477708 0.07177513 -0.081915244 0.023797343 0.080317646 -0.06622466 -0.10161236
0.083325416 -0.014309385 0.060613237 -0.006545626 0.032265462 0.09315931 0.062845774 -0.1967421
0.073344216 0.019642832 0.028369466 0.03219646 -0.055095807 0.08555863 -0.10379074 -0.0062183384
0.032295085 0.030372962 0.060620107 0.07366946 -0.1134489 -0.0022619248 0.09522294 -0.026498057
-0.06549639 0.28026444 0.028483726 0.082758226 0.016448746 -0.22728056 -0.054618746 0.007149409
0.07338188 -0.007851858 0.067199185 -0.024969082 0.027613288 0.0804569 0.058656283 -0.003681662
-0.0010943512 -0.01607015 0.008748486 -0.0029137954 0.016649038 -0.025480585 -0.08394043 -0.05601459
-0.018494248 -0.07730354 -0.05672513 -0.07285013 -0.05258512 0.58993155 -0.012293736 0.032210052
0.03242113 0.05500005 0.08388138 0.059726868 0.061373625 -0.09958829 -0.010685482 0.17018436
-0.01809573 -0.011868245 0.033741053 0.03887387 0.052366618 -0.056128446 0.037806295 -0.36335495
0.06145957 0.052564926 -0.12806612 0.522983 0.025275256 -0.022029344 0.022509241 0.0026739577

decoder.4.bias f4 [128]
00000000: d31f 313e de3a c63e ae23 dc3d 4162 debd
00000010: 49d1 e73d 85d0 e2bb efe4 da3c 7a48 9cbd
00000020: d94d eb3e e068 9bbd c91f d73e f29c 093e
00000030: 4086 d9bd 9dc1 643d 791c 87bd 7c45 08be
00000040: 30ce a43e 0939 d9bd c255 00be ac28 973e
00000050: 7b5f e5bd a809 fb3e 4ed1 05bd e055 0d3f
00000060: bf5f 043f 9e36 583d 04bb c53d 04f3 dabd
00000070: 6afe e43d a9c7 85bd 54e4 39bd 6a65 3bbe
00000080: a619 653e df15 bebd 4e1e a6bd 3c0d e43c
00000090: 4012 bebd e3a0 8d3e 5bce febd cf63 7c3e
000000a0: 781d 27bd cda7 1f3e 54b2 ddbd f153 e23d
000000b0: 8a4b 47be e6ce 20be f644 3e3c 97f5 b63e
000000c0: 7ca3 6a3e 4d38 db3e 3286 583d 4b98 0dbd
000000d0: bd95 4dbc 618e 8ebd 7f8a cabc b705 09be
000000e0: c3c6 463e a9c5 993e 654f 093e 2780 c83e
000000f0: 78c0 223e 9f45 35bd 2e50 e1bd 3da8 e93e
00000100: 05ef 29be a6eb 6f3d 8018 e0bd 9fc7 903e
00000110: 79ff 09be 1a16 963e 4355 9f3b 821b 89bd
00000120: f2ad a6bd 59fe 5839 0f7c 9c3c 1c8d f63b
00000130: 447e b6bd 1822 15be 3a83 eabd 5da8 8b3e
00000140: 27b1 b93e 9457 66bc 3a02 bebc 2a08 14bd
00000150: f517 bdbd d10a 5b3d d2cc 143e 19bb 313e
00000160: 63c8 dc3e 75f4 1739 f179 05be 7579 013f
00000170: a5c9 3dbd 531b 863d 96f3 af3e b1b4 2a3e
00000180: f754 cd3e 92de 383e e251 8e3e bdc1 ff3d
00000190: 9394 ff3e d15e 623e d074 34be 78a5 f43c
000001a0: 3237 013f 755f 5ebd 4ca4 f73c 2f2f 983e
000001b0: 15b4 cd3e 0c02 bf3d 44c8 e2bb a06a d93c
000001c0: 8d23 e6bd beee 31bd 55bb 39b7 abaa d93e
000001d0: a7f1 c03d d422 9f3c 586a d1bb 54c2 18bd
000001e0: 0b9d 3fbd 86f4 c63b 07cb 9ebc 9c64 813e
000001f0: 4814 b8bd 4637 053f 6494 e6bd 93d3 5dbd
0.17297296 0.38716787 0.10748993 -0.10858584 0.11319215 -0.00692183 0.026720492 -0.07631011
0.4595783 -0.07588363 0.42016438 0.13438776 -0.10621309 0.055848707 -0.065972276 -0.13307756
0.3218856 -0.10606582 -0.12532714 0.29523218 -0.11199852 0.49030805 -0.03267031 0.5520916
0.51708597 0.052786462 0.09654811 -0.10690883 0.11181338 -0.06532223 -0.045383766 -0.18300405
0.22373065 -0.09281515 -0.08111249 0.027838342 -0.09280825 0.2766181 -0.12441703 0.24647449
-0.040799588 0.15591355 -0.10825029 0.11051167 -0.1946241 -0.15703925 0.011613121 0.35734245
0.22913927 0.42816392 0.052862354 -0.034569066 -0.012547907 -0.0696075 -0.024724243 -0.13381086
0.19411759 0.30033615 0.13409193 0.39160272 0.15893734 -0.04425585 -0.11001621 0.45636168
-0.16595085 0.05857434 -0.10942173 0.282773 -0.13476361 0.29313737 0.004862459 -0.066947
-0.08138646 0.00020694117 0.019102124 0.0075241458 -0.08910802 -0.14563787 -0.11450811 0.27276888
0.3626797 -0.014058966 -0.023194421 -0.0361406 -0.09233085 0.053477112 0.14531258 0.17356528
0.43121633 0.0001449155 -0.13034798 0.50575954 -0.04633488 0.065481804 0.3436553 0.16670491
0.40103886 0.18053654 0.27796847 0.124881245 0.4991804 0.22106482 -0.17622685 0.029864058
0.50474846 -0.054290254 0.03022971 0.29723498 0.40176454 0.09326562 -0.006920846 0.0265401
-0.112372495 -0.043440573 -1.1070476e-05 0.42513022 0.094210915 0.019425787 -0.006390851 -0.0372947
-0.046780627 0.00607163 -0.01938392 0.2527207 -0.08988243 0.52037466 -0.11258772 -0.05415685

decoder.6.weight f4 [3, 128]
00000000: b095 05be 2d20 993d 17c0 b33c 7c04 2ebd
00000010: 5237 da3c bb00 bc3b bf6d 2c3d b0b7 c73c
00000020: 52d2 1c3d 45fc a53c 39b4 083e 7468 f33e
00000030: c85d e03c 1634 083c f4f8 433d 0cd5 57bc
00000040: d25d a53e 85c5 373c e107 763d 5ae1 3ebb
00000050: 7113 213b acb2 583d 5cde 813b c316 c13c
00000060: 35a0 5bbd c322 1b3c ff83 07bd 15cd 5dbd
00000070: af15 4c3e 404f 603d ec79 853d 2dfb 1abe
00000080: 4d72 fabd a817 483c 7077 bbbc c14f 723d
00000090: 1694 39bc 7bef f7bd e9a1 c7bd a6cd 89bb
000000a0: a5d5 853c ddb3 78be d210 3e3d 525d edb9
000000b0: 9e77 7cbe 9d05 273d fedd 923c ccdf 3f3d
000000c0: 4154 6d3e 42f7 90bd 4f71 b7bb 4281 97bd
000000d0: 7f0d 2a3d 7aaa bb3c f512 3cbd 72b6 c8bb
000000e0: 281e 1cbc dd10 28bc 36b6 cc3c e04c 0b3e
000000f0: 98df 34be 9a11 bd3b f2a9 12bd 4ca8 6b3d
00000100: e3a8 243c d49b 5f3e 3b46 24bc 2c2f 3fbe
00000110: fcc8 04bd 046c f8bc 732f 45bd ea26 5e3d
00000120: 0b3a 5e3d d81f babc fab3 ccbc 6c2b f83c
00000130: ac79 b8bd 4eb5 203d 39b9 64bc d37e cf3b
00000140: 67e5 d93d 581a bb3d 3234 623d b945 fa3a
00000150: 787c 57bd d495 8b3d e8fa 04bd 0423 9fbb
00000160: 27e3 1f3e 63d3 c6bc 55bf 003c bcb9 b13d
00000170: 9884 50be 7590 81be c052 1ebd a072 2b3c
00000180: 1925 9d3c f00c 303d 570d 3fbb c5da e33c
00000190: 6b7a 2bbe 4e1c 9cbd bc24 df3c 0e9b ec3b
000001a0: 7f3f c83d 33e3 323c 0356 25be 594a 5fbe
000001b0: d6d3 94bd f595 d03c c3ca 8bbc 047f 353d
000001c0: d559 80bd a0f0 0cbd 5b39 213d 694f 5f3d
000001d0: 4c76 0b3d 9dc3 45bd cdc4 a1bd 72a6 40be
000001e0: f043 09bd 57ad 083e 2a9c af3b 5830 35be
000001f0: da28 2fbc d31b ee3c 0053 dc3d a571 9cbd
00000200: f558 2dbc 042d 873d b49e 66bc 605b f2ba
00000210: d079 83bc 7ad2 afbc 8cea 5a3d edf3 4cbe
00000220: 47fa 643e bb20 8cbe 8fbc 373d 25f0 3c3f
00000230: fc40 d9bc b1f7 fa3b 9118 66bd 3fca 7e3d
00000240: 0721 b93e c979 8e3c 2366 ce3c ffe5 8c3d
00000250: e4ac efbc 5d88 49bd 532b b13b 2094 16bd
00000260: a75a c33c 7948 653c 688e 6ab9 7de2 a9bc
00000270: b6c9 29be 6d40 c0bc 57dc da3c 8be6 79bf
00000280: 8036 003e db96 1dbc e561 9cbd 44e0 5dbb
00000290: 3077 02bc 8c52 8dbd f2d5 68be 7b5b f73b
000002a0: 11b6 c8bc 4936 8c3e 234e b8bc 2e69 293b
000002b0: a782 2c3e 8a36 343a dd41 30bd 7f7d 1ebd
000002c0: 5268 1b3d 0b28 223d ec64 22bd 4d87 4abd
000002d0: 3371 433c b9f6 c33c 7b9d 1ebd 2f91 9c3d
000002e0: 1fc6 b43b 0740 303a 958d 62bd eadf 403e
000002f0: 17c5 afbe 397d ef3b d432 afbc 4942 943d
00000300: 0bc6 34bc 198f 16be 7b91 20bd f118 b1bd
00000310: 84be d23c b946 cdbd a684 69bd 06b2 833d
00000320: 35c6 86bc 0799 233d 4749 c33c c46e 37bd
00000330: 23df a53d 36ea e43b 2cff 4e3c d6f9 a5bc
00000340: 9ee5 f5bc d8d4 a2bc 9978 d039 bc99 d63b
00000350: b43b b63a e805 e0bc 7cf0 5fbb 468c 8dbb
00000360: d662 8d3d 2dce 723d cf75 6e3e 683d fabc
00000370: 2978 b13d 1ad6 b6be 85f4 4f3c c160 0c3f
00000380: 00f3 40bd 8da8 5e3d 0ae8 3fb9 1a99 e2bc
00000390: c32a 18bc b8de 053e 3d33 8bbc ba7c f8bb
000003a0: b669 fc3c d79f f9bc e3db a73d c3c0 35be
000003b0: 8046 d3bd c495 1bbc 1646 8f3c 3bc1 2ebd
000003c0: ad72 5bbd 52dd 283d bbe2 3fb9 71c1 873d
000003d0: 7966 013d c6e3 95bd 0920 493d 83a7 823e
000003e0: dc27 093e 5ec9 bcbd 4447 863d a3ed 0abf
000003f0: c183 15bd 134e 0a3d 7fed cc3c ad18 333d
-0.13045382 0.0747684 0.021942182 -0.042484745 0.026637707 0.0057373918 0.04209685 0.024379581
0.038286515 0.020261893 0.1335 0.4754063 0.027388468 0.0083131995 0.047844842 -0.013173353
0.32298142 0.011216526 0.060066108 -0.002912602 0.0024578238 0.05290477 0.003963275 0.023570424
-0.053619582 0.009468737 -0.033084866 -0.05415066 0.19930147 0.05476308 0.065173954 -0.15134878
-0.122288324 0.012212671 -0.0228841 0.05915809 -0.01132681 -0.12106224 -0.09747679 -0.0042054234
0.016337225 -0.24287362 0.04640276 -0.00045273692 -0.24655005 0.040776838 0.01792812 0.04684429
0.23176672 -0.07078411 -0.0055982242 -0.07397701 0.041516777 0.022908438 -0.045916516 -0.006125265
-0.009528674 -0.010257927 0.024989229 0.13603544 -0.17663419 0.0057699205 -0.035806604 0.057533547
0.010050031 0.21836787 -0.01002651 -0.18670338 -0.032418236 -0.030324943 -0.048140954 0.05423633
0.054254573 -0.022720262 -0.024988163 0.030294143 -0.09007582 0.039235406 -0.013960176 0.0063322573
0.10639458 0.09135884 0.05522556 0.0019094265 -0.052608937 0.06815687 -0.032465845 -0.004856469
0.15613995 -0.024270719 0.007858117 0.08678004 -0.2036308 -0.25305524 -0.038653135 0.01046434
0.019182729 0.04298109 -0.0029152238 0.027814278 -0.16745917 -0.07622586 0.027239196 0.0072206324
0.09777736 0.010918426 -0.16146092 -0.21805705 -0.07266967 0.02546213 -0.017064458 0.044310585
-0.06267134 -0.034409165 0.03936134 0.05451909 0.034048364 -0.048282254 -0.07898865 -0.18813494
-0.033512056 0.13347374 0.0053591924 -0.17694223 -0.010690892 0.029066002 0.107580185 -0.076388635
-0.010580291 0.06600383 -0.014075924 -0.0018490367 -0.016049296 -0.021462668 0.053446338 -0.20014925
0.22361098 -0.2736872 0.044857558 0.7380393 -0.026520245 0.0076589216 -0.056175772 0.062204596
0.3615801 0.017392056 0.025195187 0.06879806 -0.029257245 -0.04920231 0.005406776 -0.036762357
0.023846937 0.01399433 -0.0002236903 -0.02073788 -0.16580853 -0.02346822 0.026716394 -0.97617406
0.1252079 -0.009618486 -0.076358594 -0.0033855597 -0.007962987 -0.0690051 -0.22737864 0.007548747
-0.024500879 0.27385166 -0.022498196 0.0025850045 0.16846715 0.0006874582 -0.043031562 -0.0386939
0.037941284 0.03958897 -0.039647028 -0.04944544 0.011928844 0.023921357 -0.038724404 0.07644879
0.005516782 0.0006723408 -0.055310804 0.18835416 -0.34330055 0.007308629 -0.021386541 0.072392054
-0.011033545 -0.14703025 -0.03920124 -0.08647335 0.02572561 -0.10023255 -0.05701127 0.0643044
-0.016451934 0.03994086 0.023838652 -0.04478337 0.080992006 0.006985928 0.01263408 -0.020260733
-0.030016717 -0.019876882 0.00039762704 0.0065490883 0.0013903291 -0.027346566 -0.003417044 -0.0043197004
0.06903617 0.059278656 0.23287128 -0.030546859 0.08665497 -0.35710222 0.012692575 0.54835135
-0.047106743 0.05435996 -0.00018301621 -0.027660895 -0.009287539 0.13073242 -0.016992206 -0.007583228
0.030812126 -0.030471725 0.08196237 -0.17749314 -0.10316181 -0.009496156 0.017489474 -0.042664748
-0.05357616 0.041226692 -0.00018299643 0.06628693 0.031591866 -0.07318835 0.049102817 0.25518426
0.13394111 -0.09218095 0.065565616 -0.54268855 -0.036502603 0.033765864 0.02501559 0.043724705

decoder.6.bias f4 [3]
00000000: dff1 98bd 5370 013e 9804 343f
-0.07468008 0.12640505 0.7031951
