leslie_map_3d/experiments/learning/sweeps/sweep_005/morals_shallow/run_02/models/latent_dynamics.pt (torch, 3309 bytes, 4 tensors)

dynamics.0.weight f4 [32, 2]
0	0x3fbbf738	1.468482
1	0xbf509cfc	-0.8148954
2	0x3f05fd57	0.5233969
3	0xbef376de	-0.47551626
4	0xbed36d09	-0.41294125
5	0xbe764ffa	-0.24053946
6	0xbf3eeeab	-0.7458293
7	0xbf596511	-0.8491984
8	0xbe202eac	-0.15642804
9	0x3f0bfd2a	0.5468317
10	0x3e1f9b31	0.15586545
11	0xbec37a8d	-0.38179436
12	0x3e26d0be	0.16290566
13	0x3e4b2cda	0.19841328
14	0xbda82a8f	-0.082112424
15	0x3e5d8df6	0.21636185
16	0x3d3bdfb1	0.045867626
17	0x3f0be4db	0.5464608
18	0x3e86fa5e	0.2636289
19	0xbd909279	-0.070591874
20	0x3d730083	0.05932666
21	0x3eaee510	0.34159136
22	0x3fada7d0	1.3566837
23	0xbf4e3fbc	-0.80566
24	0x3d89da98	0.067311466
25	0xbe8f27e8	-0.27960134
26	0x3f020495	0.5078824
27	0x3ec8ee13	0.39244136
28	0x3e9b9222	0.30384928
29	0x3ef1fc3e	0.47262758
30	0x3dae9102	0.08523752
31	0x3f54296d	0.8287571
32	0x3ea7b911	0.32758382
33	0x3f5ed1a9	0.87038666
34	0xbf854715	-1.0412318
35	0x3f4aad6f	0.7917089
36	0xbfac84f9	-1.347808
37	0x3f3f1e19	0.746553
38	0x3f9fa5bd	1.2472454
39	0xbd8fe338	-0.070257604
40	0xbf812881	-1.0090486
41	0x3d76077f	0.060065743
42	0xbdbcef2b	-0.09225305
43	0x3ea5ea83	0.3240548
44	0xbf8dd6aa	-1.1081135
45	0x3f102123	0.5630056
46	0x3db38a40	0.087666035
47	0xbd9e6449	-0.077339716
48	0x3f94695c	1.1594653
49	0x3cd1c6e5	0.025607536
50	0xbfdb8ae9	-1.7151767
51	0xbe973467	-0.29532167
52	0x3f99afa8	1.2006731
53	0xbee5052f	-0.44730517
54	0xbe1fd141	-0.15607168
55	0xbe0c3384	-0.13691527
56	0x3ea6a943	0.3255101
57	0xbefc9668	-0.493335
58	0xbe54f584	-0.20796782
59	0xbeb1706b	-0.3465608
60	0xbe35d450	-0.17756772
61	0x3fa371cd	1.2769104
62	0xbf32a312	-0.69780076
63	0xbc157d07	-0.009124047

dynamics.0.bias f4 [32]
0	0xbbb581f4	-0.0055391733
1	0xbf2ab4f7	-0.6668238
2	0x3eea01bc	0.45704448
3	0x3e8bcb89	0.27303723
4	0x3f1b86cf	0.60752577
5	0x3e554d8e	0.20830366
6	0xbecd8c58	-0.40146136
7	0xbeaf30ca	-0.3421691
8	0x3ece7c8e	0.40329403
9	0x3de2cabe	0.11073826
10	0xbf28bdba	-0.659145
11	0xbd0ccd66	-0.03437557
12	0xbe8e4208	-0.27784753
13	0x3ed7a5e8	0.42118764
14	0xbf1d7c44	-0.6151774
15	0x3d0dd5e3	0.034627806
16	0x3dcc030b	0.09961518
17	0x3cdea66a	0.027178962
18	0x3ccb3180	0.024803877
19	0xbde8727f	-0.113499634
20	0x3c49f08a	0.012325415
21	0x3f1a518e	0.6028069
22	0x3c04fb5c	0.008116569
23	0xbe0b64fc	-0.13612741
24	0xbda172e0	-0.07883239
25	0x3e9e34d0	0.30899668
26	0xbd412103	-0.047150623
27	0x3e16a8e0	0.14712858
28	0x3f1175b8	0.5682025
29	0x3eba9165	0.36439052
30	0xbd232b24	-0.039836064
31	0x3df94dc6	0.12173037

dynamics.2.weight f4 [2, 32]
0	0x3ed0557d	0.40690222
1	0xbce89027	-0.02838905
2	0xbd7b57b2	-0.06136293
3	0x3e001e67	0.12511598
4	0xbdfbd1d6	-0.122958824
5	0x3e53f6bc	0.2069959
6	0xbcb7bc09	-0.02242853
7	0x3c7901ad	0.015198153
8	0xbe629ba9	-0.22129692
9	0x3d82b634	0.06382409
10	0xbe33e84d	-0.17569084
11	0xbf3bccd9	-0.7335945
12	0xbc909877	-0.017650826
13	0x3b67cb1f	0.0035368872
14	0x3c81b118	0.015831515
15	0xbee585b0	-0.44828558
16	0xbeb38370	-0.35061216
17	0x3f21fd5b	0.63277215
18	0xbf5129e0	-0.8170452
19	0x3e843045	0.25818077
20	0x3f26b4a3	0.6511938
21	0xbd6e24be	-0.05814051
22	0xbeeb63ba	-0.45974523
23	0x3daed532	0.085367575
24	0xbd4c6155	-0.04989751
25	0xbefe801a	-0.4970711
26	0x3f626e72	0.88449776
27	0x3cc4d85e	0.024028953
28	0x3d9137c1	0.07090712
29	0x3e262b32	0.16227415
30	0x3f1eacc2	0.6198236
31	0x3f44d6aa	0.7689005
32	0x3f2c4099	0.6728607
33	0xbc13255d	-0.008981076
34	0x3d971aba	0.073781446
35	0xbe20b936	-0.15695652
36	0xbdd13ed5	-0.102170624
37	0xbd49a48e	-0.049229197
38	0xbdda545c	-0.106606215
39	0x3de69bce	0.11260186
40	0xbd2b920c	-0.041887328
41	0xbd14199d	-0.03615724
42	0x3d702a94	0.058634356
43	0xbf4ff349	-0.812306
44	0xbd832e6f	-0.06405341
45	0x3e253f7a	0.16137496
46	0x3da7f089	0.08200175
47	0xbd7c2550	-0.06155902
48	0x3d9dc74d	0.07704029
49	0xbfc6e398	-1.5538206
50	0x3ef47acf	0.47749946
51	0x3f29c567	0.6631684
52	0x3bdb1cab	0.006686767
53	0xbd8691e0	-0.06570792
54	0x3f24cce7	0.64375156
55	0x3b1addb5	0.0023630683
56	0x3f24fd00	0.6444855
57	0x3d3a93ab	0.045550983
58	0x3f0d34b2	0.5515853
59	0x3dce8c5b	0.100853644
60	0x3d027739	0.03185198
61	0xbdd3d031	-0.10342444
62	0xbd963b09	-0.07335479
63	0xbe499706	-0.19686517

dynamics.2.bias f4 [2]
0	0x3e4b16c4	0.19832903
1	0x3da18780	0.07887173
