examples/multiple_run_001/sigmoid_activation/run_sigmoid_activation_001/models/decoder.pt (torch, 12493 bytes, 8 tensors)

decoder.0.weight f4 [32, 2]
000000 19 af 55 3f 18 f1 41 be d1 39 48 3d b8 b0 d1 bc
       0.834703 -0.18939626 0.048883263 -0.025596961
000010 07 43 27 3d ba c0 57 3e 79 82 4e 3e fb 0d e0 bd
       0.040835407 0.21069613 0.20166959 -0.109401666
000020 00 e2 a3 3e ba 1e 97 3e 33 65 2a 3d d5 2d e0 3c
       0.32008362 0.2951563 0.041600417 0.027365604
000030 77 bf 18 bf 50 f6 1e bf ac b0 25 bf be 01 e8 bd
       -0.5966715 -0.62094593 -0.64722705 -0.11328457
000040 e1 93 1d bf 7a c4 aa be 57 ab ad bc b6 d2 2e be
       -0.6155377 -0.33353025 -0.021199865 -0.17072567
000050 83 cf 83 be 7e 54 14 3f 18 00 4d be 75 73 87 3c
       -0.25744256 0.57941425 -0.20019567 0.016534546
000060 5b 6e be 3e 1f 22 d7 bd 1b 32 d4 be f5 f4 29 bf
       0.3719357 -0.10504555 -0.41444477 -0.663894
000070 74 76 2c be 83 1d c2 be 33 46 c8 3e 4f e5 e3 3e
       -0.16842061 -0.3791314 0.39116058 0.44510886
000080 22 5d d2 3e 3c a7 4a 3f 8e 02 75 3e 34 a7 08 bf
       0.4108668 0.7916143 0.23926756 -0.5338013
000090 2c e4 f8 3e 7d 4b 07 3f 57 e5 ba 3e 50 cb 07 bf
       0.4861158 0.5284956 0.36503097 -0.53044605
0000a0 31 59 7f bd f3 b6 59 be 12 f2 ef be 99 0e 58 3f
       -0.06234092 -0.21261196 -0.46864372 0.84397274
0000b0 37 28 1f bf b1 48 88 3e 0d 65 38 3f f3 30 a7 3d
       -0.6217074 0.2661796 0.7202919 0.08163633
0000c0 70 fa 17 3e 52 35 db 3e 21 b8 4d 3f dc 25 6a 3e
       0.14841628 0.42814118 0.80359083 0.22866005
0000d0 b0 f7 ec 3e 76 a6 f9 3e 70 30 25 3e 6b 08 ba be
       0.4628272 0.48759812 0.16131759 -0.36334547
0000e0 f3 23 15 bf be dd 1f 3f de f0 b9 be 86 c1 3c bf
       -0.5825798 0.62447727 -0.3631658 -0.73732793
0000f0 70 66 28 3e df 6c 4c 3f 23 d8 0d 3f 8c 7f 0d bf
       0.16445327 0.79853624 0.55407923 -0.55272746

decoder.0.bias f4 [32]
000000 f3 ef ed 3d e0 63 ec bd 52 61 e2 be 48 02 41 be
       0.11618032 -0.11542487 -0.44214875 -0.18848526
000010 8d 2a 0b 3e b1 64 db 3e c7 dd a0 3e ef a8 c1 be
       0.1359045 0.4285026 0.31419203 -0.378242
000020 ee f9 ca be 16 bd b9 be e9 0a e8 3e ff 76 41 bd
       -0.39643806 -0.36277074 0.45320824 -0.047232624
000030 fc 9f 25 3f d6 b6 6e 3e 83 a0 3d 3f a6 98 62 3e
       0.6469724 0.23311934 0.74073046 0.22128543
000040 97 f0 bd be ef 9c 12 3f 61 67 41 be 4b 26 b1 bd
       -0.37097618 0.5727071 -0.18887092 -0.08649882
000050 f9 77 9a be b9 44 5c 3e 1f d4 bb be 67 c8 03 3f
       -0.30169657 0.2151059 -0.36685273 0.51477665
000060 63 6f 12 3d ae 38 6b bd af f5 8f 3e b8 f8 83 3c
       0.035750758 -0.0574271 0.2811713 0.01610981
000070 76 67 e7 be 97 45 09 3f d8 03 b9 bd 4f ad 5e be
       -0.45196122 0.5362181 -0.09033936 -0.217458

decoder.2.weight f4 [32, 32]
000000 fb ea 63 3d ba 9e 2a be ae b4 04 be 2b df 0b be
       0.055644017 -0.16662112 -0.12959549 -0.1365935
000010 8b d1 a9 bd de 16 96 bd 18 3a 97 3d 9b c4 1a b8
       -0.0829192 -0.0732858 0.073841274 -3.6899564e-05
000020 79 b9 00 be 7d ed 0c be d7 56 dd bd 59 5b 5b bd
       -0.12570752 -0.1376247 -0.10807579 -0.053553913
000030 b4 9a d4 bd 06 5c 61 bd 5d 43 bf 3d ff bb e0 bd
       -0.1038107 -0.0550194 0.093390204 -0.109733574
000040 c3 f3 f9 3d dc de 33 3e f7 d6 86 bd 8c 06 ef bd
       0.12204697 0.17565483 -0.0658397 -0.116711706
000050 0a 3c 97 3d 50 42 57 3d fe a9 1e 3e 23 c5 af bc
       0.073844984 0.052553475 0.15494534 -0.021456307
000060 c1 fd bd 3d 78 e4 66 bb 72 22 ff bd 63 b0 fd bd
       0.09276915 -0.0035231393 -0.12457742 -0.12387159
000070 57 b8 16 bd 0b ea 97 bd 4d 4d 8e 3d bd 08 c0 3d
       -0.036796894 -0.07417687 0.06948338 0.09376667
000080 d3 52 57 3e 88 88 0c bb 2b a5 ef bd a7 2f ef 3d
       0.21027689 -0.0021443684 -0.11701425 0.11679011
000090 ab d5 91 3e ef f7 80 3e 86 cc 23 bc 1b e5 fc 3d
       0.28483328 0.25189158 -0.009997493 0.12348386
0000a0 31 26 13 be 32 ad 03 3a ff b8 49 3e 66 e5 e6 3c
       -0.14370038 0.00050230615 0.19699477 0.028185558
0000b0 36 f6 35 3e 82 43 ff 3d 48 72 3a 3e cd d5 38 3d
       0.17769703 0.12464048 0.18207657 0.04512577
0000c0 44 48 90 3e 68 c7 57 bd 49 7a 06 3e a1 c2 12 3e
       0.28180134 -0.052680403 0.13132586 0.14332058
0000d0 b9 39 5a 3d 75 90 aa 3e 40 13 ae 3d e7 b9 5e 3e
       0.053277705 0.33313337 0.084997654 0.21750604
0000e0 f4 9d 80 3e 88 6f 8d 3e d5 60 0d 3e cf 09 0f 3e
       0.2512051 0.27624154 0.1380647 0.13968585
0000f0 7a 57 b6 3d 43 ba a7 bd d1 0f 65 3e 5d d8 fa 3c
       0.089034036 -0.081898235 0.22369315 0.030620748
000100 fa 2b 7e 3e 0e bc 2d 3e 2f b4 c1 3d 9a 55 1a bd
       0.24821463 0.16966268 0.094581954 -0.037679292
000110 23 ec f9 3c 58 7e 89 3e 74 3c 68 3d 0d ea 08 be
       0.030508107 0.26854205 0.056698278 -0.13370533
000120 f2 1b 80 bd 47 71 2a 3e db a9 02 3e 50 6c 84 3d
       -0.0625533 0.16644774 0.12760107 0.064659715
000130 f6 06 47 3d 4f 74 66 3d 4f 34 94 3c aa 5d b1 3c
       0.048590623 0.056263264 0.018091349 0.021651108
000140 48 9b 4c 3e ff 4e 01 3e 5c 81 08 3d 77 0a ab bd
       0.1998111 0.12627791 0.03332649 -0.083516054
000150 00 fc 32 3e ae 1b 0d 3e 14 31 8d 3d b2 ba 4f 3e
       0.17478943 0.1378009 0.068941265 0.20286062
000160 11 c0 2f 3c 17 e5 7e bc 07 ea 5d 3d f9 10 11 bd
       0.010726945 -0.015557549 0.054178264 -0.035416577
000170 51 dc d5 bc 99 9f 02 be 29 19 8c 3e 44 64 4b 3e
       -0.026106032 -0.12756194 0.27362946 0.19862467
000180 78 c2 7a 3e c1 c4 2f 3e 7d 25 5d bd bb 0c 9e 3d
       0.24488246 0.171649 -0.05399083 0.07717272
000190 a0 9d d9 3c 1a 8a 1b 3e 15 0a e2 bb 1a 08 b4 bd
       0.02656442 0.151894 -0.0068981745 -0.08790608
0001a0 75 ef 26 bd a6 1e b1 bc f8 a4 c7 3d 24 c0 f9 bd
       -0.040755708 -0.02162106 0.09748262 -0.12194851
0001b0 e4 74 51 3e cf b4 f8 3d 4e cf 80 3b cd 84 1b 3e
       0.20454746 0.121438615 0.0039309626 0.15187378
0001c0 e7 32 96 3e 1c 92 c6 bc 0f 6b 3b 3e ab 23 8a 3d
       0.2933571 -0.024239592 0.18302558 0.067450844
0001d0 7f f2 c5 3d a8 f1 ea 3d f5 d5 02 be 5f d8 de bb
       0.09665393 0.114718735 -0.1277693 -0.006800696
0001e0 5d ea 6e 3e fd ac 6f 3d e8 2f 60 3e 99 6b 36 3e
       0.2333159 0.058514584 0.21893275 0.17814483
0001f0 83 76 a7 bd 66 55 24 3c d2 6b 56 3e 8b 43 9d 3d
       -0.08176901 0.010030126 0.20939568 0.076788984
000200 f8 ae eb 3d e4 68 96 3d 8c 29 10 be 91 e7 36 3d
       0.11507982 0.07344225 -0.14078349 0.044654433
000210 e5 4d 27 3e 17 9b 56 bd b6 68 39 bd 3c db ff 3d
       0.16338308 -0.052394 -0.045265876 0.124929875
000220 90 b1 65 3d 67 3c 29 3e 0c 28 40 3c 7b 1c 3e bc
       0.05607754 0.16526948 0.011728298 -0.01160347
000230 fb 1d 3e 3e 74 b3 a3 3d 17 34 23 3c 2e 7e 49 3c
       0.18566124 0.07993212 0.00996115 0.01229815
000240 6a 5b 48 3e 25 18 5a 3e e6 f2 9c 3c fe 7a 04 3e
       0.19566122 0.21298273 0.019158792 0.12937543
000250 92 17 9d 3d af 8b aa 3e d4 82 19 3d 1d 0f 33 3e
       0.07670511 0.33309695 0.037478283 0.17486234
000260 70 cb 87 3d 7a 28 80 3e 5e b7 91 3e b8 67 ac bd
       0.066305995 0.2503088 0.2846021 -0.0841822
000270 27 72 2f be f2 6e f1 bc f9 fc 32 3d 71 c9 ce bd
       -0.1713339 -0.029471848 0.043698285 -0.10097016
000280 a5 58 77 3d d8 40 87 bd 61 54 e1 bd 16 6f 26 bd
       0.060387272 -0.06604165 -0.11002422 -0.040633284
000290 f2 93 a0 bc 13 21 40 3e 2e c0 01 3e 59 28 16 be
       -0.019601796 0.18762617 0.12670967 -0.14663829
0002a0 a3 85 8a bd e4 96 f2 bd 57 d8 93 3e c6 f5 55 bd
       -0.067637704 -0.11845186 0.28875992 -0.05223634
0002b0 bd c9 cb 3a 79 cb 2e be c8 2f 9e bd ed f5 3a ba
       0.0015547794 -0.17069806 -0.07723957 -0.0007131983
0002c0 e8 c0 89 3e dd 2b 34 3e f8 8c 14 3e e4 61 0c be
       0.26904988 0.17594858 0.145069 -0.13709217
0002d0 7d 9e 1d be e5 16 5e 3e 27 e7 b6 bd dd 23 50 3e
       -0.1539249 0.21688421 -0.089308076 0.20326181
0002e0 83 67 18 3e d8 dc 34 3e 86 22 7e 3e a1 d2 51 3d
       0.14883237 0.1766237 0.24817857 0.051226262
0002f0 af 59 32 3d 46 c8 bc bd e9 5d 55 bc 70 7e 1d bc
       0.04354256 -0.092178866 -0.013022878 -0.009612665
000300 69 67 c2 3c bf 2b 90 bd e2 f5 d3 3d 00 24 0c 3e
       0.02373095 -0.07039594 0.10349633 0.13685608
000310 c2 95 f7 bd 4d bb 62 3d 3b 4f e7 3d a4 d6 13 be
       -0.12089111 0.055354405 0.11294409 -0.14437348
000320 77 0f cd bd a0 8e 05 3e 43 4b cc bd 88 61 4f bd
       -0.10012715 0.13042688 -0.099752925 -0.050630122
000330 5a cc dd bd be 14 a3 3d 40 51 8f 3c b1 8c 63 bd
       -0.108299926 0.07962941 0.017494798 -0.055554096
000340 2b a9 8a bd 90 41 ce bc bb 6e 15 be 1c 31 30 be
       -0.067705475 -0.025177747 -0.14593022 -0.17206234
000350 ce 76 a0 bd 28 1d ce 3d 3f 38 85 bc c8 67 86 bd
       -0.0783516 0.10064155 -0.016262172 -0.065627635
000360 04 2d 56 bd 86 18 03 3c 78 7c 26 3e 0e e6 fe bd
       -0.052289024 0.008001452 0.16258419 -0.12446223
000370 d6 6d 11 3e ad 51 90 bd 96 14 76 3d d0 66 ba 3d
       0.14202055 -0.070468284 0.060078226 0.09101641
000380 94 08 47 3e a6 13 0b be 6b fc ed bd cd 43 ba bd
       0.19436866 -0.13581714 -0.116204105 -0.09094963
000390 f4 a5 7c 3e b4 3a 72 3e 4a 1b 39 bc 3b 44 b2 3c
       0.24672681 0.23655206 -0.01129801 0.02176105
0003a0 4a 4b eb bd ff 1e 9f bd f6 06 09 3a ac 62 85 3c
       -0.114889696 -0.07769584 0.00052271725 0.016282402
0003b0 92 e1 b3 3d f5 15 8a bd 8f a2 40 3e 64 d8 40 3e
       0.087832585 -0.06742469 0.18812011 0.18832546
0003c0 3b 55 fd 3d 0d b0 64 bd ae 92 73 3d ec 32 41 3d
       0.12369772 -0.055831958 0.059466057 0.047167704
0003d0 bd 82 bb 3d 01 e4 a3 3e ed 36 1d bc e4 65 6e bd
       0.09155796 0.3200989 -0.009595615 -0.05820264
0003e0 f9 26 9f 3e 42 4b 13 3e be 3f 82 3e 82 53 bd bd
       0.3108442 0.14384177 0.25439256 -0.092444435
0003f0 76 bc 00 3e aa 30 e2 bd c0 f0 8a 3e bd ca 80 bc
       0.12571892 -0.11044438 0.27136803 -0.015721673

decoder.2.bias f4 [32]
000000 c1 a0 1a be 48 49 34 3e 5c 36 11 3e 97 1b 01 3e
       -0.15100385 0.1760608 0.14180893 0.12608181
000010 b6 64 34 3d 54 26 8c 3e 18 69 ca 3c 0a 1c d2 3d
       0.044041358 0.27372992 0.024708316 0.10259254
000020 ba 9d 5c 3e c7 35 e0 3c 6a b1 57 3e 79 ac 4b 3e
       0.21544543 0.027369393 0.21063772 0.19890012
000030 44 9c 32 be 90 c8 4c bd b2 fd 53 bb d3 06 4b bd
       -0.17442423 -0.04999596 -0.003234726 -0.049567055
000040 da 05 f5 bd 78 4f 1b bd 64 62 14 3e c3 10 39 3b
       -0.11964007 -0.037917584 0.14490658 0.002823875
000050 c8 a4 00 3e e9 53 55 bd ac 00 87 3e 48 53 79 3d
       0.12562859 -0.052081976 0.263677 0.06087044
000060 07 a9 bc 3d bb 97 17 3e 1c a1 6c 3e 7a dd 11 be
       0.09211927 0.14803974 0.23108333 -0.14244643
000070 9c fb ca bd 67 5c 43 bd 69 c4 c0 3b cf 97 83 3e
       -0.09911272 -0.047695544 0.005882789 0.25701758

decoder.4.weight f4 [32, 32]
000000 5b e9 f8 3d cc bd bc bc 47 29 4e 3d de 87 06 be
       0.12153884 -0.023039721 0.050332334 -0.13137767
000010 c1 a8 2f be c3 e7 11 3e 53 27 11 3e 9d fb 25 be
       -0.17154218 0.14248566 0.14175157 -0.16209264
000020 fd 9f 26 be cd 26 0b bd 0c 02 ae bc f8 a8 de bd
       -0.16271968 -0.03397255 -0.02124121 -0.10872072
000030 e7 c3 e1 bb c0 8c 08 3e 01 d0 17 3a 45 0f b9 bd
       -0.0068898085 0.13334942 0.0005791188 -0.090361156
000040 64 bf 2f bd 38 04 02 be 6a 88 f2 bd b4 9c 37 3d
       -0.042907134 -0.12696922 -0.11842425 0.044827178
000050 f1 f1 bd 3d 1b 81 fa bc 6e 38 60 3d 90 45 33 3e
       0.09274662 -0.03057914 0.054741316 0.17507005
000060 b4 81 32 3e 25 05 75 bc 23 18 01 3d db 14 2e 3e
       0.1743229 -0.01495484 0.03151716 0.17000143
000070 3d 4e 0c 3d ad d0 aa 3c b2 26 97 3d f9 65 9f 3d
       0.0342543 0.020851457 0.073804274 0.077831216
000080 b1 3b 7f 3d 75 0d e5 3c 00 44 64 3d 6b c2 0b 3e
       0.062312786 0.027960518 0.055728912 0.13648383
000090 26 74 80 3e ad bc 2c 3e 73 08 2e 3e fb d5 17 bd
       0.25088614 0.16868849 0.1699541 -0.037069302
0000a0 77 1e 69 3e 4c 62 ea bc 47 e7 07 3e 83 fc 3f 3e
       0.22765528 -0.028611325 0.13271819 0.1874867
0000b0 65 fd 14 3e dd 65 b6 bd 78 06 14 be c4 d8 b6 3d
       0.14549787 -0.08906148 -0.14455593 0.089280635
0000c0 bd 3e 30 bd 41 3f e6 3d 12 a1 73 3e aa bf 8f 3e
       -0.043028582 0.112425335 0.23791912 0.28075916
0000d0 b2 13 05 bd db 60 b4 3c db 0f 42 3e 8f b9 07 be
       -0.032489486 0.02201884 0.18951361 -0.13254379
0000e0 c9 63 f3 bc f7 db b3 3c 36 9c 2b 3e 8f ba 3e 3e
       -0.029710667 0.021955473 0.16758808 0.18625854
0000f0 76 98 65 bd fc 50 db bc 14 54 3f 3e df d8 7f 3e
       -0.0560536 -0.026772015 0.18684417 0.24985074
000100 dd 0a 05 be 99 de 64 3e 47 c4 87 3d 95 dd 80 3e
       -0.12992425 0.2235054 0.06629234 0.25169054
000110 57 17 29 3d 5a 62 8b 3e 99 4c dd 3d f2 8f bb 3d
       0.041282024 0.27223474 0.108056255 0.09158315
000120 a8 13 b5 3c 7b d8 ce bd e7 63 ed 3c 68 c1 16 bd
       0.0221041 -0.10099884 0.028978301 -0.03680554
000130 66 bc c2 3d f0 2a 9f 3d f5 8e e8 3d 46 c7 52 bd
       0.095085904 0.077718616 0.11355392 -0.051459573
000140 ff 6f e2 3d 72 1c 59 3e 68 7b 59 3e 64 53 8e bc
       0.11056518 0.21202257 0.21238482 -0.017373748
000150 c4 77 12 3e 2e 89 d0 3d 44 82 51 3e 33 67 19 be
       0.143035 0.10182415 0.20459849 -0.14980774
000160 8c 78 15 3e e7 92 84 3d 28 9f 84 3e 6a e9 08 be
       0.14596766 0.06473332 0.25902677 -0.1337029
000170 7f 4f 15 3d 86 5a 2e 3e 89 e3 17 3e 95 bd 84 bc
       0.036452767 0.1702672 0.14832892 -0.016203681
000180 e8 11 01 bd cf 64 8b 3d 48 0d 0a bc 14 f0 4b 3d
       -0.031511217 0.06806337 -0.008426018 0.049789503
000190 35 09 89 3d 3f 39 9f 3d 4e 8f ed bd 22 1f 8f 3e
       0.06691209 0.07774591 -0.11599599 0.2795344
0001a0 bd d6 70 3e 97 aa 41 3e a4 66 e9 3d b6 e5 24 3e
       0.23519416 0.18912731 0.1139653 0.16103253
0001b0 1d aa 06 3e a1 90 d8 3d fd 78 73 bd 1b 3f 6c 3d
       0.1315083 0.10574461 -0.059441555 0.05767737
0001c0 eb 40 29 be 77 33 4c 3e 31 ad 31 3e 5f cf e7 3d
       -0.1652867 0.19941507 0.17351224 0.1131885
0001d0 0d e4 b1 3d 85 3d 41 3d 14 0b 22 3e 3c 2d 01 3e
       0.08686075 0.04717781 0.15824538 0.12614912
0001e0 af a3 8d 3e 14 6d 5e 3d f5 d4 ef 3d fb 8d f9 3d
       0.27663943 0.054303244 0.1171054 0.12185284
0001f0 f4 85 52 3d 32 22 e7 3d 0d e0 70 bd 91 cf 78 3e
       0.05139728 0.11285819 -0.05880742 0.2429793
000200 20 02 02 3e de 99 1a 3e a5 32 f8 3d 31 36 40 3e
       0.12696123 0.15097758 0.12119035 0.18770672
000210 0e a8 67 3e 81 b5 05 3e e7 0e fb bd 79 0d 1e 3e
       0.22622702 0.1305752 -0.12258702 0.15434827
000220 47 09 86 3e 2d c0 8c 3d df 41 5e 3d c0 25 66 3e
       0.26178953 0.06872592 0.05426204 0.22475338
000230 67 d9 09 be 88 4b e7 bc 19 6b 24 be f8 8e 33 be
       -0.13461839 -0.028234258 -0.1605648 -0.17535007
000240 bd 2c c7 bd 6e 18 d0 3e 58 fd 30 3c 7d 57 4e 3e
       -0.0972533 0.40643638 0.010802589 0.20150562
000250 90 73 80 3c a5 05 9e bd 01 51 88 3b 13 f8 26 bd
       0.015680104 -0.0771592 0.004160047 -0.040763926
000260 f8 fd 95 3e 68 d5 9b bd ee 49 0a 3e 44 42 84 3d
       0.29295325 -0.076090634 0.13504764 0.06457952
000270 7d 13 07 bd cd 4d 09 be 08 23 67 bd 86 80 3a 3e
       -0.03297757 -0.13408585 -0.056429893 0.1821309
000280 58 b0 2d 3e d4 71 79 3e 39 e0 77 bc 69 16 38 bb
       0.16961801 0.24359828 -0.015129142 -0.002808953
000290 88 9a e9 3d 7d 5b 5f bb be 72 2c be 77 01 24 3e
       0.114064276 -0.003408163 -0.16840646 0.16016184
0002a0 7d 92 88 3e 86 00 08 3e da 8e 82 3e 59 88 43 3e
       0.26674262 0.1328145 0.25499612 0.19094981
0002b0 33 47 5a 3d 6a e6 96 3d 13 ba 88 bd e6 c6 1b 3d
       0.053290557 0.07368167 -0.06676116 0.03803148
0002c0 53 9a d3 bd 5f 5b 38 3e 5b 01 4d 3d 21 c4 20 3e
       -0.103321694 0.18003605 0.05005012 0.15699817
0002d0 d7 f7 15 3e 5f 51 f4 bd 5c 3e 82 3e 9b 6f b5 bd
       0.14645325 -0.11929583 0.254382 -0.08859178
0002e0 22 95 63 3e ce 95 16 bd 6d 66 50 3e df 14 7d bd
       0.22224858 -0.03676396 0.20351572 -0.061787482
0002f0 eb ec fe 3c 55 83 83 bd 33 5a 2b 3d ad 25 4e 3e
       0.03111883 -0.06421534 0.041834068 0.2013156
000300 79 a6 1d bd 34 f7 78 bd b3 83 e1 3d 5f 98 8d bc
       -0.03848884 -0.060782626 0.11011448 -0.01728457
000310 67 68 e2 bd 40 b0 0e 3d e9 2a 98 3c 01 98 df bd
       -0.110550694 0.034836054 0.018575149 -0.10917664
000320 68 25 75 bc 63 e7 55 bd d4 a0 f3 bd 3a 6e 03 3e
       -0.014962532 -0.05222262 -0.1189591 0.12835017
000330 69 da 28 3c 49 4e cb bc 72 b7 be bd b9 2e c8 3c
       0.010305979 -0.024817603 -0.09312333 0.024436342
000340 ca 63 70 bd 5a fd af 3c 53 30 ca bd 96 db 12 be
       -0.058688916 0.021483112 -0.09872498 -0.14341578
000350 ec e6 8e 3d 4d d7 1e 3e 9a 1f e7 3c 98 6c d1 3d
       0.069776386 0.15511818 0.028213311 0.10225791
000360 6f bd 27 be 00 c7 3a bc 02 e0 ec bd 87 7a d7 bd
       -0.16380857 -0.011399984 -0.115661636 -0.10521417
000370 fd 30 98 bd ea f3 27 3e 4c e6 dd bd 56 4a 84 3d
       -0.07431219 0.1640164 -0.10834941 0.06459491
000380 43 18 b3 bd f7 41 4d 3e fd c3 73 3e 3c 69 62 3e
       -0.08744862 0.20044695 0.23805232 0.22110456
000390 d4 0d 25 bb c3 4f 18 3e 09 6a 2c be 85 d9 44 bd
       -0.0025185244 0.14874177 -0.16837324 -0.048059005
0003a0 f7 f1 2d 3e 76 b4 9f 3d 1e 8a a1 3e e7 5a 62 3e
       0.16986834 0.07798092 0.31550688 0.22104989
0003b0 bf 9c fc 3d 05 e9 16 bd f7 07 36 3e 3a 0b 22 3e
       0.123345844 -0.03684332 0.17776476 0.15824595
0003c0 d6 eb 0a 3e a5 33 56 3e ba f1 26 3e 36 30 8c 3e
       0.13566527 0.20918138 0.16303149 0.27380532
0003d0 82 40 28 3d 12 5e b4 b9 96 7e 97 bd 99 e1 f9 3d
       0.041077144 -0.00034402363 -0.07397191 0.122012325
0003e0 c4 33 1d 3e e9 3e 1d 3e 5d 91 97 bd af d5 d7 3a
       0.15351778 0.1535603 -0.07400773 0.0016466881
0003f0 9a cc c1 3c 50 7a 30 be ad bb fd 3d fa 80 63 3e
       0.023657132 -0.17234159 0.12389312 0.2221717

decoder.4.bias f4 [32]
000000 0e 17 be bd 1f f9 42 3e 29 39 d1 3d a8 84 1c 3e
       -0.09281741 0.19040345 0.102159806 0.1528498
000010 3b 57 71 bc 6e 00 b6 3d bd aa c3 3c d7 9d 00 be
       -0.01473027 0.08886801 0.023885125 -0.12560211
000020 d8 15 f5 3d 67 60 0a be da f5 79 3d 5d 83 aa bd
       0.11967057 -0.13513337 0.061025478 -0.08325837
000030 c7 41 cc 3d 87 8e fa 3d 47 87 25 3e 65 9b a4 bb
       0.099734835 0.12234216 0.16164885 -0.0050234073
000040 df b5 8d bd 36 86 c7 bd c1 09 33 be d9 1b 0a bd
       -0.06919455 -0.097423956 -0.1748419 -0.033717964
000050 3b c9 35 3e b8 85 18 be e5 74 9c 3d cb 55 19 3c
       0.17752545 -0.1489476 0.07639483 0.009358834
000060 06 53 03 3e 98 64 74 3e 10 b4 76 3e c0 06 42 3e
       0.1282464 0.23866498 0.24092126 0.18947887
000070 92 bb 5e 3e 33 6b 86 bd f3 9c 07 be 6e 00 49 3e
       0.2175124 -0.065634154 -0.13243465 0.1962907

decoder.6.weight f4 [3, 32]
000000 0f 14 79 ba 01 73 43 3e b6 c6 10 3e ca 85 4d 3e
       -0.0009501585 0.1908684 0.14138302 0.20070568
000010 72 e8 40 3d 25 c1 8d 3e 07 ab 17 be 15 9e 80 3e
       0.047096677 0.2768642 -0.14811336 0.25120607
000020 48 79 51 bd b2 4e 27 3d d3 31 8a 3e 56 7e 62 3e
       -0.051141053 0.040846534 0.26991138 0.22118506
000030 ea cc 73 3e d2 3e 90 3e 2b 0e 43 3e 76 8f 93 3e
       0.23808637 0.28172928 0.19048373 0.2882039
000040 ce 2b 12 be 8d 06 a4 bd 4f 91 d7 3d 12 15 80 bc
       -0.14274523 -0.08009062 0.10525762 -0.015635047
000050 64 f4 85 3e 4b 64 80 bc 0a 1a 84 3e 18 93 a3 bd
       0.26163018 -0.015672823 0.25801116 -0.0798704
000060 34 38 15 be 67 ae b3 3d 9e 5e 97 bc d0 3c 03 3e
       -0.14572221 0.08773499 -0.018477734 0.12816167
000070 c2 3e 23 3e 53 f1 46 bb e7 0c 30 3e 34 4f 22 3e
       0.15941909 -0.0030356243 0.17192422 0.15850526
000080 c5 52 32 bd d4 76 6d 3e a1 b4 87 3e 14 86 b2 3c
       -0.043535966 0.2318986 0.26504996 0.021792449
000090 fd 26 74 3e c2 29 10 3e b1 17 a1 3d 48 13 a2 3d
       0.23842998 0.1407843 0.07865847 0.07913834
0000a0 64 da 51 3e da c6 32 3e 89 75 d2 3d 61 29 40 3e
       0.20493466 0.17458668 0.10276324 0.18765785
0000b0 fe a6 7e 3e 73 f1 74 3d 25 3d 89 3e 87 28 2c 3e
       0.2486839 0.059800576 0.26804462 0.16812335
0000c0 ad 1f b7 3d 29 78 0e be d7 7a 29 3e b7 7e 09 be
       0.089415886 -0.13913025 0.16550766 -0.13427244
0000d0 b7 88 3a 3d 0a fa 6d bd 84 e5 df bc 4b 10 29 be
       0.045540538 -0.058099784 -0.027331121 -0.16510122
0000e0 91 78 00 be a8 88 82 3e 13 0d 92 3e 5a 5e 87 3e
       -0.12545992 0.25494885 0.285256 0.26439172
0000f0 31 bd 89 3e a4 3b 89 3e ad 24 16 bd de 6e e4 bb
       0.26902154 0.26803315 -0.03665607 -0.006971224
000100 4f d4 34 3e 75 c1 81 3d 75 a2 86 3e 52 9e 34 3e
       0.17659114 0.06335727 0.2629582 0.1763852
000110 fc da 72 3e 98 2f 6a bd eb b8 ab bc 05 c0 88 3d
       0.23716348 -0.057174295 -0.0209622 0.0667725
000120 e1 81 92 3e 06 d0 63 bd ad 4f 24 3e 84 6d 7c 3e
       0.28614715 -0.05561831 0.16046019 0.24651152
000130 ce 4c 12 3d 21 25 69 3d 4e a9 14 3e 0e 68 bd 3e
       0.035717778 0.056920175 0.1451771 0.3699345
000140 d4 ad f8 bd 86 e9 f6 3d 11 25 d9 3c 8f 27 9b bc
       -0.1214253 0.1205626 0.026506932 -0.018939761
000150 d4 d9 75 3e f0 d9 e0 bc 3f ab b9 3d 7d 57 20 be
       0.24008876 -0.02744767 0.09065866 -0.15658374
000160 f5 ae 02 3e 3b ee 86 3e 51 4c 64 3e 97 70 aa 3d
       0.12762053 0.2635363 0.22294737 0.08322256
000170 da f7 7d 3d c4 1f 18 3e 3b 8c 2b be d1 cc 66 3e
       0.062003948 0.14855868 -0.16752712 0.22539069

decoder.6.bias f4 [3]
000000 5f af 98 bd 52 a2 64 3e 76 3b 19 3e
       -0.074553244 0.22327545 0.14964089
