examples/multiple_run_001/tanh_activation/run_tanh_activation_006/models/latent_dynamics.pt (torch, 12925 bytes, 8 tensors)

dynamics.0.weight f4 [32, 2]
-0.3352908 -0.2982926 -0.43248427 -0.2593377 -0.31292045 -0.44084546 -0.4329982 -0.265911
0.81342536 -0.28033194 -0.40044138 0.104629375 -0.3029082 -0.07939868 -0.2970264 -0.2973813
-0.521799 0.30598137 0.56106716 0.103053145 0.37703368 0.05810463 0.21025099 0.18348816
0.0358142 0.16902867 -0.51485544 -0.11634489 0.046889827 0.48151508 0.2466039 0.22156674
0.024702352 0.61576545 0.25134295 0.13797548 0.7910468 -0.15555555 -0.64557874 -0.4118396
-0.0330286 -0.076247156 0.64781195 -0.7358982 -0.308876 0.5320245 -0.6418047 0.2847576
0.19273442 0.62597257 0.50711274 -0.7978528 0.11416665 -0.80987686 0.49163958 0.0985308
0.13214016 -0.46296322 0.38548014 -0.43962193 -0.14432482 0.62852925 -0.77909994 0.26317853
00000000: 3cab abbe cfb9 98be 946e ddbe e9c7 84be
00000010: 1c37 a0be 7fb6 e1be f1b1 ddbe 7d25 88be
00000020: a53c 503f ab87 8fbe a706 cdbe ed47 d63d
00000030: c916 9bbe c69b a2bd d813 98be 5d42 98be
00000040: 9f94 05bf 97a9 9c3e 19a2 0f3f 870d d33d
00000050: 8f0a c13e 1fff 6d3d 094c 573e 52e4 3b3e
00000060: e9b1 123d da15 2d3e 91cd 03bf 3b46 eebd
00000070: 8c0f 403d 2589 f63e bc85 7c3e 64e2 623e
00000080: 965c ca3c cea2 1d3f 06b0 803e 7249 0d3e
00000090: 0b82 4a3f f449 1fbe a644 25bf a4dc d2be
000000a0: ff48 07bd 7827 9cbd 01d7 253f d363 3cbf
000000b0: ff24 9ebe c232 083f 504d 24bf c0cb 913e
000000c0: 2c5c 453e bd3f 203f 24d2 013f 1540 4cbf
000000d0: 34d0 e93d 1754 4fbf 2fb8 fb3e 84ca c93d
000000e0: c04f 073e 8409 edbe a75d c53e 2016 e1be
000000f0: e3c9 13be 4be7 203f 1873 47bf 56bf 863e

dynamics.0.bias f4 [32]
0.36535123 -0.23555766 -0.5828322 0.29436255 -0.20053007 0.21446706 -0.49865487 -0.10350122
0.13771814 0.15423441 0.47654414 -0.6193443 -0.28171003 -0.008285983 0.34815833 -0.2879642
-0.5078448 0.063770294 0.2854767 0.79919046 0.19453496 -0.3197783 -0.15984932 -0.4001193
-0.44737184 0.15977639 -0.5313877 0.3249586 0.5623202 0.07221288 0.36645323 0.2511129
00000000: 510f bb3e 0736 71be 7e34 15bf b0b6 963e
00000010: c157 4dbe 419d 5b3e b14f ffbe 73f8 d3bd
00000020: fc05 0d3e a0ef 1d3e 98fd f33e 598d 1ebf
00000030: 4c3c 90be efc1 07bc cf41 b23e 0b70 93be
00000040: 1e02 02bf 009a 823d 012a 923e bf97 4c3f
00000050: 2c34 473e fbb9 a3be 8aaf 23be 70dc ccbe
00000060: ec0d e5be 6c9c 233e 0609 08bf f960 a63e
00000070: 37f4 0f3f 59e4 933d c29f bb3e df91 803e

dynamics.2.weight f4 [32, 32]
0.14241007 -0.12517096 0.1339764 0.019876538 -0.026903788 -0.044324722 -0.092439756 0.058407206
0.1347494 0.056830514 -0.078430794 -0.07077733 -0.016010154 -0.054493178 -0.054216735 -0.041887328
-0.028316064 -0.13667586 0.047979046 -0.13284722 -0.071910806 0.0070180823 -0.042619273 -0.023289926
0.02207142 -0.015720733 0.101227835 0.09479974 0.040057987 -0.08082872 0.1709878 0.03269999
0.19408287 -0.049831487 -0.05035431 0.06455362 0.19628942 0.15569639 0.016941642 0.08146502
0.14566363 0.32789075 0.1239761 -0.067010604 0.022070639 0.19891334 0.018572621 -0.12586954
-0.016984168 -0.054956034 0.17912361 0.19109426 0.2449178 0.2945129 -0.12163031 -0.10422152
-0.079758674 0.29544005 0.24502946 0.01799864 0.245346 0.30209753 -0.12580076 0.15147631
0.038517296 0.010058979 0.21195902 0.18427825 0.263394 0.1962553 0.1643187 -0.02500281
-0.023178155 0.18110168 0.11758988 0.011011875 -0.113506116 -0.0581789 -0.16445963 -0.061964884
0.15456237 -0.012294637 0.18120794 0.0014463268 -0.08622718 0.2439767 -0.057753783 0.04546022
0.055161353 0.14290199 0.18252802 0.11849871 0.15463276 0.17935923 -0.032946445 0.044163946
0.23244171 0.13799447 0.018194325 -0.0749462 0.013473578 -0.03896585 0.17522228 -0.012279262
-0.098431714 0.13800451 0.2015831 -0.1412594 -0.17117491 0.16639544 0.14445315 -0.08564745
-0.153558 0.011725656 -0.09405574 -0.0182153 0.07619085 -0.12210192 0.014290538 0.061945587
0.1317477 0.13445665 0.03754432 0.01302249 0.16271451 0.16283922 0.14980142 -0.05412834
0.16813435 -0.11656155 0.08276527 0.0014122417 0.105471455 0.08943698 -0.15592937 0.018331554
0.019108094 0.22156048 0.10021666 -0.01163685 0.12766245 -0.05840727 -0.063033044 0.060104188
0.16310236 0.013986824 0.21985385 -0.061151877 0.0025334798 0.15663727 0.14111985 -0.16811508
-0.1581348 0.21995994 -0.06715681 0.19853857 0.17107208 0.24133934 -0.07509376 -0.053982124
0.19261973 0.18087746 -0.0017501122 0.26913768 0.16299869 0.2755288 -0.15012498 -0.0108245965
-0.06462489 0.2095639 0.04924586 -0.1270893 -0.16562295 0.12204054 0.18359001 0.065059625
-0.007285167 0.06777137 0.26017156 -0.016845953 0.1362722 -0.078604095 0.1768302 -0.051553063
0.08601613 0.16808708 0.12059962 0.17562643 0.020791825 0.03237926 0.21646424 0.26136303
-0.016956015 -0.1668333 -0.12988512 -0.0046221814 -0.15869464 -0.16273372 0.14549676 -0.12103013
-0.12974297 0.03307792 -0.15966806 0.09028359 -0.0800577 0.109826975 -0.15657471 0.14482413
-0.14821993 -0.13912314 0.006018949 -0.08438368 -0.0923806 0.14850737 0.03912709 -0.0009813472
-0.015516172 -0.031583834 0.15585482 0.16164458 -0.080853984 -0.026424114 -0.14168276 0.07230833
-0.04309227 0.14915238 -0.03411467 0.2248545 0.14419365 -0.037881404 -0.060444903 -0.03696447
-0.06644214 0.13776582 0.1399701 -0.038763657 0.15754981 0.03550428 0.17684756 0.00257277
0.059879627 0.06083956 0.018046094 -0.065619096 0.23514602 0.29359356 0.0036199768 -0.08530287
0.08780499 0.055900875 0.052548114 0.15881571 0.11830644 0.22089575 0.010872635 0.25743282
00000000: f2d3 113e d12c 00be 1c31 093e 1fd4 a23c
00000010: 5565 dcbc d78d 35bd 0e51 bdbd 653c 6f3d
00000020: bffb 093e 1dc7 683d 53a0 a0bd b4f3 90bd
00000030: ba27 83bc 3d34 5fbd 5e12 5ebd 0c92 2bbd
00000040: 17f7 e7bc c2f4 0bbe ad85 443d 1a09 08be
00000050: f945 93bd f1f7 e53b 8c91 2ebd 84ca bebc
00000060: 1fcf b43c c4c8 80bc 8a50 cf3d 5e26 c23d
00000070: d813 243d 8789 a5bd 6d17 2f3e 6df0 053d
00000080: a9bd 463e 1a1c 4cbd 5240 4ebd b034 843d
00000090: 1800 493e e06e 1f3e 33c9 8a3c 22d7 a63d
000000a0: d928 153e 4ce1 a73e 2ee7 fd3d db3c 89bd
000000b0: 7ccd b43c f0af 4b3e 9c25 983c f2e3 00be
000000c0: 6222 8bbc 9419 61bd 2e6c 373e 37ae 433e
000000d0: bbcb 7a3e 65ca 963e 5019 f9bd 1872 d5bd
000000e0: 8458 a3bd eb43 973e 01e9 7a3e e271 933c
000000f0: fb3b 7b3e 87ac 9a3e ead1 00be 9b1c 1b3e
00000100: 50c4 1d3d 6ace 243c c90b 593e 70b3 3c3e
00000110: 94db 863e 26f7 483e 2943 283e b1d2 ccbc
00000120: 1de0 bdbc b872 393e f7d2 f03d 276b 343c
00000130: e575 e8bd 004d 6ebd 1b68 28be e4ce 7dbd
00000140: 9945 1e3e 726f 49bc 938e 393e ad92 bd3a
00000150: e097 b0bd 07d5 793e 3b8f 6cbd 7f34 3a3d
00000160: dff0 613d e654 123e a0e8 3a3e 74af f23d
00000170: 0d58 1e3e f2a9 373e daf2 06bd 41e5 343d
00000180: 3305 6e3e 6c4e 0d3e 440c 953c 657d 99bd
00000190: 48c0 5c3c a89a 1fbd 786d 333e f52e 49bc
000001a0: 9196 c9bd 0e51 0d3e cd6b 4e3e 4ea6 10be
000001b0: 7a48 2fbe 9163 2a3e 87eb 133e ee67 afbd
000001c0: 4f3e 1dbe f71c 403c 4ca0 c0bd 4138 95bc
000001d0: f309 9c3d 9210 fabd dc22 6a3c a8ba 7d3d
000001e0: dee8 063e 01af 093e 13c8 193d 485c 553c
000001f0: a29e 263e 53bf 263e 8b65 193e aeb5 5dbd
00000200: 692b 2c3e d2b7 eebd d680 a93d f81a b93a
00000210: 6b01 d83d bc2a b73d f3ab 1fbe 0e2c 963c
00000220: 9488 9c3c c0e0 623e 643e cd3d 7da8 3ebc
00000230: f2b9 023e 763c 6fbd 7817 81bd cf2f 763d
00000240: 4e04 273e fe28 653c 5e21 613e 647a 7abd
00000250: bd08 263b 8565 203e b981 103e 5c26 2cbe
00000260: 17ee 21be 2e3d 613e 8289 89bd b24d 4b3e
00000270: 852d 2f3e a921 773e c2ca 99bd 5c1c 5dbd
00000280: 1b3e 453e f137 393e 0564 e5ba 6acc 893e
00000290: 21e9 263e 1c12 8d3e 5dba 19be a659 31bc
000002a0: 0e5a 84bd eb97 563e 07b6 493d b323 02be
000002b0: 1099 29be 64f0 f93d 05ff 3b3e fb3d 853d
000002c0: 69b8 eebb b7cb 8a3d 3535 853e 8600 8abc
000002d0: f18a 0b3e 2ffb a0bd fa12 353e 4e29 53bd
000002e0: 3a29 b03d 051f 2c3e effc f63d 6ad7 333e
000002f0: 9e53 aa3c 1da0 043d cda8 5d3e 60d1 853e
00000300: 57e7 8abc 59d6 2abe 9b00 05be ab75 97bb
00000310: d980 22be aba3 26be 1afd 143e a5de f7bd
00000320: 57db 04be b77c 073d 0680 23be 9ae6 b83d
00000330: 4bf5 a3bd f7ec e03d 1f55 20be c74c 143e
00000340: f7c6 17be 4c76 0ebe 9b3a c53b 5ad1 acbd
00000350: 0a32 bdbd 5112 183e ba43 203d 8ca0 80ba
00000360: 8b37 7ebc 0d5e 01bd 6898 1f3e 2886 253e
00000370: c696 a5bd 6277 d8bc 4915 11be 6416 943d
00000380: 8581 30bd 67bb 183e d3bb 0bbd 4240 663e
00000390: 80a7 133e 8829 1bbd 1395 77bd 0e68 17bd
000003a0: d112 88bd 7c12 0d3e 5254 0f3e a4c6 1ebd
000003b0: bd54 213e f06c 113d 8717 353e eb9b 283b
000003c0: 5744 753d e732 793d 67d5 933c 4e63 86bd
000003d0: 1eca 703e e551 963e 223d 6d3b 45b3 aebd
000003e0: 1ad3 b33d 51f8 643d b13c 573d 96a0 223e
000003f0: a64a f23d 7f32 623e 2323 323c 3cce 833e

dynamics.2.bias f4 [32]
-0.14770609 0.11485509 0.1149177 0.21801168 0.24125078 0.10188076 0.12427786 0.13992248
0.11221105 0.19582479 0.14230898 -0.15326998 0.15805802 0.15283367 0.20334607 0.15727201
-0.115798965 0.09649601 0.039351366 -0.18526661 0.19416884 0.20283677 0.07116781 -0.07656833
-0.10687438 0.072936065 0.03777906 -0.1334548 -0.12508672 0.21402407 0.12607747 0.09455521
00000000: 4440 17be 2539 eb3d f959 eb3d 743e 5f3e
00000010: 720a 773e dca6 d03d 6485 fe3d d747 0f3e
00000020: e8ce e53d 4b86 483e 72b9 113e cef2 1cbe
00000030: f6d9 213e 6e80 1c3e f439 503e ea0b 213e
00000040: 0228 edbd b39f c53d e62e 213d 88b6 3dbe
00000050: 32d4 463e 71b4 4f3e 6ec0 913d dbcf 9cbd
00000060: f4e0 dabd 815f 953d 37be 1a3d 60a8 08be
00000070: bc16 00be 2029 5b3e 741a 013e 29a6 c13d

dynamics.4.weight f4 [32, 32]
-0.0814056 -0.07482419 0.05760937 -0.018471906 0.1109856 -0.11271279 0.023065664 -0.1726946
-0.022475882 -0.12150144 -0.038292248 -0.13032152 -0.12828402 -0.010205612 -0.18690702 0.07547462
0.012119583 -0.013402674 -0.16600373 0.06886834 0.01965141 -0.20267935 0.03471997 0.020523328
0.10982474 -0.106299706 -0.14099948 -0.08918336 -0.12989323 -0.12131508 0.05517203 0.09273046
-0.09621973 0.19289486 0.24925941 -0.033343073 0.023108616 0.08057707 -0.15114214 -0.0054026213
0.053105935 0.099924006 0.00942871 -0.16109532 0.15016094 0.019118266 0.2441449 0.052098487
0.050776538 0.08754323 -0.0008041197 0.15900904 -0.05584006 0.28409714 -0.020651618 0.24292167
0.16680412 0.11338632 0.24818422 0.14752235 -0.005288186 -0.04644864 0.19358163 -0.09472563
0.12604746 0.15164474 -0.12737633 0.06351614 0.041586056 0.010605417 0.004119201 0.033823088
-0.037994757 0.005686041 0.037969965 -0.06696805 0.010071344 -0.023371506 -0.14796036 -0.14243747
-0.081794515 0.07785635 -0.08167886 0.1536875 -0.070242 0.012175949 -0.031288177 -0.008782468
0.0043656128 0.09044164 -0.13447694 -0.12951182 0.13022095 -0.07352952 0.13891482 -0.17578837
0.03169445 -0.034322474 0.107607394 -0.004285934 -0.091200635 -0.16374046 0.03882934 -0.118528254
-0.0870199 -0.10377062 0.0039614453 -0.091564514 0.1260349 0.10194998 -0.10789559 0.093457244
0.13832967 0.073282644 0.09487513 -0.15699045 -0.022653593 0.15683259 0.07911821 -0.14817938
-0.17125185 -0.023025308 0.045526076 0.13218352 0.08690204 0.12071788 0.048661277 0.08238124
-0.04867887 0.01933103 0.024031375 -0.11857944 0.1331479 0.052452385 -0.025569545 0.014620637
-0.1473089 0.11967536 -0.0009904299 0.10315264 0.045315847 -0.17033058 -0.03753048 0.1482363
0.11297718 -0.0735889 -0.12022738 0.012509691 0.07145834 -0.13624497 -0.1557373 0.13693956
0.13887131 -0.0016019385 0.05237557 -0.12528218 -0.15415727 0.029143492 -0.12218169 0.012364684
-0.0257477 -0.15771525 -0.063026436 -0.045782603 -0.018593313 0.079214856 0.07956296 -0.16512735
-0.079798356 -0.04143996 -0.08474498 -0.13784133 -0.12040577 0.081117295 -0.06416491 -0.018760784
0.078551754 -0.0682053 0.012991702 0.044131227 0.094681606 -0.09110956 0.014540346 0.107269436
-0.14052819 -0.1676705 -0.10083608 -0.13886051 0.16730918 -7.982613e-05 -0.08293958 0.0017597362
0.04562868 -0.15270339 0.040940553 -0.10684143 -0.07607999 0.033533413 -0.030086001 -0.06738196
-0.0670036 -0.10154185 0.095385686 5.0508137e-05 -0.057609484 -0.1406094 -0.057105087 -0.09510131
-0.16912158 0.015131263 0.057961125 -0.1644181 0.040044513 0.11445479 0.07773169 0.104309894
-0.029013721 0.15015282 0.053144444 -0.16589682 0.05115892 0.06828341 -0.14853278 0.13519023
-0.169547 -0.135174 -0.015853642 -0.120482415 -0.019001443 -0.016578736 -0.053210437 -0.024122916
-0.113121256 0.17441829 -0.022343582 -0.12483121 0.061266914 0.03033218 -0.077093855 -0.10178976
-0.017936813 0.10377506 0.123654045 0.16141613 0.115849696 0.025550747 -0.17647408 -0.038251426
-0.16039805 -0.15353574 0.1743116 -0.101623006 0.12330427 -0.10035107 0.17539613 -0.09228368
00000000: fbb7 a6bd 6d3d 99bd cef7 6b3d 6552 97bc
00000010: 6b4c e33d f7d5 e6bd 34f4 bc3c dad6 30be
00000020: 571f b8bc bfd5 f8bd 55d8 1cbd 0173 05be
00000030: e35c 03be 7035 27bc 8e64 3fbe 7092 9a3d
00000040: 3791 463c e496 5bbc e2fc 29be d80a 8d3d
00000050: fefb a03c 2d8b 4fbe 8736 0e3d 8a20 a83c
00000060: cbeb e03d a9b3 d9bd 2b62 10be c4a5 b6bd
00000070: bb02 05be 0a74 f8bd 11fc 613d 78e9 bd3d
00000080: da0e c5bd 3b86 453e dc3d 7f3e bf92 08bd
00000090: 484e bd3c 9705 a53d 01c5 1abe 7908 b1bb
000000a0: 9c85 593d f5a4 cc3d e07a 1a3c 2cf6 24be
000000b0: cac3 193e e99d 9c3c 1f01 7a3e 3965 553d
000000c0: 0ffb 4f3d dd49 b33d 8fcb 52ba 44d3 223e
000000d0: 8cb8 64bd 2e75 913e 952d a9bc 75c0 783e
000000e0: b3ce 2a3e 1637 e83d 0124 7e3e 1910 173e
000000f0: 8548 adbb ee40 3ebd 433a 463e 83ff c1bd
00000100: 9612 013e c248 1b3e f16e 02be c014 823d
00000110: 2456 2a3d 58c2 2d3c 5dfa 863b 148a 0a3d
00000120: 64a0 1bbd f851 ba3b 6586 1b3d 8c26 89bd
00000130: 4702 253c 9a75 bfbc ec82 17be 21db 11be
00000140: e283 a7bd 2673 9f3d 3f47 a7bd 4260 1d3e
00000150: 0adb 8fbd a27d 473c 0828 00bd 57e4 0fbc
00000160: 6a0d 8f3b 7739 b93d 53b4 09be bf9e 04be
00000170: a458 053e a596 96bd b03f 0e3e de01 34be
00000180: 0ad2 013d b995 0cbd 4461 dc3d 0571 8cbb
00000190: 66c7 babd 94ab 27be 840b 1f3d f1be f2bd
000001a0: 7d37 b2bd b185 d4bd 03cf 813b 2d86 bbbd
000001b0: 4b0f 013e 27cb d03d 5df8 dcbd 8366 bf3d
000001c0: 4ba6 0d3e 3615 963d e44d c23d 1bc2 20be
000001d0: 0794 b9bc b998 203e ba08 a23d 56bc 17be
000001e0: a55c 2fbe 929f bcbc 8d79 3a3d 1e5b 073e
000001f0: b2f9 b13d f03a f73d 0c51 473d 7fb7 a83d
00000200: 7f63 47bd 1c5c 9e3c 72dd c43c c7d9 f2bd
00000210: ec57 083e 50d8 563d 3977 d1bc 658b 6f3c
00000220: 25d8 16be 5b18 f53d 50d1 81ba b141 d33d
00000230: 1c9d 393d 246b 2ebe 90b9 19bd 42cb 173e
00000240: 9460 e73d c7b5 96bd c639 f6bd 72f5 4c3c
00000250: c058 923d cd83 0bbe 9979 1fbe e239 0c3e
00000260: 4834 0e3e 23f8 d1ba c487 563d f949 00be
00000270: 67db 1dbe 55be ee3c 653a fabd 3e95 4a3c
00000280: d7ec d2bc 1b80 21be 0114 81bd 8a86 3bbd
00000290: 0151 98bc 663b a23d e8f1 a23d 2517 29be
000002a0: 526d a3bd f3bc 29bd c78e adbd 4726 0dbe
000002b0: 4d97 f6bd d320 a63d e468 83bd 37b0 99bc
000002c0: bedf a03d 38af 8bbd 26db 543c f2c2 343d
000002d0: 6ee8 c13d a697 babd a23a 6e3c 14b0 db3d
000002e0: 9fe6 0fbe d1b1 2bbe 2683 cebd 7331 0ebe
000002f0: 1953 2b3e 5468 a7b8 3adc a9bd f3a6 e63a
00000300: 24e5 3a3d 475e 1cbe 48b1 273d aecf dabd
00000310: d3cf 9bbd 555a 093d eb76 f6bc 8eff 89bd
00000320: 2f39 89bd 2cf5 cfbd 9259 c33d b3d8 5338
00000330: ecf7 6bbd e9fb 0fbe 06e7 69bd 7ac4 c2bd
00000340: 352e 2dbe 1ee9 773c a568 6d3d 385d 28be
00000350: b705 243d 4667 ea3d cb31 9f3d 6da0 d53d
00000360: 2fae edbc a9c1 193e fdad 593d dbe0 29be
00000370: 048c 513d 2cd8 8b3d fa18 18be 4f6f 0a3e
00000380: bb9d 2dbe 0e6b 0abe 7fdf 81bc 7cbf f6bd
00000390: eaa8 9bbc 21d0 87bc 30f3 59bd 6c9d c5bc
000003a0: 1eac e7bd b59a 323e e309 b7bc 81a7 ffbd
000003b0: 04f3 7a3d 317b f83c 62e3 9dbd 2677 d0bd
000003c0: 39f0 92bc 0588 d43d 553e fd3d 454a 253e
000003d0: 9b42 ed3d cd4f d13c 9fb5 34be 87ad 1cbd
000003e0: 633f 24be 7938 1dbe bd7e 323e b91f d0bd
000003f0: f386 fc3d dd84 cdbd 0b9b 333e 3aff bcbd

dynamics.4.bias f4 [32]
0.097225375 -0.097361885 -0.14135924 -0.13855864 -0.16287717 -0.11774261 0.15104045 0.0020594636
-0.119295664 -0.1590054 0.016966602 -0.12334584 0.19078597 -0.050976455 0.026588228 -0.039187144
0.14968678 -0.075162455 -0.00074041396 0.18300773 -0.05736005 -0.14360668 0.04881279 0.0019520196
-0.1620413 0.09733085 0.074098416 0.2363308 -0.03122188 -0.084112026 -0.16144243 0.15390946
00000000: 191e c73d ab65 c7bd 7ac0 10be 51e2 0dbe
00000010: 46c9 26be 0a23 f1bd 59aa 1a3e 11f8 063b
00000020: 4951 f4bd 50d2 22be 8bfd 8a3c be9c fcbd
00000030: 665d 433e b0cc 50bd 8ecf d93c b382 20bd
00000040: 7e47 193e c6ee 99bd 5718 42ba 6166 3b3e
00000050: 5ff2 6abd a10d 13be ecef 473d e9da ff3a
00000060: 28ee 25be 6655 c73d e9c0 973d b400 723e
00000070: 07c5 ffbc ed42 acbd 2a51 25be 719a 1d3e

dynamics.6.weight f4 [2, 32]
-0.07293162 0.21089706 0.084097184 0.14255847 0.097827725 -0.08009492 -0.17217946 0.10316467
0.39870298 0.12763998 0.14291091 -0.12179409 -0.09170625 0.14155827 0.09513469 0.15648334
-0.13604866 0.0460338 0.11348549 -0.055554148 -0.024511807 -0.038573638 -0.07390043 0.037987612
-0.023783656 0.12600261 -0.023671478 0.24822305 0.027454456 0.23728691 0.15540919 -0.095198005
0.11287501 -0.05075653 0.07407624 0.065989934 -0.11367728 0.057211544 0.0588416 0.03001022
0.0053104353 0.06891637 -0.23647371 0.12637743 -0.2113063 -0.18510066 0.10964677 0.09297033
-0.057320166 -0.13373762 -0.14969027 -0.23136197 -0.027854472 0.14373675 -0.02593304 0.024136635
0.060736243 0.036117762 -0.04744697 -0.19460623 0.06792228 -0.07302004 0.013679876 -0.20229681
00000000: 2c5d 95bd 66f5 573e 253b ac3d d9fa 113e
00000010: e759 c83d ce08 a4bd d04f 30be 0048 d33d
00000020: cc22 cc3e 0eb4 023e 3d57 123e 2e6f f9bd
00000030: 7dd0 bbbd a7f4 103e fad5 c23d 2b3d 203e
00000040: 5750 0bbe f08d 3c3d 156b e83d bf8c 63bd
00000050: fccc c8bc 64ff 1dbd 1c59 97bd e698 1b3d
00000060: f1d5 c2bc d406 013e b0ea c1bc 2f2e 7e3e
00000070: 2be8 e03c 57fb 723e 9623 1f3e 2cf7 c2bd
00000080: 032b e73d 14e6 4fbd 49b5 973d bb25 873d
00000090: a2cf e8bd a756 6a3d e403 713d fed7 f53c
000000a0: 2903 ae3b 0724 8d3d 2a26 72be 1669 013e
000000b0: ae60 58be 078b 3dbe 7c8e e03d 3a67 be3d
000000c0: 8dc8 6abd 84f2 08be 6848 19be 27ea 6cbe
000000d0: 102f e4bc ba2f 133e 8771 d4bc 31ba c53c
000000e0: 91c6 783d 38f0 133d c157 42bd db46 47be
000000f0: d61a 8b3d 888b 95bd 8f21 603c e526 4fbe

dynamics.6.bias f4 [2]
0.17819001 -0.2036955
00000000: 7177 363e 8e95 50be
