ives_model/experiments/learning/multiple/multiple_001/morals/run_09/models/latent_dynamics.pt (torch, 3309 bytes, 4 tensors)

dynamics.0.weight f4 [32, 2]
00000000: d516 19c0 9cb8 8d3e dffe c03e 77b6 b9bf
00000010: 2ca2 48bc 7e01 543f 965e 29bf fdc3 c23f
00000020: 83b8 6cbf d2eb 783f 995b cf3f 6b6e c5be
00000030: 0d9b 7d3e 7052 85bf 2ff2 473f fe2f 0440
00000040: 4c2a efbd b6cb 29bd 6603 febf 21e0 59be
00000050: b8cf 013d d1fb 0b3c a3b6 2fc0 561b 863f
00000060: a9f0 8d3e 08fb 013e daab 943e adb9 75bf
00000070: 33b1 613f 4814 92bf db79 b3be be10 873f
00000080: 0270 3b3f 9bb1 c33e 1815 d8be bc94 463b
00000090: 2398 3b3f 1517 b4bf dd89 0f3f 29e5 a0bf
000000a0: 2f52 0bc0 8b1a 763f 3875 23bf 4332 cabf
000000b0: 7acd 7b3f bfad 6bbf 55c1 753e b6a2 79bf
000000c0: f55d 88bf 2ea1 613f 2600 bb3f 72b8 88bf
000000d0: 612f aa3e 5598 253e 5739 8ab7 c059 843f
000000e0: c439 023f 72c3 ee3f f74c 753f 6a40 59bf
000000f0: 6564 b9bb 2e51 ee3f cb58 afbf 3c3e 67bf
-2.3920186 0.27679908 0.3769445 -1.4508809 -0.012245696 0.82814777 -0.6615995 1.5216061
-0.9246904 0.97234833 1.6199828 -0.38560805 0.24766178 -1.0415783 0.7810392 2.0654292
-0.11677989 -0.04145404 -1.9844787 -0.21276905 0.031692237 0.008543924 -2.7455223 1.0477092
0.27722672 0.12693417 0.29037362 -0.95986444 0.8816101 -1.1412439 -0.35053906 1.0551984
0.73217785 0.3822144 -0.42203593 0.0030301055 0.7327902 -1.4069544 0.5606974 -1.2569934
-2.176891 0.9613425 -0.63850737 -1.5796589 0.9836041 -0.9206199 0.23999532 -0.975139
-1.0653673 0.88136566 1.460942 -1.0681288 0.33239272 0.16171391 -1.6477583e-05 1.033989
0.50869393 1.8653395 0.95820564 -0.84863913 -0.00565772 1.8618524 -1.3698972 -0.9032934

dynamics.0.bias f4 [32]
00000000: 0e10 bd3e e718 ce3d 8b30 e43e fea2 cebd
00000010: 3602 3cbc 5058 91be 3e34 f9bd 1f96 d1be
00000020: db24 27bf 3a2e a53e e2c3 05bf 3cf3 553e
00000030: b42a c8be 3dd8 bc3e 604e c83e 5e9d bd3d
00000040: f322 0f3f 8b8a cdbe dbf0 023f a093 de3e
00000050: d1a1 3b3e b1b7 993e 31c1 163f 1203 79be
00000060: 48b7 333f 839e 8d3d a174 f2be c3c4 283f
00000070: 4cf2 bdbe 9f7f d63e 72d6 bebd 21c0 993e
0.3692631 0.100633435 0.44568285 -0.10089682 -0.0114751365 -0.2838769 -0.121681675 -0.40934846
-0.6529061 0.3226183 -0.5225202 0.20893568 -0.3909508 0.36883727 0.39122295 0.09258531
0.55912703 -0.40144762 0.51148766 0.43472004 0.18323447 0.30022958 0.58888537 -0.24317577
0.7020154 0.06914999 -0.47354606 0.65925235 -0.3709892 0.41894242 -0.09318246 0.30029395

dynamics.2.weight f4 [2, 32]
00000000: 0744 203f 9734 3c3e 63d1 8b3d f07e 27bf
00000010: 9650 fc3e bca0 d33d 100e 613f 871e a43e
00000020: eddb 33be 1f39 0ebf d388 18bc 1394 57bd
00000030: 35c0 0b3e 6aac 993b c92e 293b a2fc 083f
00000040: 1eb1 2e3e cdf2 ca3d 8f3e 93bc 6299 1cbe
00000050: 02be 2ebe e9ea a8be 085a f73d a63f 94bf
00000060: 4f91 7ebe 627f 1bbe 0ca0 163e 84fa 053e
00000070: 2650 193d 9935 b53c b8e5 d9be 908c cbbd
00000080: af8c 743f c6cc 87bf a0a0 83be a2f4 cc3f
00000090: 2e2f a23f dacb 93bf f6e5 523e 6a07 babf
000000a0: c0f8 99bd 1da6 f7be 6d9a 65bc b8af ddbf
000000b0: 30e9 30be 9815 113e 7c59 ac3e 616e c5be
000000c0: 136f 1abd 1212 103d f506 ad3e 4969 fb3e
000000d0: 994e 0940 7b64 cdbe f281 9c3e 5a3e 3f3f
000000e0: cf31 a3be 3ab5 3bbf 1249 0b3e 650d 62be
000000f0: 1858 1f40 d706 4e3e 0e1f 51bf 934e 04bf
0.626038 0.18379436 0.06827047 -0.65428066 0.49280232 0.10333392 0.8791208 0.3205454
-0.17564364 -0.5555591 -0.009309965 -0.05263145 0.1364754 0.004689743 0.002581524 0.5351049
0.17059752 0.09909592 -0.017974166 -0.15292886 -0.1706467 -0.32991722 0.12077719 -1.1581924
-0.24860118 -0.15185311 0.1470949 0.13083845 0.03742995 0.022120284 -0.42558074 -0.099389195
0.95527166 -1.0609367 -0.25708485 1.6012156 1.2670648 -1.1546586 0.20595536 -1.4533513
-0.075181484 -0.48368922 -0.014013869 -1.731925 -0.17276454 0.14168394 0.3366202 -0.38560775
-0.037703585 0.035173483 0.3379437 0.49103764 2.1454222 -0.40115723 0.3056789 0.74704516
-0.31873938 -0.73323405 0.13602093 -0.22075422 2.4897518 0.20119797 -0.8168801 -0.51682395

dynamics.2.bias f4 [2]
00000000: 043e 053d b04a 07bd
0.032529846 -0.033030212
