leslie_map_3d/experiments/learning/sweeps/sweep_005/morals/run_09/models/encoder.pt (torch, 12493 bytes, 8 tensors)

encoder.0.weight f4 [32, 3]
000000 da e0 f6 3e a8 e3 08 3f 55 a9 0c bf 3e 76 8c 3d
       0.48218423 0.53472376 -0.5494588 0.068584904
000010 2f e2 a8 bc 0f c0 53 3f 50 65 fb 3d e1 ca f6 3e
       -0.020615665 0.82714933 0.12275183 0.4820166
000020 8d 44 11 3e 33 5e 05 3f 3c 63 28 3e 23 bd c7 3e
       0.14186306 0.5209686 0.16444105 0.39011487
000030 6c 6e 01 3f 54 c0 ca bd 8f 58 bc be 3d 56 c3 3e
       0.50559115 -0.09899965 -0.36786315 0.38151732
000040 58 30 e0 3d c4 e5 ce bd ff ad c7 be c9 90 2a 3d
       0.10946721 -0.10102418 -0.38999936 0.041641984
000050 0f 93 aa be 4e 1e 8a 3e a4 cb 81 3e de ed 2d 3f
       -0.33315322 0.26976246 0.25350678 0.6794108
000060 27 50 7c 3f 7f cb 00 3e 0d 2a b1 3e 1f 73 93 be
       0.985598 0.12577628 0.34602395 -0.28798768
000070 a4 37 fb bd 82 d4 25 bf ab c5 37 3f 95 de 33 bf
       -0.12266472 -0.64777386 0.7178599 -0.7026151
000080 b2 72 6d bf c8 cf 3e 3e 1f 91 03 bf a6 08 1f bd
       -0.92753136 0.1863395 -0.5139331 -0.038826607
000090 97 c2 1b 3f 0f 9a 0b 3f 5b fb 64 3e 83 90 25 3f
       0.60843796 0.5453195 0.2236151 0.6467363
0000a0 6c d2 83 3e b1 fb 82 3e 8a 79 3a 3c 67 5d e7 be
       0.25746477 0.2558265 0.011381516 -0.45188448
0000b0 03 55 a5 3d e4 87 9f be 2b 96 27 bf d0 91 fc be
       0.08072855 -0.31158364 -0.65463513 -0.49329996
0000c0 80 01 ae be fa f6 44 3e 29 a7 20 bc df d5 12 bf
       -0.3398552 0.19234839 -0.009805479 -0.5735759
0000d0 63 b4 84 3e 32 8c 1d bf f7 3a 8a bf 16 8b c9 3b
       0.25918874 -0.61542046 -1.0799245 0.0061506135
0000e0 58 1f a8 3e 7a 5f 5e 3f af 34 fc be 91 06 8a bd
       0.32836413 0.86864436 -0.49258944 -0.06739534
0000f0 18 06 37 3e 53 51 e6 3e 2a cd 46 be 8a 5d a4 be
       0.17873418 0.4498392 -0.19414201 -0.32102615
000100 6c 79 33 be a4 38 e0 3e 7e 27 07 3f 1c 9a 11 bd
       -0.17526788 0.43793213 0.52794635 -0.03554736
000110 cb 6c 7d be d7 03 84 3e 31 7d 5d be 3f 52 7f 3e
       -0.24748532 0.2578418 -0.21629788 0.24933718
000120 2f 4b 52 3e 42 59 5c 3e e3 3a c7 be 0e 8f 37 be
       0.20536493 0.21518424 -0.38912115 -0.17925665
000130 39 5e 96 3e e4 84 b2 3e cd e9 56 3e d5 be 6f bf
       0.2936876 0.34867013 0.20987625 -0.9365056
000140 9e c7 cd bd bc d4 a7 3d 3b 7f 83 3e 16 26 0e 3f
       -0.100478396 0.08194873 0.25683007 0.55526865
000150 14 53 60 3f 81 d0 00 bf 24 b7 96 bd 96 5a 0c bf
       0.8762677 -0.5031815 -0.0735915 -0.54825723
000160 52 67 28 bd 5f 7f 59 3d 55 6b 14 3f 0e db 18 be
       -0.04111416 0.053099986 0.57976276 -0.14927313
000170 03 76 0c bf 9f ca f6 be f7 2a 2d 3e a9 b9 a4 be
       -0.5486757 -0.48201463 0.16910921 -0.32172897

encoder.0.bias f4 [32]
000000 b0 68 d2 be b0 68 9f be c5 ee 8a 3e 5f 0b 59 bd
       -0.41095495 -0.31134558 0.27135292 -0.05298936
000010 6f 41 09 bf 26 0d 9d 3e 4f 89 ae be f0 09 9b be
       -0.5361547 0.30674094 -0.34089133 -0.3028102
000020 44 ad 9a be a8 17 83 3e 29 17 09 3d ed 05 6f be
       -0.30210316 0.25603986 0.033469353 -0.23342104
000030 00 88 a7 bd 66 c1 c6 bd 4c 52 06 3f 19 1d 11 3f
       -0.08180237 -0.097048566 0.52469325 0.56685024
000040 5e 7a f7 3e df ab 83 be a7 e1 34 3e db 8f 9b 3c
       0.48335546 -0.25717065 0.17664205 0.018989494
000050 3b 50 09 bf d8 05 a6 3e 0f cd 23 3e 09 0d 25 3e
       -0.53638047 0.32426333 0.15996192 0.16118254
000060 8f 95 aa 3d 0b 86 d7 3e d3 78 1f 3e f8 5f ce be
       0.08329307 0.42094454 0.15573435 -0.40307593
000070 8f e0 aa 3c b2 a2 ff be d3 5c ed 3e f0 84 bc 3e
       0.020859031 -0.49928814 0.46359882 0.36820173

encoder.2.weight f4 [32, 32]
000000 9d 90 01 be 78 58 6f be ad 39 e2 3d a9 fb 70 be
       -0.12652822 -0.23373592 0.11046157 -0.235335
000010 54 38 1c 3e cb 69 d2 3d 32 87 28 3e f1 2e b8 3e
       0.15255862 0.10274085 0.16457823 0.35973313
000020 cd 14 9e bd 59 4e 8a 3d a1 57 ab 3d 60 13 b6 3c
       -0.07718811 0.06753225 0.08366323 0.022226036
000030 37 d5 b4 be 38 cd 83 be c2 e5 a3 3d d0 63 26 bb
       -0.3531892 -0.25742507 0.08002807 -0.0025389083
000040 98 b0 d8 3d fe 7b 7b bd 5b f1 96 3d 45 97 ef 3d
       0.105805576 -0.061397545 0.07370254 0.11698774
000050 96 39 99 3b 96 21 7a 3e 11 ef 09 bd 03 0b 6a 3e
       0.004676054 0.24426875 -0.033675257 0.22855763
000060 3b da 00 be b1 d2 9f 3d 83 40 fb 3d 7d 52 5e 3e
       -0.12583248 0.07803858 0.12268164 0.21711154
000070 10 a6 65 3e 83 59 12 be 36 ca 13 bd 23 4e 30 3e
       0.22426629 -0.14291959 -0.036081515 0.17217307
000080 12 2b 0e be c4 66 c7 bd 73 44 d8 bc d9 3c 48 3e
       -0.13883618 -0.09736398 -0.026399827 0.19554462
000090 1f 1f 1b 3e 64 d0 81 3d 39 5e b3 bd cb d3 59 be
       0.1514859 0.063385755 -0.08758206 -0.21272199
0000a0 5f 8d 19 be 6c a7 c8 3d 1b d4 5e bd ce ec 05 be
       -0.14995335 0.09797558 -0.0544015 -0.13078615
0000b0 99 cd 2e 3e a8 52 7f bb ee a2 9f bb ce 58 08 be
       0.17070617 -0.003895918 -0.0048717177 -0.13315126
0000c0 f2 5d 13 3c 5b b5 54 be 2c 6b 7f be 2b 38 ca bd
       0.008994566 -0.20772307 -0.24943227 -0.098739944
0000d0 d2 67 3c bd aa 56 1f 3c 9b 2b 5d 3e 2a 43 0d be
       -0.04599745 0.009725252 0.21598665 -0.13795152
0000e0 1b 6a c6 3d d3 6f e1 3d f8 1c c2 3d 12 6e 7d be
       0.09688207 0.11007657 0.094781816 -0.2474902
0000f0 e9 7a 24 3e 30 e6 78 bc 0f f2 97 bd 67 73 5f 3d
       0.16062512 -0.0151916 -0.07419216 0.054553416
000100 09 35 07 3e a3 fc 59 3d 25 70 01 3e d2 e8 36 3e
       0.13203825 0.05321945 0.12640436 0.17862251
000110 a7 51 2c 3e bd 38 fd 3d 68 bf d0 3d 60 e5 13 be
       0.16828023 0.123643376 0.10192758 -0.14442968
000120 5b 94 ae 3d 72 73 96 be d9 20 0b 3e 17 56 e5 3d
       0.0852439 -0.29384953 0.13586749 0.11198061
000130 f9 0f 5e 3e 8a b5 99 3e 6d 77 2a be 0a ce ca 3c
       0.2168578 0.30021316 -0.1664712 0.02475645
000140 0c 52 c3 3c aa 83 25 bd 83 cb 6e 3e 41 fe 9a bd
       0.023842834 -0.040408768 0.23319821 -0.07568026
000150 da c8 31 be 69 33 92 3c 1f 88 13 be e7 23 57 3e
       -0.17361775 0.01784678 -0.14407395 0.2100979
000160 23 32 46 bd ff 29 93 bd 83 18 32 be bb 2a b8 bd
       -0.048387658 -0.071857445 -0.17392163 -0.08992525
000170 7b 3b 8a 3e 1a 32 e2 bd 2d a7 de bd 2d 25 d6 3d
       0.26998505 -0.11044712 -0.1087173 0.104563095
000180 9c c6 10 be b8 1e 9b 3c 25 b5 2a bc 49 7a c6 bd
       -0.14138263 0.018935546 -0.010419165 -0.09691293
000190 f7 7b 13 bb 76 93 2f be 7f 58 1e be 38 60 c0 3b
       -0.0022504309 -0.17146096 -0.15463446 0.005870845
0001a0 3d 11 01 be 66 88 2f be 3f 56 23 3e 7a aa 30 be
       -0.12604232 -0.17141876 0.15950869 -0.17252532
0001b0 51 67 65 3d 40 fe ca 3d 03 22 05 be 7b f1 20 3e
       0.056006733 0.099117756 -0.13001256 0.15717117
0001c0 05 37 ec bd f2 b9 1c bd 2e a7 2d 3e 45 ca 4b bd
       -0.11533932 -0.03826327 0.16958305 -0.049753446
0001d0 8d a0 20 be 72 9f ae bd 05 32 d0 3d 05 35 af bc
       -0.15686245 -0.085265055 0.101657905 -0.021387586
0001e0 b4 41 00 3e 33 2a 08 bd 54 47 e1 bd f2 ce 0a 3a
       0.12525064 -0.03324337 -0.10999933 0.00052951195
0001f0 52 d1 c7 bd 0b 70 2f 3e 74 dc 99 bc 41 4e 0a be
       -0.097567216 0.17132585 -0.018781878 -0.13506414
000200 fa 4e c9 bc 33 b4 af 3c a4 b6 ed 3d 55 f1 c2 3e
       -0.024573792 0.02144823 0.116071016 0.38074747
000210 06 89 34 3e 34 81 e8 3d 95 69 da 3b e7 98 21 bd
       0.17630395 0.113527685 0.0066654184 -0.03945246
000220 2c 43 2a 3e da 1d 2b 3e 04 6b a2 be d2 56 82 3d
       0.16627187 0.16710606 -0.3172227 0.06364216
000230 3e c2 60 3e b0 39 95 3e 68 76 5c be 9d d8 07 be
       0.21949098 0.29145575 -0.21529543 -0.13266225
000240 9c 9b 77 bd 4c 20 2c be 14 00 5e bd cc e1 c2 3d
       -0.060451135 -0.16809195 -0.054199293 0.095157236
000250 ad 76 cc 3c 07 64 27 3e 25 a6 82 3d a7 a0 71 3e
       0.024958933 0.16346751 0.06379346 0.2359644
000260 ca 78 31 bd f6 b4 4b 3d c6 67 ac be 81 9d dc be
       -0.043328084 0.049733125 -0.33672923 -0.43088916
000270 82 48 7c bd 38 ff 29 3e ea ee 17 3e 19 3d 0e 3e
       -0.061592586 0.16601264 0.14837232 0.13890494
000280 ff ab ee be 7a 3a 6d bd 35 3c 20 3c 69 6f 3b 3e
       -0.46615598 -0.057917096 0.0097799795 0.18304218
000290 ed 2d b3 bc 9a c5 17 be b0 1c 10 be b2 08 74 be
       -0.021872485 -0.14821473 -0.14073443 -0.23831442
0002a0 ac a1 52 3d 2e 01 c0 be 6b 57 84 be b8 c4 9e bd
       0.051423714 -0.375009 -0.25847945 -0.07752365
0002b0 66 cd c3 3e 5a 8a 0d 3e 52 b1 2d 3e 9e 23 e6 bd
       0.38242644 0.13822308 0.16962174 -0.11237262
0002c0 23 ae c1 3d 90 bb 28 3e 81 2d c9 bd 8f 6c 4e 3e
       0.09457042 0.164778 -0.09823132 0.201586
0002d0 c9 c1 9d bc 9d 96 18 3e 14 96 06 3e 56 eb 48 3e
       -0.019257443 0.14901204 0.13143188 0.19621024
0002e0 99 1e c7 bb c7 75 2f bd 18 68 48 3d 57 4c f1 bd
       -0.0060766456 -0.04283693 0.048927397 -0.11782139
0002f0 dd e3 04 3e a9 3a 8c 3c 14 81 1f be 94 43 20 be
       0.12977548 0.017117815 -0.15576583 -0.15650779
000300 b2 96 91 bb 20 ec b7 be 60 6d f1 3c 80 7c e5 3e
       -0.004443013 -0.35922337 0.0294711 0.44821548
000310 5c 18 d7 3d 68 78 a6 bd f7 27 25 3e 31 f0 95 bc
       0.10502693 -0.081284344 0.16128527 -0.018303009
000320 d6 89 3e 3f 91 77 13 bf 51 a5 55 3d 61 1c 83 bd
       0.7442907 -0.5760432 0.05215961 -0.06401897
000330 ac 7d e4 3e 0f 8d 49 3e 1c 24 b6 3c e3 00 ca bd
       0.4462713 0.19682716 0.022234015 -0.098634504
000340 b7 5c 18 be 55 44 b1 be ab 99 cd be 36 59 34 3e
       -0.14879118 -0.34622446 -0.40156302 0.17612156
000350 e9 dd dd bd 6a a5 eb bd f0 8a 60 3e 31 39 12 3e
       -0.10833342 -0.115061596 0.21928 0.1427963
000360 ff 9b 3e 3e 07 d8 97 bd 12 4f d1 be f9 54 e7 be
       0.18614195 -0.07414251 -0.40880638 -0.45182016
000370 c9 74 a6 bd 3c 07 a7 bc 40 ae a7 3d 14 67 b3 be
       -0.08127744 -0.020389192 0.081875324 -0.3503958
000380 d0 59 9e bc 93 ac 90 bd 7c c9 3c be f0 6c d7 3c
       -0.019329935 -0.07064166 -0.18436235 0.026297063
000390 c1 ab d8 bd 92 95 17 bd c4 38 57 3d be cf d7 bd
       -0.105796345 -0.037007876 0.05254437 -0.105376706
0003a0 42 4b 1e be 7d 54 59 3c 73 8a 07 3e a2 05 02 3e
       -0.15458396 0.0132647725 0.13236408 0.12697461
0003b0 08 4a 1f 3d 2c b2 29 bc 50 7f 11 3e 46 f2 95 bc
       0.03888896 -0.010357421 0.14208722 -0.018304002
0003c0 fb 19 16 bc 33 db 96 bd f9 7e e9 bd dc 09 14 3e
       -0.009161468 -0.07366028 -0.11401171 0.14456886
0003d0 97 7e 18 3e 47 97 94 3d dd 7d 7f 3c d0 06 0f 3e
       0.1489204 0.07255416 0.015593973 0.13967443
0003e0 2a 25 58 3c 65 26 18 be 29 f7 06 bc 59 fc f2 bd
       0.013192454 -0.14858396 -0.0082376385 -0.11864538
0003f0 5f 6c 11 be 70 7c 1f be 2c 71 31 3c 90 ef f1 3d
       -0.14201497 -0.15574813 0.010830205 0.11813271

encoder.2.bias f4 [32]
000000 1a 4e 31 3e f8 ef ce 3d 05 b2 9c bd 08 70 0a be
       0.1731495 0.10104364 -0.07651142 -0.13519299
000010 42 2a 36 3d 12 03 bc 3d 50 af b2 3b e3 50 42 be
       0.044473894 0.09180273 0.005453028 -0.18976168
000020 c2 e7 87 bc 82 17 0a be d1 3f 26 3e 14 a1 9a 3d
       -0.016590003 -0.1348553 0.16235282 0.075502545
000030 3f 84 2a be 04 0d 4e 3c 4b 39 cf bd 1d 56 9b bd
       -0.1665201 0.012576345 -0.1011835 -0.07584784
000040 55 2a 9c 3d aa 95 05 3e 3b 7b 7c bd 9d 00 d3 3d
       0.07625262 0.13045374 -0.06164096 0.10302851
000050 57 e4 21 3d d9 aa 94 bd 5f 82 e9 3d 7a a2 a4 bb
       0.039524402 -0.07259149 0.114018194 -0.0050242515
000060 ed 22 b5 bd 97 54 4e 3d 3c 05 30 be 00 95 36 3c
       -0.08844552 0.05037364 -0.17189497 0.011143923
000070 bb 1d cd 3d bc 59 49 bc d8 07 92 3d 5b 10 27 be
       0.10015436 -0.012289461 0.07130402 -0.16314833

encoder.4.weight f4 [32, 32]
000000 09 16 73 3e dd ce 19 be 63 0f 0f be 36 99 22 3e
       0.23738874 -0.15020318 -0.13970713 0.15878758
000010 45 2e ae 3e 7f e5 00 3e 2e c5 51 bd 23 45 8b bd
       0.34019676 0.12587546 -0.051213436 -0.06800296
000020 57 bd 37 be fe fe 19 be e8 20 30 be 08 29 69 39
       -0.17943321 -0.15038678 -0.17200053 0.00022235897
000030 93 da 84 bd 9c 3c ad bd 92 a9 0b 3e 5a 25 05 3e
       -0.06487002 -0.08458826 0.13638905 0.1300253
000040 c6 57 16 3e d2 45 82 3d 3c ef a4 3e 81 11 37 3e
       0.1468192 0.063609734 0.3221377 0.17877771
000050 76 e1 83 bd 0f 85 ec 3f 59 71 2f bc a6 67 83 bd
       -0.06439488 1.8478106 -0.0107081765 -0.06416254
000060 fb c2 4a 3e f5 7f 0c bd 6c 91 c1 3a 46 88 25 3d
       0.19800942 -0.034301717 0.001476807 0.040413164
000070 d2 e7 f0 3d 4a 02 2d be d1 c4 44 3e 50 bc 37 3e
       0.11762966 -0.16895404 0.19215705 0.1794293
000080 3f e5 ef bb 31 4d 60 3b e0 ea 0b bd 90 c3 88 bd
       -0.0073210294 0.0034225697 -0.03415954 -0.066779256
000090 3d 3f 1e be 24 ec 5c bd 18 a0 3f bd 1d f7 bf bd
       -0.15453811 -0.05393614 -0.046783537 -0.09373305
0000a0 e5 af b7 3d 0f 92 ad 3d 69 cb 2c be 57 83 82 bd
       0.08969096 0.08475124 -0.1687447 -0.06372707
0000b0 07 b2 3f 3d d2 dc 21 be a2 84 26 3e df 86 2e be
       0.04680064 -0.15806893 0.16261533 -0.17043637
0000c0 07 d6 0b be 1d f3 f4 3d ba 82 a8 3d fd d4 c0 bd
       -0.13655864 0.11960433 0.08228059 -0.09415624
0000d0 9a b6 a4 bd 4f 80 97 3d b9 fc ff bd b2 37 d3 bd
       -0.08042641 0.0739752 -0.12499375 -0.103133574
0000e0 b1 98 73 3d 07 fc 0f be 81 56 45 3d b1 49 f1 3d
       0.05947179 -0.14060985 0.0481782 0.11781634
0000f0 2b 76 b3 3d 3c 92 42 3d 3e 13 95 bd 3e c2 34 be
       0.08762773 0.04750274 -0.07279061 -0.17652223
000100 60 31 e8 3d 3f 8e 27 bd e1 4d d6 3d 21 db d0 bd
       0.113375425 -0.04090714 0.10464073 -0.101980455
000110 fc 50 92 bd 71 46 86 3c f9 a8 a9 3b 69 81 8f bd
       -0.07144353 0.016391011 0.005177614 -0.07007105
000120 d6 06 d1 3c 91 79 f4 bb 90 9b 17 bd 0f 67 1d be
       0.025515955 -0.007460781 -0.03701359 -0.15371345
000130 78 c2 1f 3e 60 8d 20 3e ad 78 30 3d 91 42 6c bd
       0.15601528 0.1567893 0.043083835 -0.05768067
000140 17 b6 c0 3d ce 13 dd bd e4 5b 04 3e 0e 36 1d 3e
       0.09409731 -0.10794793 0.12925678 0.15352651
000150 f3 65 18 3e 12 ff 07 be 1d db 5e bc 06 fb bd bc
       0.1488264 -0.13280895 -0.013602045 -0.023190986
000160 63 c2 08 be ce 87 02 3e 6f 63 2f 3e 8d c4 f7 bd
       -0.13355403 0.12747118 0.17127775 -0.12098036
000170 59 97 8e bd 8c a4 f2 bc d4 76 9e bd 74 dd 68 bd
       -0.06962461 -0.029619478 -0.077375084 -0.05685182
000180 80 c2 a2 bd 17 b1 15 3c 57 ce 0c 3e 5a 3f dd 3d
       -0.07947254 0.00913646 0.13750587 0.10803099
000190 8e aa 45 3e b9 33 38 3d 88 ed 0a be 83 d3 95 3d
       0.19303343 0.0449712 -0.13567173 0.07315733
0001a0 3b 96 8c 3d 30 d9 1d bc 3a 71 bd bd 29 76 a3 bc
       0.06864592 -0.009634301 -0.09250112 -0.019953804
0001b0 9b f3 24 be ec f0 87 bd b2 1a fa bd 54 15 8a bc
       -0.16108553 -0.06637749 -0.12212123 -0.016855873
0001c0 75 e6 09 39 11 07 5f bd 53 d3 82 be 53 e3 b5 3d
       0.0001315119 -0.0544501 -0.25551853 0.08881249
0001d0 1b 59 8b 3d 47 20 7b 3e 80 5a 90 3d 57 cb ea 3d
       0.06804105 0.24524032 0.070485115 0.11464565
0001e0 fe de c3 3e da 8b 91 bd bf f6 2f be bf ef c9 bd
       0.38256067 -0.07106753 -0.1718397 -0.09860181
0001f0 4c 71 f1 bd 14 6b 19 be d3 32 1d 3d e6 3a 3a bd
       -0.11789188 -0.14982253 0.038378548 -0.045466326
000200 af ab a9 bd aa 6a 3f be 8c b2 6d be 88 a2 2b be
       -0.08284699 -0.18693033 -0.23212641 -0.1676122
000210 73 e6 3b 3e a2 30 88 bd d6 f1 a8 bd 11 cf 01 be
       0.18349628 -0.06649901 -0.082492515 -0.12676646
000220 9c cd 01 3e 07 6c bb bd cf 9b 40 3d df ac 08 3e
       0.1267609 -0.09151464 0.04702359 0.13347195
000230 52 8f 31 3e 68 02 ee 3d b3 84 0a 3b 63 10 52 3e
       0.17339829 0.11621553 0.0021136224 0.20514064
000240 47 c9 16 bd 9e c4 1a be 13 9f 94 bd eb 49 93 3e
       -0.036813047 -0.15114066 -0.072569035 0.28767332
000250 8d 0b 19 be da 75 86 3f 73 34 10 3e 4f 30 bb 3d
       -0.14945813 1.0504715 0.14082508 0.091400735
000260 5c 53 00 3f ef f4 ec 3d 08 ec 06 be 48 9d de bd
       0.50127196 0.11570155 -0.13175976 -0.10869843
000270 18 44 13 3e a3 37 2c 3e 79 ae f6 3d aa 5f 91 bd
       0.14381444 0.16818099 0.12044997 -0.070983246
000280 31 05 97 3e 72 58 2f 3e bb 76 49 be ce ac 32 be
       0.29496148 0.17123583 -0.19674198 -0.17448732
000290 fb dd 38 bd fc 69 a9 bc 3d 06 a8 3e 20 99 7e 3c
       -0.045133572 -0.02068042 0.3281726 0.0155394375
0002a0 4d d4 5c bd d2 3a 70 be d4 73 4f 3d 37 23 2e 3e
       -0.053913403 -0.23459938 0.05064757 0.17005621
0002b0 17 7f 2e be b3 ce fa bd 30 4f d9 bd fd 71 de 3d
       -0.17040668 -0.12246456 -0.10610807 0.10861585
0002c0 0d 55 1f be b0 a0 1f 3d 86 b5 3c 3e 82 78 3a 3f
       -0.15559788 0.038971603 0.1842862 0.7284013
0002d0 8d 73 b4 bd d9 e5 eb 3f 64 38 7a 3e bf 72 79 be
       -0.08811102 1.8429519 0.24435574 -0.24360178
0002e0 0d d4 7e 3f f1 ab a1 3d c7 0c e0 3d 8e 23 c1 bb
       0.99542314 0.07894123 0.10939937 -0.005894131
0002f0 65 09 f6 bd 2f 7b 10 3e 3e b5 05 3d ca c8 3c 3d
       -0.120135106 0.14109491 0.03264355 0.046089925
000300 dd 20 9e 3d da c3 01 be 84 0d da bc 9c 9a 4b bb
       0.07721112 -0.12672368 -0.026617773 -0.0031067496
000310 a0 ce 2c 3e 9a 05 0d be c7 22 88 be 99 d9 03 3e
       0.16875696 -0.13771668 -0.26589033 0.12875976
000320 46 32 da bd a7 c2 8b 3c f5 f7 f7 3d 50 73 88 3d
       -0.1065412 0.01706059 0.12107841 0.06662619
000330 33 20 06 3d 02 db 95 3d 13 77 34 be 01 03 01 3e
       0.03274555 0.07317163 -0.17623548 0.12598802
000340 54 75 49 3d e1 3d fe bc cc 00 e1 3c 8e cc 8d 3e
       0.04918416 -0.031035366 0.0274662 0.27695125
000350 47 c4 19 3e 32 71 61 3e 16 0e 04 be 7b fa a2 3d
       0.1501628 0.22015837 -0.12895998 0.079579316
000360 d9 e0 9f 3e b8 40 23 be 17 5d b2 bd bf 05 2a 3e
       0.31226233 -0.15942657 -0.08709162 0.16603754
000370 df b6 34 3e a1 3b 01 be 4f 1a 66 3c cb 5a 52 3c
       0.17647885 -0.12620403 0.014044358 0.01283903
000380 a7 d3 12 be b5 38 56 3e 9b ea 36 3d e7 27 f1 bc
       -0.14338551 0.2092007 0.04465733 -0.029437972
000390 8c dd b7 bd c9 6a f5 3d ee eb b8 bd cf f1 d2 bd
       -0.089778036 0.11983258 -0.09029375 -0.103000276
0003a0 6c b7 1e bd 7b 7b ab bc 23 86 1c be 59 49 a9 bd
       -0.038749143 -0.020932904 -0.15285544 -0.08265943
0003b0 d0 c3 9a 3d 4d 7a 99 3d 68 0d 5c bd 64 4e 3e 3e
       0.075568795 0.0749403 -0.053723723 0.18584591
0003c0 5b e7 21 bf 45 7f e5 bd 73 ec ae 3e 75 79 7a 3c
       -0.63243645 -0.11205915 0.3416477 0.015287747
0003d0 75 67 0c be c2 92 86 3f 3e 12 be 3d e0 43 b0 be
       -0.1371134 1.0513537 0.09280823 -0.34426785
0003e0 97 ec 9d be fd 7c e2 bb 0d a9 d8 3e cc d1 c5 3d
       -0.30844566 -0.0069118724 0.42316476 0.09659156
0003f0 d6 2a fb bc 63 e3 16 be f7 61 f7 bc 53 a8 50 3d
       -0.030660074 -0.14735179 -0.03019808 0.050941776

encoder.4.bias f4 [32]
000000 bb cd 92 3d 34 9e e2 bc c5 3b 4a be 72 5d 1f 3e
       0.07168146 -0.027663328 -0.19749363 0.1556299
000010 f7 e1 1d 3e 7d 59 e7 3a d5 2b 82 3d e5 71 c2 bd
       0.1541823 0.0017650571 0.063560165 -0.0949438
000020 a1 9e c3 3d f0 26 70 3d ab 85 33 3e d6 a9 5a bb
       0.095517404 0.058630884 0.17531459 -0.003336539
000030 1c e3 e2 bd e5 1a b7 3d d6 4b ed bd 9e 8e 13 3e
       -0.11078474 0.089406766 -0.1158673 0.14409873
000040 03 a1 7a bd 4c 6b bc 3d 0e 25 7d bd 45 f0 18 3e
       -0.06118871 0.09200153 -0.061802916 0.14935406
000050 5a 74 22 be a6 f5 af 3d fd a1 02 be 0c b1 c6 bd
       -0.15864697 0.085917756 -0.12757106 -0.09701738
000060 9b 4d 83 bd 43 ff 16 bd 61 eb 3d bd 70 a6 42 3d
       -0.064112864 -0.03686453 -0.046367053 0.04752201
000070 0d 59 b8 3d e7 b0 82 bd f0 ff 06 be 86 24 fe 3d
       0.0900136 -0.06381398 -0.1318357 0.1240931

encoder.6.weight f4 [2, 32]
000000 7e 02 c2 3c bf c0 07 be fa df 1b be bb 78 95 bd
       0.023682829 -0.1325712 -0.15222159 -0.07298418
000010 ff fa 97 bc 3a 15 60 bd 8f 76 00 be 68 be ff be
       -0.018552301 -0.054707743 -0.12545227 -0.49949956
000020 15 d6 b1 3d 8a b4 e6 bd 61 22 a5 3d 62 a2 a0 be
       0.08683411 -0.11264904 0.08063198 -0.31373888
000030 1f dc 3b 3d c9 e7 6a 3e 85 8b de bd 3d d1 32 3d
       0.04586422 0.22939982 -0.10866455 0.043656576
000040 ad e9 35 3e 4f 3e a6 be 80 53 68 bd b1 bd 92 3d
       0.17764921 -0.32469413 -0.056720257 0.07165087
000050 2c 5f a2 bd 5f 22 3b 3d 79 ac 71 3c 02 f3 c5 bd
       -0.07928309 0.045687076 0.014750593 -0.09665491
000060 21 e8 e8 bb 70 63 70 be 1f f8 2e be 3c cd be bd
       -0.00710775 -0.23475432 -0.17086838 -0.09316489
000070 ca e9 e0 bd b3 73 ea 3d 07 d0 04 3d 41 51 d2 bd
       -0.10982092 0.11447849 0.032424953 -0.10269404
000080 a9 48 be 3d d8 84 c1 3d c9 cc f5 bd e0 f3 10 3e
       0.092912026 0.09449166 -0.1200195 0.14155531
000090 e9 e7 9e 3d 88 57 e6 3e 2c cf 3b 3e 09 e0 2f c0
       0.07759077 0.44988656 0.18340749 -2.748049
0000a0 bf dc 00 3e e7 c4 e0 3d 52 df c6 bc 71 df db 3c
       0.12584208 0.10975056 -0.02427641 0.026839944
0000b0 02 2c 0d bd 4e d9 b5 be 70 82 e3 3c 3e f6 57 bc
       -0.034465797 -0.35517353 0.027772158 -0.013181267
0000c0 d7 07 0a 3e da ec 61 3d b1 bc 07 3e 0c 31 52 be
       0.13479553 0.05515752 0.13255574 -0.20526522
0000d0 db e6 14 be 61 b4 23 3d 28 3f 41 3f 31 4e b9 bd
       -0.1454119 0.039966945 0.75486994 -0.09048117
0000e0 d6 e7 e4 bd 40 3e 0f 3e 37 a2 26 bc 33 79 2f 3d
       -0.11177032 0.1398859 -0.010170511 0.042840194
0000f0 3c b4 8f bd c9 f7 ee bc 7b c2 f9 3d 4b 61 31 3d
       -0.07016799 -0.029170888 0.12195297 0.043305676

encoder.6.bias f4 [2]
000000 54 90 5a bd de b7 82 bd
       -0.0533603 -0.06382726
