leslie_map_3d/experiments/learning/sweeps/sweep_005/morals_batch/run_02/models/encoder.pt (torch, 12493 bytes, 8 tensors)

encoder.0.weight f4 [32, 3]
0	0xbf01be7f	-0.506813
1	0xbe27195a	-0.16318265
2	0x3ea3a885	0.31964508
3	0x3f085925	0.53261024
4	0xbe175385	-0.14777954
5	0xbd531da6	-0.051541947
6	0x3e9066d2	0.28203446
7	0x3e9643c4	0.29348576
8	0xbebbac2d	-0.36654797
9	0xbf112a60	-0.56705284
10	0xbe93295c	-0.28742492
11	0x3dbaf0f6	0.09127991
12	0xbef40b25	-0.47664753
13	0xbd881a39	-0.066456266
14	0xbd29ac27	-0.041423943
15	0xbdcd8fda	-0.10037203
16	0x3cb9ca8c	0.02267959
17	0xbe8d3226	-0.27577323
18	0x3cdaea46	0.026723038
19	0xbf399b45	-0.7250255
20	0xbe82309f	-0.2542772
21	0x3df86540	0.12128687
22	0xbeff6c48	-0.498873
23	0x3e95a46d	0.2922701
24	0x3c6af113	0.014339703
25	0x3f218a24	0.6310141
26	0xbf423d40	-0.7587471
27	0xbf30906e	-0.6897038
28	0xbed72544	-0.4202062
29	0xbdfe4b79	-0.12416739
30	0xbf41f6ae	-0.7576703
31	0xbecd4bc5	-0.4009687
32	0xbe2ff938	-0.17184913
33	0x3e4d0d3a	0.20024577
34	0xbeb8ae79	-0.36070612
35	0x3c4f98cd	0.012670708
36	0xbf5b5b2a	-0.8568598
37	0xbf52971b	-0.8226182
38	0x3cfc9d54	0.030836739
39	0xbea1d1d4	-0.316054
40	0x3f013878	0.5047679
41	0x3d247782	0.040153034
42	0x3f1cb468	0.6121278
43	0xbf8e0c45	-1.1097494
44	0xbe89d5d3	-0.26920947
45	0xbfb8e8af	-1.4446009
46	0x3f30d3e3	0.69073313
47	0xbe86727a	-0.26259214
48	0x3e06cc45	0.1316386
49	0x3f06a085	0.52588683
50	0xbf607db2	-0.87691796
51	0xbf76866e	-0.96298873
52	0xbf6c254e	-0.9224442
53	0x3d10fa25	0.035394806
54	0x3e428ed3	0.18999796
55	0x3ec23760	0.37932873
56	0x3de855e3	0.113445066
57	0x3e31a888	0.17349446
58	0xbe4987cd	-0.1968071
59	0xbd9d7aff	-0.07689475
60	0xbe0504cf	-0.12990116
61	0x3e7d1dce	0.24718401
62	0xbf08b60a	-0.5340277
63	0x3f027a31	0.509677
64	0x3e9bc99b	0.3042725
65	0xbf19465c	-0.59872985
66	0xbf23407a	-0.6377026
67	0x3edfa94f	0.4368386
68	0xbe4a31ad	-0.19745512
69	0xbf051439	-0.5198398
70	0xbf21b936	-0.63173234
71	0xbe3f653a	-0.18690959
72	0x3eed0750	0.46294641
73	0x3e723e1f	0.2365651
74	0x3f147eb8	0.5800586
75	0x3f159d76	0.5844339
76	0x3e9e669c	0.3093766
77	0x3ef5d648	0.48015046
78	0xbde7283e	-0.112869725
79	0x3f038d1e	0.513872
80	0x3b61e5f1	0.003446933
81	0x3ed76cd6	0.42075223
82	0xbe4fed01	-0.20305254
83	0xbe3de68e	-0.18544981
84	0xbe9e5d47	-0.3093054
85	0x3e0051a6	0.12531146
86	0x3e877147	0.2645361
87	0x3f1508f4	0.58216786
88	0x3e20b4dc	0.15693992
89	0x3ce4c326	0.027925085
90	0x3e2c5eb9	0.16833009
91	0xbe5e9af2	-0.21738794
92	0xbf21ffc4	-0.6328089
93	0x3eb6231d	0.35573664
94	0xbe356630	-0.17714763
95	0xbf93a831	-1.1535703

encoder.0.bias f4 [32]
0	0x3f06d50f	0.5266885
1	0x3e175e0b	0.14781968
2	0x3ecbbfb6	0.397947
3	0xbe3ca92c	-0.18423909
4	0xbed691d3	-0.4190813
5	0xbeb64581	-0.35599902
6	0x3e8e648c	0.27811086
7	0xbf0eb34a	-0.55742323
8	0xbdc5e4c2	-0.09662773
9	0x3e6455b5	0.2229832
10	0x3df51a97	0.11967962
11	0xbf0183cf	-0.5059175
12	0x3e8acc7c	0.27109134
13	0xbf01f123	-0.5075857
14	0xbe6ea682	-0.23305705
15	0xbda76b17	-0.08174723
16	0x3d3d7fab	0.04626433
17	0x3e9bbdef	0.30418345
18	0x3ea5b95e	0.32367986
19	0xbed1327f	-0.40858838
20	0x3ef5c691	0.48003057
21	0xbec25a83	-0.3795968
22	0x3d8c7c4f	0.068596475
23	0x3f1c8cb1	0.6115218
24	0xbe179d8c	-0.14806193
25	0xbf0583cf	-0.5215425
26	0xbedf6e06	-0.4363863
27	0x3edcca77	0.43123218
28	0x3d9bb931	0.07603682
29	0xbd503819	-0.05083475
30	0x3e82ada1	0.25523093
31	0x3db982da	0.09058161

encoder.2.weight f4 [32, 32]
0	0x3bbe1dca	0.005801891
1	0xbc6c8aa9	-0.014437356
2	0x3d061ffa	0.03274534
3	0x3e1aba15	0.15110047
4	0xbe03398b	-0.1281492
5	0xbd3592ca	-0.044329442
6	0xbce7e18b	-0.02830579
7	0xbd093cfa	-0.033505417
8	0x3ebd5b78	0.36983848
9	0xbe1830d0	-0.1486237
10	0xbd2355a2	-0.039876588
11	0xbd668fed	-0.056289602
12	0xbc8483c8	-0.01617612
13	0x3db3308b	0.08749493
14	0x3d8bf1c1	0.0683322
15	0xbce41169	-0.027840333
16	0x3e459e63	0.19298701
17	0x3d77a2e2	0.06045807
18	0x3be3458d	0.0069357813
19	0x3dea2ee9	0.11434729
20	0x3be0727b	0.0068495846
21	0x3ebcba5c	0.3686093
22	0xbe525566	-0.2054039
23	0xbd74add8	-0.059736103
24	0x3e833c52	0.25631958
25	0xbd1f5398	-0.03889808
26	0xbe44eb87	-0.19230472
27	0xbda7912a	-0.08181985
28	0xbcf0d5cf	-0.029398827
29	0x3ce25d4b	0.027632376
30	0xbe6b0a8f	-0.22953247
31	0x3d974d99	0.073878475
32	0x3d98d833	0.07463112
33	0xbc83c596	-0.016085427
34	0xbd85bd4c	-0.06530246
35	0xbe0e39dc	-0.13889259
36	0x3d710119	0.058838937
37	0x3de579ae	0.11204849
38	0x3e28d4c9	0.16487421
39	0x3cda9474	0.026682116
40	0x3eafee11	0.34361318
41	0xbc8d443c	-0.01724445
42	0xbee7cee9	-0.45275047
43	0x3dafe799	0.085890956
44	0x3e92e031	0.2868667
45	0x3e2b37bc	0.1672048
46	0x3e627d81	0.22118188
47	0x3dafa953	0.08577218
48	0x3e3beb56	0.18351492
49	0x3c917398	0.017755315
50	0x3db5fa18	0.08885592
51	0xbcef2570	-0.029192656
52	0x3dcc7ec4	0.09985116
53	0xbe686fd8	-0.22698915
54	0x3e57c0d1	0.21069647
55	0xbe013188	-0.12616551
56	0x3e9eb525	0.30997577
57	0xbe2fe89a	-0.17178574
58	0x3ee32794	0.44366133
59	0x3bb971dc	0.005659325
60	0xbdd578ca	-0.10423429
61	0xbe105a94	-0.14097053
62	0x3c9b3ca8	0.018949822
63	0xbd5dcaf2	-0.05414862
64	0x3c08c898	0.0083486065
65	0xbdc6319a	-0.096774295
66	0x3bddd72a	0.0067700343
67	0xbc194eb9	-0.009357148
68	0x3d562c38	0.052288264
69	0x3da76f17	0.081754856
70	0xbdf6a3ee	-0.12042986
71	0x3da34ddd	0.079738356
72	0xbe19802a	-0.14990297
73	0xbd94d3d5	-0.07266966
74	0x3ddb8740	0.10719156
75	0xbd1328a3	-0.035927426
76	0x3dc427c5	0.09577898
77	0x3e08f803	0.13375859
78	0xbe14b679	-0.14522733
79	0x3e198976	0.14993843
80	0xbe1f61f7	-0.15564714
81	0xbe0a1927	-0.13486157
82	0xbde95ec9	-0.11395032
83	0x3da9190b	0.0825673
84	0x3ddd0234	0.10791436
85	0xbe2f1d11	-0.17100932
86	0x3d8ca9b3	0.06868305
87	0x3d82f1d1	0.06393779
88	0xbdb72728	-0.08943015
89	0x3d814701	0.06312371
90	0xbe0589ab	-0.13040797
91	0x3e2912d1	0.16511084
92	0xbdc09e44	-0.09405187
93	0x3d96084d	0.07325802
94	0xbd47b7ce	-0.048759274
95	0xbdac0d60	-0.084009886
96	0xbe3a8940	-0.18216419
97	0xbd6b93d8	-0.05751404
98	0x3ac3353c	0.0014893184
99	0x3e26ff2f	0.16308282
100	0xbd23a22d	-0.039949585
101	0xbbc7b94d	-0.0060950876
102	0xbf8dfb26	-1.109227
103	0x3ccdf25e	0.025139984
104	0x3e9b2215	0.3029944
105	0xb998ecd7	-0.0002916816
106	0xbd21b99f	-0.039483663
107	0xbd8186e1	-0.06324554
108	0xbe38b376	-0.18037209
109	0x3dcd83ca	0.100349024
110	0xbd4b07f3	-0.049568128
111	0xc0001233	-2.0011108
112	0x3efb54f2	0.49088246
113	0xbd736075	-0.05941816
114	0x3e03a173	0.12854557
115	0xbd76068d	-0.06006484
116	0xbdf37bdd	-0.118888594
117	0x3f80c9fe	1.0061643
118	0x3d99ec58	0.07515782
119	0xbffa9d5d	-1.9579273
120	0x3e0f79ea	0.1401135
121	0xbebe7272	-0.3719669
122	0xbd4ff49e	-0.050770395
123	0xbdb64a28	-0.08900863
124	0x3c77201b	0.015083338
125	0x3e23c918	0.1599468
126	0xbc93e618	-0.018054053
127	0xbef08ed3	-0.46983966
128	0xbd2d6b0e	-0.042338423
129	0x3d0679df	0.03283107
130	0x3cac4229	0.021027641
131	0xbdbabbe9	-0.09117872
132	0xbd32c048	-0.043640405
133	0xbe29f8e9	-0.16598858
134	0xbeceac89	-0.4036601
135	0x3e1a3c33	0.15062027
136	0x3e0d5f65	0.13805921
137	0xbe2da89e	-0.16958854
138	0xbea0a873	-0.31378517
139	0x3dff8653	0.12476792
140	0xbdad7888	-0.08470255
141	0x3d1f7c5b	0.038936954
142	0x3d772c99	0.060345266
143	0xbe827ad7	-0.25484344
144	0x3da90a81	0.082539566
145	0xbdc96c47	-0.098351054
146	0x3d562678	0.05228278
147	0xbd27a63e	-0.040930025
148	0x3d201e7a	0.039091565
149	0x3de98d1a	0.11403866
150	0xbe67a7b9	-0.22622575
151	0x3d858d35	0.06521074
152	0xbd9aea07	-0.075641684
153	0xbe64ac90	-0.22331452
154	0x3dbda962	0.09260823
155	0x3de5be83	0.11217978
156	0x3dfb99d3	0.12285199
157	0xbdb3f84d	-0.08787594
158	0xbdfd3d11	-0.12365163
159	0xbe6d2569	-0.23158802
160	0xbdcd7d4c	-0.10033664
161	0x3dc3c54f	0.09559118
162	0x3dbeb50b	0.09311875
163	0x3df49fb2	0.11944522
164	0xbde1e616	-0.110302135
165	0x3ddb4899	0.10707206
166	0xbda03e43	-0.078243755
167	0xbdac3501	-0.08408547
168	0xbe73b398	-0.23798978
169	0x3dc3b179	0.095553346
170	0x3f173ca0	0.5907688
171	0x3cbc4f89	0.022987144
172	0x3c154224	0.009110007
173	0x3bfae9d2	0.007657268
174	0x3eb710a4	0.35754883
175	0xbf25ca57	-0.6476187
176	0xbdd15d06	-0.10222821
177	0x3c1c8129	0.009552279
178	0xbdefa456	-0.117012665
179	0x3e0b3989	0.13596167
180	0x3db665f8	0.08906168
181	0xbe77c9d3	-0.24198084
182	0xbde21424	-0.11038998
183	0x3ca0e73f	0.019641517
184	0xbca9aa7f	-0.020711182
185	0x3e1be929	0.15225662
186	0x3dd298c4	0.10283044
187	0xbd91a5e2	-0.07111718
188	0x3d43920d	0.047746707
189	0xbcb47aa7	-0.022031141
190	0xbe44fe9c	-0.19237751
191	0x3ed86468	0.42264104
192	0xbe01620c	-0.12635058
193	0x3db80299	0.089848705
194	0xbe2d6294	-0.16932136
195	0xbcad80bc	-0.02117955
196	0xbe298faf	-0.16558717
197	0x3d85a52a	0.06525643
198	0xbe40b2b8	-0.18818176
199	0xbc040239	-0.008057171
200	0x3e107769	0.14108051
201	0xbe9d485c	-0.30719268
202	0x3f22ce63	0.6359617
203	0x3da2c3cd	0.07947502
204	0x3e735d27	0.23766004
205	0x3d652dcc	0.05595188
206	0xbe6f2352	-0.23353317
207	0x3e9dec24	0.30844223
208	0x3d352513	0.04422481
209	0x3ed72201	0.4201813
210	0x3daed59f	0.08536839
211	0x3cd3bcfe	0.025846954
212	0xbd8b61ca	-0.06805761
213	0xbef7112c	-0.4825529
214	0x3c563d5a	0.013076151
215	0x3c9bb411	0.01900676
216	0x3e1763e4	0.14784199
217	0xbdb80da2	-0.08986975
218	0xbed6fb0b	-0.41988406
219	0xbc28fa54	-0.010313589
220	0x3d45f5fd	0.048330296
221	0x3e8495d1	0.2589555
222	0xbe074ef7	-0.13213716
223	0xbfa544f0	-1.2911663
224	0xbddd47c9	-0.108047076
225	0xbcd1bc99	-0.025602626
226	0x3d634f31	0.055495445
227	0xbe1b4439	-0.15162744
228	0x3cd6a977	0.026203854
229	0xbca09fc3	-0.01960743
230	0xbdbab56b	-0.09116634
231	0xbd2cadb0	-0.04215783
232	0x3e3a9928	0.18222487
233	0xbe2f2888	-0.17105305
234	0x3e705ff4	0.23474103
235	0xbbb44b55	-0.0055021443
236	0x3dabf56c	0.0839642
237	0x3c9aa6f1	0.018878432
238	0xbe4f4216	-0.20240054
239	0x3df06995	0.11738888
240	0x3e59ef34	0.21282655
241	0x3e81c15b	0.2534283
242	0x3dfd9480	0.1238184
243	0x3d8150ed	0.063142635
244	0x3d1e4e74	0.038649037
245	0x3ef87bcd	0.48531953
246	0xbe75535b	-0.23957579
247	0xbe0200db	-0.12695639
248	0x3de46347	0.11151748
249	0x3d798a8e	0.06092315
250	0x3eb1ed46	0.34751338
251	0xbded0522	-0.11573245
252	0xbe533a7a	-0.20627776
253	0x3cf99537	0.030466659
254	0x3da241c0	0.07922697
255	0xbeb6ed84	-0.35728085

encoder.2.bias f4 [32]
0	0x3dce4a19	0.10072727
1	0xbd3c69a5	-0.045999188
2	0xbda4b3ad	-0.08042083
3	0x3cf6fed5	0.03015081
4	0x3dfae6a1	0.1225102
5	0x3dca2dc8	0.09872013
6	0x3e14df4f	0.1453831
7	0x3de304a7	0.11084872
8	0xbdcf1d74	-0.101130396
9	0xbde8b5ba	-0.113627866
10	0xbe38be1a	-0.18041268
11	0x3d9f6a16	0.07783906
12	0xbda5af9d	-0.08090136
13	0x3d2d3d28	0.04229465
14	0xbde58fc1	-0.112090595
15	0xbd0d5236	-0.03450223
16	0x3db7a1a4	0.089663774
17	0x3e1188e8	0.14212382
18	0x3e5190ca	0.20465389
19	0xbd9926b0	-0.07478082
20	0x3e2176f0	0.15768027
21	0x3d0f2585	0.03494789
22	0x3d2eeac6	0.042704366
23	0xbd6be2a2	-0.05758918
24	0x3e07c077	0.13257013
25	0x3e16682a	0.14688173
26	0xbc58e8f6	-0.013239136
27	0xbe06a0a6	-0.1314722
28	0x3b0cb9fa	0.0021473155
29	0xbdb4b194	-0.08822933
30	0x3daed8eb	0.085374676
31	0x3d5f6312	0.05453784

encoder.4.weight f4 [32, 32]
0	0x3d3e3f6d	0.046447206
1	0x3daf9279	0.08572859
2	0x3e2ccdfe	0.16875455
3	0x3f894b2c	1.0726066
4	0xbde9f1f8	-0.11423105
5	0xbe0620fc	-0.1309852
6	0xbe711cf6	-0.23546204
7	0x3c953e2e	0.018218126
8	0x3e121901	0.1426735
9	0xbe2199f6	-0.15781388
10	0xbd74d312	-0.059771605
11	0x3e8709f6	0.26374787
12	0xbcaab3f3	-0.02083776
13	0x3d97e43e	0.074165806
14	0x3e085639	0.13314141
15	0xbbed847f	-0.007248461
16	0x3e0a95b3	0.13533668
17	0xbc225bce	-0.009909583
18	0x3e643697	0.2228645
19	0x3d7d90aa	0.06190554
20	0x3e64ddde	0.2235026
21	0xbdd80ad7	-0.105489425
22	0xbc9fae98	-0.019492432
23	0xbe5eb327	-0.21748029
24	0xbe3f343d	-0.18672271
25	0x3daf0d67	0.08547478
26	0xbcf10d4a	-0.029425282
27	0xbe14fdb3	-0.14549904
28	0x3e275b1e	0.16343352
29	0x3efbfae3	0.4921485
30	0xbd8d19c8	-0.06889683
31	0x3e27d145	0.16388424
32	0x3da01d26	0.078180596
33	0xbce14720	-0.027499735
34	0x3d547065	0.051865
35	0xbf203728	-0.6258416
36	0x3d1c5cbd	0.03817438
37	0x3ddb76a9	0.10715992
38	0xbe10d1b8	-0.14142501
39	0xbe0d8e2f	-0.1382377
40	0xbcc2f883	-0.02380014
41	0x3d38691e	0.045022123
42	0x3d7e4e48	0.062086374
43	0x3e3a3870	0.18185592
44	0xbca934c9	-0.020655053
45	0xbea438ac	-0.32074487
46	0x3df0c184	0.1175566
47	0xbd9c9a77	-0.07646649
48	0xbdc6c444	-0.097054034
49	0xbd44e993	-0.048074316
50	0x3df852b3	0.121251486
51	0x3d67c582	0.056584843
52	0x3e3b2609	0.18276228
53	0xbddb95db	-0.10721942
54	0xbe0eb903	-0.13937764
55	0x3e26ef9e	0.16302344
56	0xbd68314b	-0.056687634
57	0x3de30bb3	0.11086216
58	0x3dfdcf06	0.12393002
59	0xbe0b48e0	-0.13602018
60	0x3bef0304	0.0072940607
61	0x3ead1581	0.3380547
62	0x3d247610	0.040151656
63	0x3e037f80	0.12841606
64	0x3e159e48	0.14611161
65	0xbb39c97a	-0.002834885
66	0xbdb87b5a	-0.090079024
67	0x3f8a148a	1.0787518
68	0xbdf08ca7	-0.11745577
69	0xbe10f810	-0.14157128
70	0xbee0b19f	-0.43885514
71	0x3dce4b25	0.100729264
72	0xbd868904	-0.065691024
73	0x3dcc52ed	0.09976754
74	0x3d0d3de4	0.03448285
75	0x3da30316	0.07959573
76	0x3e31189c	0.17294544
77	0x3d7cbeb5	0.06170531
78	0x3dddd1a8	0.108310044
79	0xbe037e46	-0.12841138
80	0xbe0b8a26	-0.13626918
81	0xbe2b0a1a	-0.16703072
82	0x3e746db6	0.23869976
83	0xbdb295f5	-0.08720008
84	0xbead3cfa	-0.33835584
85	0x3dc99d15	0.09844414
86	0xbd76b81a	-0.060234167
87	0xbbfe0e6a	-0.007753183
88	0xbe2a9f87	-0.16662417
89	0x3c6e2bac	0.014536779
90	0xbd7abebe	-0.061217062
91	0xbdfa14e2	-0.12211014
92	0x3c7f5750	0.015584782
93	0x3ed8ea2c	0.4236616
94	0x3d3b6355	0.045749027
95	0xbe5c4ed3	-0.21514444
96	0xbd933476	-0.071877405
97	0x3d101e12	0.035184927
98	0x3d3e03a9	0.04639021
99	0xbe00e44d	-0.1258709
100	0x3dd84f37	0.10561984
101	0xbe21bf87	-0.15795718
102	0x3d3ee80e	0.046608023
103	0x3c89dc7b	0.016828766
104	0x3cbcc6b8	0.023043975
105	0x3decd32d	0.11563716
106	0x3df48790	0.11939919
107	0x3cc01c9b	0.02345114
108	0x3d282e40	0.041059732
109	0xbde56b01	-0.1120205
110	0xbda252f4	-0.07925978
111	0xbe22373e	-0.15841386
112	0x3c442efb	0.011974092
113	0x3def2ffb	0.116790734
114	0xbd1472f4	-0.03624244
115	0xbd7e5522	-0.062092908
116	0x3e2ba46a	0.16761938
117	0xbcf1e88e	-0.029529836
118	0xbd7c1ffa	-0.061553933
119	0x3d1913e2	0.037372477
120	0x3cfd7a8e	0.030942228
121	0x37ddbdec	2.6433692e-05
122	0xbdbea6af	-0.09309136
123	0xbd969cc7	-0.07354122
124	0x3dac5bb6	0.0841593
125	0x3ba1ed3d	0.004941611
126	0x3df15a48	0.11784798
127	0xbbe5bb31	-0.0070108403
128	0x3d98df6e	0.07464491
129	0xbcd8ae23	-0.026450222
130	0xbd62584b	-0.055259984
131	0x3ea917a1	0.3302584
132	0x3da4483e	0.080215916
133	0xbe2ceb54	-0.16886646
134	0x3d22170e	0.039572768
135	0xbd9f6754	-0.0778338
136	0x3d642c43	0.055706274
137	0x3d766fd6	0.06016525
138	0x3d8960ed	0.0670794
139	0x3e9d4f35	0.30724493
140	0xbe1ccad1	-0.15311743
141	0xbe02e356	-0.12782034
142	0xbd916365	-0.07099036
143	0xbdd4b26f	-0.10385596
144	0x3e14cc09	0.14530958
145	0x3dadb87c	0.08482453
146	0x3ea6e5a2	0.3259707
147	0x3d229b1b	0.0396987
148	0x3eb52619	0.3538063
149	0xbd1d6b43	-0.03843237
150	0x3e02686d	0.12735148
151	0x3ddead0f	0.10872852
152	0xbce21639	-0.027598487
153	0xbdcbe57d	-0.09955881
154	0xbcbaf715	-0.022822896
155	0xbe24a8af	-0.16079973
156	0x3d075a0a	0.033044852
157	0x3e19bf75	0.15014441
158	0xbdee9500	-0.11649513
159	0xbdca46df	-0.09876799
160	0xbe03fdf3	-0.12889843
161	0xbe20d627	-0.15706693
162	0x3db105bc	0.08643672
163	0xbafd9c6c	-0.0019348986
164	0xbb9d3f12	-0.0047987783
165	0xbcdd0773	-0.026981091
166	0xbe0d0b56	-0.13773856
167	0xbd99bfa9	-0.075072594
168	0x3dffbbe9	0.12487013
169	0xbdcc4807	-0.099746756
170	0xbcfe4ebf	-0.031043408
171	0xbbe1dae4	-0.006892549
172	0xbdd8a3d5	-0.105781235
173	0x3c929348	0.017892495
174	0x3e30e3aa	0.17274347
175	0x3d79023f	0.060793158
176	0xbe3460f4	-0.1761511
177	0x3e02631e	0.12733123
178	0x3ddcf4fe	0.10788916
179	0xbe0be8cf	-0.13663028
180	0x3db05748	0.086103976
181	0x3d90e144	0.07074216
182	0x3c7122c6	0.014717763
183	0xbe17ef46	-0.1483737
184	0xbe0036d6	-0.12520918
185	0xbe068553	-0.13136797
186	0xbe02a505	-0.12758262
187	0xbbdae9bf	-0.0066806967
188	0xbd98652c	-0.07441172
189	0x3da77e3d	0.08178375
190	0xbda4b64d	-0.080425836
191	0x3da682ac	0.081303924
192	0xbe19b2a2	-0.1500955
193	0x3e4e0e17	0.20122562
194	0x3ce50d2a	0.027960379
195	0xbfce74e7	-1.6129426
196	0x3e1f7f9d	0.15576024
197	0xbdf39285	-0.11893181
198	0x3d5e6b5e	0.054301612
199	0xbe03885e	-0.12844989
200	0x3e245188	0.16046727
201	0x3d517f56	0.051146828
202	0x3e074b1d	0.13212247
203	0x3c26b14e	0.010174109
204	0x3c3118ae	0.010809107
205	0xbf023b92	-0.5087215
206	0xbd88732f	-0.066625945
207	0x3dafdf95	0.08587567
208	0xbe3e7a4b	-0.18601339
209	0xbd8b57cf	-0.068038575
210	0x3e1a3c60	0.15062094
211	0xbdc5531b	-0.09634992
212	0x3eb6ec9f	0.35727403
213	0xbcf3f20f	-0.029778508
214	0x3da557fc	0.08073422
215	0xbe25aa78	-0.1617831
216	0x3dba89ae	0.091082916
217	0xbe15897c	-0.14603227
218	0x3d572677	0.052526917
219	0xbe1eb7bc	-0.15499777
220	0xbdc2edb0	-0.095179915
221	0x3eaec1e8	0.34132314
222	0xbd81b0d9	-0.06332559
223	0x3d64880b	0.055793803
224	0xbe202a4b	-0.15641133
225	0xbdd82334	-0.105535895
226	0xbe16dfae	-0.14733765
227	0x3dd80204	0.105472594
228	0xbe05a1bd	-0.1304998
229	0xbd8d6997	-0.06904905
230	0xbb9ed43b	-0.004847077
231	0xbd8a8d7e	-0.06765269
232	0x3d4e4dea	0.050367273
233	0xbd942c53	-0.07235017
234	0x3d14dd6e	0.036343984
235	0xbdb22882	-0.086991325
236	0xbe04cf2b	-0.12969653
237	0xbe34de3e	-0.17662904
238	0xbde9af93	-0.11410441
239	0xbe2e22ab	-0.17005412
240	0xbd1af6f2	-0.03783316
241	0xbd9910ff	-0.07473945
242	0x3daf83bb	0.085700475
243	0xbdba3a47	-0.09093147
244	0xbd9f7b1b	-0.077871524
245	0x3e2925a1	0.1651826
246	0xbc9fa956	-0.019489925
247	0xbd8df8a6	-0.069321916
248	0xbd97c067	-0.07409745
249	0xbe220c18	-0.15824926
250	0x3db73689	0.08945949
251	0xbd1f4273	-0.03888173
252	0xbd2b0522	-0.041752942
253	0x3dc24dc2	0.094874874
254	0x3dcae67c	0.09907243
255	0xbcc892c7	-0.024484051

encoder.4.bias f4 [32]
0	0x3dfbf30a	0.123022154
1	0xbbcc51e5	-0.0062353485
2	0x3e1532d2	0.14570168
3	0x3df1a060	0.11798167
4	0x3c0bfc08	0.008543976
5	0xbcd7ba13	-0.026333844
6	0x3d5a1623	0.053243767
7	0xbe0a5bbe	-0.1351156
8	0xbe596292	-0.21229008
9	0xbd469a34	-0.048486903
10	0xbd0bd452	-0.03413803
11	0x3dce5f36	0.10076754
12	0x3e0e8e22	0.13921407
13	0x3d2e515c	0.04255806
14	0xbde634a2	-0.11240508
15	0x3da5cb01	0.080953605
16	0x3d9acf75	0.075591005
17	0xbccfbceb	-0.025358638
18	0x3dc6da9e	0.09709667
19	0x3e0e64f8	0.13905704
20	0xbd876171	-0.06610382
21	0xbddc0c71	-0.107445605
22	0x3bcd09ba	0.006257263
23	0x3dfe4e97	0.124173336
24	0x3d8c2200	0.068424225
25	0xbd104589	-0.035222564
26	0xbdddf55e	-0.10837816
27	0xbe3bbc24	-0.18333489
28	0xbe4d9159	-0.20074977
29	0x3c368ae7	0.011141515
30	0xbe2a8a18	-0.16654241
31	0x3e0418af	0.12900041

encoder.6.weight f4 [2, 32]
0	0xbdb9513a	-0.09048696
1	0xbd30622d	-0.043062378
2	0xbe10a1e0	-0.1412425
3	0xbe072604	-0.13198096
4	0xbdc52027	-0.09625273
5	0x3c2d7594	0.010587115
6	0xbdf50385	-0.11963562
7	0xbd86e989	-0.06587512
8	0xbe69455d	-0.22780366
9	0x3e5901d3	0.21192102
10	0xbb8862dc	-0.0041621756
11	0xbdffe6a4	-0.12495163
12	0xbe1528bf	-0.14566325
13	0x3f772abb	0.96549577
14	0xbdcc4615	-0.099743046
15	0x3d45d782	0.048301227
16	0x3e32c153	0.1745656
17	0xbdba2ead	-0.09090934
18	0xbdbc6fe6	-0.092010304
19	0xbe07452e	-0.13209984
20	0x3e9d8b82	0.307705
21	0xbe8c9da3	-0.27464017
22	0xbe554fd0	-0.20831227
23	0x3e2cf746	0.16891202
24	0x3da72ae7	0.0816248
25	0x3d1715d6	0.03688606
26	0xbd2e241f	-0.042514917
27	0xbdc17fdf	-0.094482176
28	0x3ee6052b	0.44925818
29	0xbc5b2d0a	-0.013377437
30	0x3d8e4ec8	0.0694862
31	0x3e34c26f	0.17652296
32	0x3dd9156d	0.1059979
33	0xbc93c7ca	-0.018039603
34	0x3d8760b5	0.06610242
35	0xbd8a6385	-0.06757263
36	0x3d07ac4a	0.033123292
37	0xbc085854	-0.00832184
38	0x3d1eb460	0.038746238
39	0xbd2f3d9e	-0.042783372
40	0x3e5d7c48	0.21629441
41	0x3eb700f4	0.35742915
42	0x3e8ebfe8	0.27880788
43	0xbe3ca578	-0.18422496
44	0xbc3df1a7	-0.011593259
45	0xbd96e487	-0.07367807
46	0xbdd3a0cf	-0.10333406
47	0x3e09607a	0.13415709
48	0xbccb45f5	-0.024813632
49	0x3bb52bfe	0.005528926
50	0xbd1757fa	-0.036949135
51	0x3ce12d84	0.027487524
52	0xbec4cbfb	-0.38436875
53	0xbe7e259b	-0.24819033
54	0x3e7d7d4a	0.24754825
55	0xbe8d2ad7	-0.27571747
56	0x3d142e68	0.03617707
57	0xbc743b44	-0.014906708
58	0xbdd424cb	-0.1035858
59	0xbdaa4b8d	-0.083151914
60	0x3eb0a3ec	0.34500062
61	0x3e511408	0.20417798
62	0xbd2f8e34	-0.042860225
63	0x3e14a519	0.14516105

encoder.6.bias f4 [2]
0	0x3d16ab81	0.036784653
1	0xbd8a87a5	-0.067641534
