leslie_map_3d/experiments/learning/sweeps/sweep_005/morals_batch/run_08/models/encoder.pt (torch, 12493 bytes, 8 tensors)

encoder.0.weight f4 [32, 3]
0.2068112 -0.6283767 -0.52357143 -0.02483823 0.55790335 -0.38391247 0.758176 -0.66724664
-0.32141915 0.23606807 0.0047296896 -0.007972266 -0.05648674 0.4486656 -0.050167076 -0.9182058
0.4913543 0.19916724 0.7496682 -0.012337885 0.30437323 0.21071684 -0.7025804 0.06586937
0.037423432 0.16535044 -0.41886017 0.5700463 0.16453305 -0.7532127 -0.51373565 -0.2724985
-0.6439784 0.1193503 0.28507122 0.20313236 -0.2856784 -0.5631118 -0.3047931 -0.8592684
-0.23847847 -0.43591532 0.6213907 0.653423 -0.07586735 -0.28875613 -0.43500665 0.08697026
0.18710805 0.3073078 0.5493943 0.6203725 -0.46658772 0.5525885 0.21200468 0.19018568
-0.09768825 0.50360733 -0.40177625 0.45389044 0.0684211 0.3497956 0.42622566 -0.09979782
0.5012433 -0.2102406 -0.9444771 0.6632723 0.009426744 0.4828277 0.24233964 0.19300535
0.24794488 0.81607693 0.55692875 0.3446145 0.711224 0.20537624 0.21395391 0.4651089
0.40805656 0.55509776 0.018627323 -0.027681652 -0.35116154 -0.3419655 0.655247 0.14602117
-0.55286485 -0.38975936 0.27081475 0.1747006 0.11770965 0.18031259 0.41321906 -0.18899554
00000000: 51c6 533e 4cdd 20bf c708 06bf 8b79 cbbc
00000010: c1d2 0e3f 2d90 c4be d317 423f add0 2abf
00000020: 0d91 a4be d4bb 713e 83fb 9a3b 1b9e 02bc
00000030: a45e 67bd 7fb7 e53e fe7b 4dbd 890f 6bbf
00000040: ca92 fb3e 7ff2 4b3e 41ea 3f3f d724 4abc
00000050: cfd6 9b3e 28c6 573e 4fdc 33bf 85e6 863d
00000060: 5049 193d a051 293e d774 d6be 8eee 113f
00000070: 5a7b 283e 8cd2 40bf 2e84 03bf ec84 8bbe
00000080: c5db 24bf ee6d f43d dbf4 913e ee01 503e
00000090: 7044 92be 1828 10bf d70d 9cbe 04f9 5bbf
000000a0: b333 74be 4b30 dfbe 7613 1f3f bb46 273f
000000b0: 5760 9bbd d8d7 93be 31b9 debe 771d b23d
000000c0: 4199 3f3e 7357 9d3e 1ba5 0c3f bbd0 1e3f
000000d0: 96e4 eebe 7176 0d3f c117 593e 09c0 423e
000000e0: c710 c8bd 69ec 003f 9eb5 cdbe 5464 e83e
000000f0: 5d20 8c3d 6918 b33e 403a da3e cd62 ccbd
00000100: 7b51 003f 5049 57be 40c9 71bf 37cc 293f
00000110: a172 1a3c 3135 f73e e227 783e 32a3 453e
00000120: 43e5 7d3e 6bea 503f e292 0e3f 5071 b03e
00000130: c712 363f 264e 523e bc16 5b3e c122 ee3e
00000140: caec d03e e31a 0e3f 5498 983c a2c4 e2bc
00000150: 72cb b3be 1a16 afbe 44be 273f 9386 153e
00000160: 8d88 0dbf 8a8e c7be 3ba8 8a3e b7e4 323e
00000170: c211 f13d dda3 383e 7391 d33e 0c88 41be

encoder.0.bias f4 [32]
0.32986057 0.32695377 0.09249929 -0.31635222 -0.45021883 0.1290722 -0.028136317 0.119831175
0.32614377 0.0022160436 0.24815151 0.056400992 -0.011408724 0.32545367 -0.4384102 -0.35696703
-0.021467812 -0.31418222 -0.36664763 0.3721453 -0.011816361 -0.5585976 -0.0013226868 -0.1632177
-0.5167644 0.090139955 0.26851422 0.39695957 0.07433323 -0.42393702 0.29650873 0.12902527
00000000: 7ce3 a83e 7c66 a73e 4570 bd3d ebf8 a1be
00000010: 1583 e6be 812b 043e 227e e6bc 0c6a f53d
00000020: 51fc a63e 0b3b 113b 6e1b 7e3e ba04 673d
00000030: a8eb 3abc dda1 a63e 4d77 e0be 62c4 b6be
00000040: 44dd afbc 7edc a0be 3db9 bbbe d489 be3e
00000050: 6999 41bc 4100 0fbf 015e adba 8a22 27be
00000060: ac4a 04bf 4c9b b83d b27a 893e 493e cb3e
00000070: 053c 983d 460e d9be fecf 973e 331f 043e

encoder.2.weight f4 [32, 32]
-0.20377244 -0.14059328 -0.38637725 -0.15744697 -0.15504934 0.15448488 0.05927196 0.026205024
0.09139445 0.081327 -0.014077449 0.114741854 0.09114243 0.06586168 0.12608035 0.15902121
-0.061038315 0.2701847 -0.016327647 0.12625511 0.09063264 -0.1509753 0.11358105 -0.25108677
0.3098515 0.11194384 -0.013389505 0.037769042 0.14320512 0.1760543 0.05415842 0.08254638
0.020027988 -0.0037443824 0.1827924 0.08025868 0.066726856 0.050228063 -0.17906362 -0.19843487
0.09642599 0.10503422 -0.34056485 0.0008447062 -0.12009951 -0.06704967 -0.73655593 0.014243
0.035452735 -0.040276513 -0.12454724 -0.23103933 0.16517775 -0.10551906 0.307167 -0.30120188
-0.061066136 0.0004006143 0.0121418545 -0.02248895 -0.26583105 0.1662855 0.052840218 0.027462615
-0.31746125 0.10667718 -1.0533736 -0.08077435 -0.15912752 0.28345776 -0.23640074 -0.74829066
-0.08932849 -0.044003043 0.30272856 0.09141531 0.17463191 0.5140895 0.66745 -0.12728588
0.19517556 0.63300306 0.059122123 -0.18091652 0.0028855738 0.092990845 0.22635634 0.028727194
0.5330164 0.13073139 0.16903687 0.07005004 0.14164081 0.1364548 -0.08004327 0.13994004
0.2631193 -0.1297566 0.40167233 0.0027807858 0.066942826 0.08905926 0.23444532 0.03777918
0.041300274 -0.05048323 -0.5778009 -0.056587953 -0.10636295 0.012736391 -0.15648192 0.17632012
0.18667698 -0.62632877 0.1262066 0.11460934 0.15176266 -0.0104448525 0.1983963 0.11171153
-0.06666345 -0.0037133708 -0.033504847 0.12890412 0.21608913 -0.091065384 0.23619391 -0.0539234
-0.014207219 -0.087325625 0.3068265 -0.10725702 -0.12243104 0.09822787 0.005982664 0.09273624
0.0007443332 -0.00075609115 0.23791546 -0.022122081 0.092675775 0.21055827 -0.22597769 -0.03359424
-0.029984407 -0.21606925 0.12071531 -0.057089377 -0.036489617 0.14778525 -0.07374931 -0.105392896
-0.051896986 0.10616032 0.14948381 0.10804207 0.14661677 0.16187137 -0.16733238 -0.12519747
-0.0677263 -0.162696 0.060730066 0.076244846 -0.08083098 -0.05498581 -0.14921306 0.07406015
-0.14608906 0.09654477 -0.010383972 -0.036103874 0.015902238 -0.007925272 -0.16768745 -0.03359622
-0.16991885 0.10343618 -0.041692127 -0.019697055 -0.080391616 0.0591417 0.14793569 0.074598975
-0.02435601 -0.041080236 -0.1612578 -0.112269975 -0.12876521 0.10282195 0.16828676 -0.10928258
-0.11782408 -0.0015660363 0.16433673 0.07574676 0.002334551 0.118295625 -0.17068273 -0.030827843
0.076916106 0.14323053 -0.011268097 -0.18213765 0.13877578 -0.095158696 -0.18861121 -0.10786735
-0.17664433 0.07323375 -0.104742944 0.04989179 -0.04151183 -0.08023133 0.08042595 -0.19171143
0.11579554 -0.053847 -0.075204566 -0.13633402 -0.05680861 0.1617761 0.014188144 0.1295487
-0.093143836 -0.07234819 -0.325687 -0.13583831 0.104918845 0.099116124 -0.036054432 0.22776115
-0.16630024 -0.19073442 -1.2169985 0.14986652 -0.1633492 0.09806923 0.26886326 0.14066035
-0.022397578 0.7226233 -0.002087154 -0.16527109 0.16384035 0.0750318 0.05123323 -0.05798382
0.25193164 0.11564475 0.15100166 0.14827926 0.051164765 -0.053591825 0.027018437 -0.027746726
00000000: b9a9 50be aff7 0fbe 3dd3 c5be c739 21be
00000010: 41c5 1ebe 4931 1e3e 28c7 723d ebab d63c
00000020: 032d bb3d c58e a63d 1aa5 66bc c7fd ea3d
00000030: e2a8 ba3d 7de2 863d 351b 013e 75d6 223e
00000040: 5003 7abd a655 8a3e 8fc1 85bc 0549 013e
00000050: 9b9d b93d 4599 1abe 2e9d e83d 728e 80be
00000060: dba4 9e3e d042 e53d a85f 5bbc b6b3 1a3d
00000070: 5da4 123e 9447 343e 38d5 5d3d 140e a93d
00000080: bc11 a43c 5064 75bb ee2d 3b3e aa5e a43d
00000090: 17a8 883d f1bb 4d3d 745c 37be 8332 4bbe
000000a0: fd7a c53d 2e1c d73d 845e aebe 466f 5d3a
000000b0: bbf6 f5bd 5651 89bd ee8e 3cbf 795b 693c
000000c0: e336 113d fcf8 24bd a012 ffbd 9395 6cbe
000000d0: 5b24 293e 601a d8bd fe44 9d3e 2237 9abe
000000e0: 7c20 7abd 8b09 d239 a1ee 463c bf3a b8bc
000000f0: 021b 88be bf46 2a3e fc6e 583d 47f9 e03c
00000100: 488a a2be 9179 da3d f2d4 86bf 066d a5bd
00000110: 53f2 22be 6021 913e 0913 72be fa8f 3fbf
00000120: dbf1 b6bd 893c 34bd 3dff 9a3e f337 bb3d
00000130: b5d2 323e 5f9b 033f 01de 2a3f 3b57 02be
00000140: 1adc 473e 7d0c 223f 0a2a 723d 2e42 39be
00000150: e51b 3d3b fc71 be3d f5c9 673e 4b55 eb3c
00000160: c373 083f 73de 053e 0018 2d3e 6576 8f3d
00000170: 4a0a 113e cfba 0b3e baed a3bd 714c 0f3e
00000180: 93b7 863e eade 04be ffa7 cd3e d83d 363b
00000190: 5219 893d b464 b63d 6f12 703e 57be 1a3d
000001a0: 7a2a 293d 81c7 4ebd c3ea 13bf c5c8 67bd
000001b0: d1d4 d9bd 4cac 503c cc3c 20be 438d 343e
000001c0: 4028 3f3e 1557 20bf 4e3c 013e 4db8 ea3d
000001d0: ac67 1b3e e320 2bbc 6628 4b3e 04c9 e43d
000001e0: d986 88bd 065c 73bb 613c 09bd 71ff 033e
000001f0: 7846 5d3e 7d80 babd d1dc 713e c8de 5cbd
00000200: 65c5 68bc c7d7 b2bd 5d18 9d3e 92a9 dbbd
00000210: 20bd fabd b22b c93d 390a c43b 7fec bd3d
00000220: 5b1f 433a 6b34 46ba 1ca0 733e 5e39 b5bc
00000230: cccc bd3d 969c 573e b266 67be 1d9a 09bd
00000240: dca1 f5bc 4241 5dbe 9739 f73d 8dd6 69bd
00000250: 2376 15bd 0455 173e e109 97bd 3bd8 d7bd
00000260: ef91 54bd 956a d93d 4912 193e 2945 dd3d
00000270: b522 163e 9cc1 253e 2e59 2bbe c433 00be
00000280: 16b4 8abd c899 26be 17c0 783d 4226 9c3d
00000290: b68a a5bd cd38 61bd 4fcb 18be d9ac 973d
000002a0: 5f98 15be 44b9 c53d 8921 2abc a8e1 13bd
000002b0: 6945 823c 00d9 01bc 42b6 2bbe 319c 09bd
000002c0: 35ff 2dbe 59d6 d33d 5dc5 2abd b85b a1bc
000002d0: 5ca4 a4bd 913e 723d 747c 173e 59c7 983d
000002e0: 4186 c7bc c043 28bd c420 25be cded e5bd
000002f0: 07db 03be 5194 d23d 5d53 2c3e 8ccf dfbd
00000300: c04d f1bd 7543 cdba e347 283e 1e21 9b3d
00000310: 44ff 183b fa44 f23d 74c7 2ebe ac8a fcbc
00000320: 3186 9d3d 06ab 123e d39d 38bc 4b82 3abe
00000330: 3d1b 0e3e 90e2 c2bd 4c23 41be 8fe9 dcbd
00000340: 40e2 34be 94fb 953d 7883 d6bd 555b 4c3d
00000350: 4f08 2abd 5350 a4bd 5cb6 a43d 0050 44be
00000360: 3626 ed3d ac8e 5cbd da04 9abd 259b 0bbe
00000370: 25b0 68bd a2a8 253e 6475 683c 6aa8 043e
00000380: 32c2 bebd 4a2b 94bd 72c0 a6be 3319 0bbe
00000390: b1df d63d 65fd ca3d d0ad 13bd 383a 693e
000003a0: 9c4a 2abe e24f 43be 9bc6 9bbf 9c76 193e
000003b0: 0345 27be 85d8 c83d 72a8 893e 4409 103e
000003c0: 207b b7bc d7fd 383f a2c8 08bb d33c 29be
000003d0: c4c5 273e 46aa 993d efd9 513d 7180 6dbd
000003e0: 2ffd 803e 28d7 ec3d 2ea0 1a3e 85d6 173e
000003f0: 2592 513d 1a83 5bbd c555 dd3c 1a4d e3bc

encoder.2.bias f4 [32]
0.09134385 0.132167 -0.14122629 0.09454906 0.050795585 -0.016711604 0.018050682 -0.07311729
-0.13606197 0.050611306 -0.13118051 0.09585831 0.028082315 0.16722703 -0.043024663 0.08463152
0.16635226 0.07738567 -0.12911008 0.05139213 0.00924065 -0.040288612 0.03927654 -0.18566278
-0.016566372 0.011953074 -0.0022637357 -0.106282696 -0.0026144532 -0.100781396 -0.08285672 -0.17215124
00000000: 7c12 bb3d c956 073e a09d 10be f0a2 c13d
00000010: 080f 503d c6e6 88bc 06df 933c 85be 95bd
00000020: d453 0bbe cd4d 4f3d 2f54 06be 5d51 c43d
00000030: e20c e63c 903d 2b3e a13a 30bd 4a53 ad3d
00000040: 3f58 2a3e 617c 9e3d 6f35 04be 8e80 523d
00000050: 1866 173c ac05 25bd 70e0 203d 621e 3ebe
00000060: 33b6 87bc d3d6 433c 2f5b 14bb beaa d9bd
00000070: 3f57 2bbb 7a66 cebd c9b0 a9bd 6a48 30be

encoder.4.weight f4 [32, 32]
0.13793676 -0.112773076 0.19603066 -0.07022149 -0.0073146764 -0.12513441 -0.0974479 0.14768346
-0.09871626 0.011606462 0.29283735 -0.17486678 0.11337087 0.021205815 -0.048751988 0.018454522
0.15957944 0.10873654 -0.11163435 0.057729986 0.083225556 0.046896715 0.22496586 0.10076253
-0.005034065 0.072199665 0.031848665 0.056498524 0.085731514 -0.10000916 0.1003532 0.059851367
0.16218886 0.050770145 0.19520031 -0.02692865 0.063166164 0.053207256 -0.028148865 0.20564725
-0.012990522 0.004264755 0.08639018 0.0072678784 0.1645087 0.05574755 -0.13485485 -0.042535663
0.058583718 -0.1675631 -0.026837103 0.18093236 0.074273184 0.28455693 0.07088178 -0.068317965
-0.079838045 -0.11535318 0.15562303 0.12374458 0.02370383 -0.111580595 0.028917858 0.102826
-0.040588282 -0.23123957 -0.0028313044 0.07996503 -0.30056715 -0.04496782 0.11024389 -0.015633352
-0.08894584 -0.15190086 0.2598604 -0.021125657 -0.31648532 0.113835275 -0.67167765 0.023571938
-0.06801874 0.11047997 -0.013259816 -0.2104945 -0.00023285241 0.23949175 -0.006643526 0.002226997
0.24262498 0.16110444 0.12401514 0.047852457 -0.012922076 0.12618105 -0.15581898 -0.017577806
0.012671512 0.020884886 -3.865864 -0.0140213845 -0.15955754 -0.13811047 0.16134477 -0.18747164
0.03201072 -0.15720631 0.099290825 -2.3255677 -0.002869013 0.032766078 -0.2604774 -0.04146437
-0.05132473 0.15987284 0.06808584 0.25738186 0.01074187 -0.2694177 -0.16804193 -0.18450002
0.012998177 0.09927164 0.14593989 0.05362666 -0.1437283 0.040683363 -0.13514663 -0.10653033
0.051390953 -0.21493256 0.6597228 -0.2774352 -0.14152241 -0.027876157 -0.10206548 0.13103956
0.13110247 -0.17567493 0.08926758 -0.14426664 -0.6906528 0.1669024 0.18399908 0.013328998
0.03390735 -0.090187445 -1.1264137 0.058838777 -0.06723951 0.15721229 0.05866942 0.22660637
-0.23657972 0.14561766 -0.091405176 0.12746648 0.13045195 0.11721211 0.04003904 -0.13000965
0.07409059 0.10416286 0.26797763 0.09838989 -0.10382665 0.15393645 0.16475788 0.20112671
0.06667092 -0.021892358 0.15618892 0.1578247 0.1425199 0.050333705 0.05063616 0.10887077
0.16121845 0.019805444 -0.33948857 -0.14433774 -0.09920693 0.18051337 0.0844801 0.08230571
-0.020611862 0.18656224 -0.01630622 0.10405696 0.1232423 0.07685771 -0.025102725 -0.068432175
0.08614478 -0.23878647 0.036919646 0.043284155 -0.20225446 -0.018789023 0.025280416 0.051603198
0.0846675 0.16991085 0.12700072 0.39543128 -0.09201356 -0.17633258 -0.018022742 -0.47134095
-0.06366738 -0.11916494 -0.19671422 -0.40187818 0.028484559 0.30914778 0.21865126 0.067925476
-0.03361559 0.2961979 -0.17485732 -0.14941947 -0.062161017 -0.047622673 -0.019956911 -0.039314494
-0.06341625 -0.07806281 0.0992978 -0.13646983 0.041019592 -0.1588433 -0.061059088 0.072093524
-0.026985109 0.044753905 0.2823738 0.03901831 0.013490435 0.15692432 -0.0005165531 -0.08313264
-0.11246879 -0.087354176 -0.09364518 0.13281329 0.18754946 0.10923013 0.06893698 0.24338639
-0.026365949 0.03577244 -0.12955299 0.15583137 -0.12991911 -0.032327414 0.04954499 0.054633714
00000000: 4b3f 0d3e 92f5 e6bd 43bc 483e 49d0 8fbd
00000010: f4af efbb 3c23 00be c492 c7bd 553a 173e
00000020: c02b cabd 0829 3e3c c7ee 953e 4710 33be
00000030: fd2e e83d d1b7 ad3c 2ab0 47bd f02d 973c
00000040: cb68 233e 43b1 de3d 8da0 e4bd 4776 6c3d
00000050: 2972 aa3d c516 403d 735d 663e 965c ce3d
00000060: ccf4 a4bb 6bdd 933d bf73 023d ff6a 673d
00000070: 0194 af3d 9ad1 ccbd fb85 cd3d b526 753d
00000080: d614 263e 5bf4 4f3d 97e2 473e 7999 dcbc
00000090: 435d 813d daef 593d 7398 e6bc 3195 523e
000000a0: 33d6 54bc 5cbf 8b3b 56ed b03d 6227 ee3b
000000b0: f874 283e 8b57 643d 6417 0abe e039 2ebd
000000c0: 7bf5 6f3d a995 2bbe 7cd9 dbbc 5546 393e
000000d0: 8a1c 983d 72b1 913e 772a 913d 4aea 8bbd
000000e0: 2182 a3bd 4a3e ecbd a55b 1f3e cc6d fd3d
000000f0: 892e c23c 5e84 e4bd 25e5 ec3c 7096 d23d
00000100: e63f 26bd 11ca 6cbe 688d 39bb b5c4 a33d
00000110: f0e3 99be 2d30 38bd 8cc7 e13d 8411 80bc
00000120: 3d29 b6bd e68b 1bbe 6c0c 853e b70f adbc
00000130: 5d0a a2be 7822 e93d 11f3 2bbf f019 c13c
00000140: 694d 8bbd 5343 e23d b33f 59bc df8b 57be
00000150: d829 74b9 533d 753e efb1 d9bb cff2 113b
00000160: af72 783e 90f8 243e a6fb fd3d f000 443d
00000170: 1db7 53bc 9b35 013e 038f 1fbe 55ff 8fbc
00000180: 2c9c 4f3c c816 ab3c 516a 77c0 f3b9 65bc
00000190: 0d63 23be d56c 0dbe 9037 253e 91f8 3fbe
000001a0: ac1d 033d b1fa 20be fd58 cb3d 1ad6 14c0
000001b0: 0d06 3cbb b935 063d 4b5d 85be 8bd6 29bd
000001c0: e139 52bd b5b5 233e 9770 8b3d 8ec7 833e
000001d0: abfe 2f3c 1ef1 89be 2f13 2cbe 93ed 3cbe
000001e0: 4ef6 543c ee4e cb3d 4471 153e a1a7 5b3d
000001f0: 832d 13be 99a3 263d e163 0abe 932c dabd
00000200: 527f 523d 4817 5cbe 98e3 283f fd0b 8ebe
00000210: 40eb 10be 8a5c e4bc b507 d1bd 3c2f 063e
00000220: ba3f 063e 21e4 33be ecd1 b63d a2ba 13be
00000230: 9fce 30bf 76e8 2a3e 416a 3c3e df61 5a3c
00000240: 6fe2 0a3d 32b4 b8bd 532e 90bf ee00 713d
00000250: deb4 89bd 42fc 203e 594f 703d 800b 683e
00000260: f441 72be cc1c 153e a332 bbbd 9386 023e
00000270: 3295 053e e70c f03d faff 233d 4021 05be
00000280: cfbc 973d 5653 d53d 5d34 893e a380 c93d
00000290: 11a3 d4bd 84a1 1d3e 4ab6 283e 29f4 4d3e
000002a0: c38a 883d 9a57 b3bc fdef 1f3e cc9c 213e
000002b0: bdf0 113e b72a 4e3d dd67 4f3d a3f7 de3d
000002c0: 7316 253e 073f a23c 72d1 adbe 46cd 13be
000002d0: 012d cbbd 7fd8 383e e703 ad3d e58f a83d
000002e0: 35da a8bc 2c0a 3f3e 9f94 85bc d11b d53d
000002f0: 7566 fc3d 9367 9d3d 3ba4 cdbc 2b26 8cbd
00000300: ad6c b03d 7184 74be 0e39 173d ba4a 313d
00000310: cb1b 4fbe 70eb 99bc e018 cf3c e05d 533d
00000320: 2766 ad3d 1cfd 2d3e 7a0c 023e f875 ca3e
00000330: 9b71 bcbd 8790 34be 6ea4 93bc 9a53 f1be
00000340: 0b64 82bd c00c f4bd 746f 49be fac2 cdbe
00000350: 7358 e93c 9e48 9e3e 1ee6 5f3e 831c 8b3d
00000360: 80b0 09bd 40a7 973e cc0d 33be 6b01 19be
00000370: 8d9c 7ebd fe0f 43bd ad7c a3bc 3c08 21bd
00000380: 61e0 81bd 65df 9fbd a55c cb3d bfbe 0bbe
00000390: 2904 283d d1a7 22be 1819 7abd c5a5 933d
000003a0: e00f ddbc df4f 373d 4c93 903e aad1 1f3d
000003b0: fc06 5d3c c5b0 203e 4b69 07ba 7241 aabd
000003c0: 0956 e6bd bfe6 b2bd 0bc9 bfbd 3500 083e
000003d0: f70c 403e 0cb4 df3d d52e 8d3d 483a 793e
000003e0: 67fd d7bc 1f86 123d 8aa9 04be 4292 1f3e
000003f0: 8409 05be c069 04bd b0ef 4a3d 9ac7 5f3d

encoder.4.bias f4 [32]
-0.010922335 0.026031334 -0.06371215 0.15546393 -0.15971029 -0.06213771 -0.22599478 0.15907574
-0.011922252 0.17458627 0.009640558 -0.06997757 -0.13503902 -0.07899649 0.080493696 0.044135757
0.04630284 4.4917346e-05 -0.064410724 0.120016985 0.023337975 0.09966041 -0.037489906 0.16488867
0.14086838 -0.19939905 0.0747787 -0.16216786 -0.17255034 -0.17072386 -0.15917915 -0.019189639
00000000: 98f3 32bc aa3f d53c 847b 82bd f031 1f3e
00000010: 188b 23be 1d84 7ebd 2d6b 67be c0e4 223e
00000020: 8d55 43bc bec6 323e 6ef3 1d3c 6650 8fbd
00000030: ab47 0abe e9c8 a1bd e1d9 a43d b2c7 343d
00000040: 0ca8 3d3d a265 3c38 c5e9 83bd 77cb f53d
00000050: 482f bf3c c21a cc3d 048f 19bd 93d8 283e
00000060: cd3f 103e 442f 4cbe 9325 993d 550f 26be
00000070: 09b1 30be 3cd2 2ebe dcff 22be 9733 9dbc

encoder.6.weight f4 [2, 32]
0.16089515 0.101939395 -0.30815953 -0.0043978123 1.356319 0.12005994 0.42706773 0.10755487
0.29741263 -0.07721849 -0.12049269 0.010921504 0.44289473 0.11868348 0.23775832 -0.12529564
0.066064395 0.07477565 -0.07676978 0.04697807 0.03095729 -0.102537274 -0.40478912 0.045529943
-0.073929876 0.040877644 -0.7269331 -0.045969483 -0.5330937 -0.30307946 1.7180952 0.078796685
0.051264368 -0.07294388 -0.28084534 0.36453044 -0.26035693 -0.13143173 0.16008651 -0.019153032
0.072294354 -0.18425508 0.25749522 -0.3617999 -0.17173006 0.3336536 -0.025551982 0.092337646
-0.2467715 0.1792296 0.1405047 -0.18883099 0.08846905 0.13952895 0.74396545 -0.16854338
-0.09457777 -0.45207313 -0.29352823 0.060781762 -0.010162598 -0.12002075 -1.1430535 -0.07527775
00000000: b3c1 243e 9ac5 d03d 16c7 9dbe 861b 90bb
00000010: dc9b ad3f fce1 f53d 9fa8 da3e ba45 dc3d
00000020: 7846 983e ba24 9ebd dfc4 f6bd 1cf0 323c
00000030: 19c3 e23e 5310 f33d eb76 733e 804d 00be
00000040: c54c 873d fa23 993d 7939 9dbd 146c 403d
00000050: 259a fd3c 10ff d1bd 8540 cfbe 9b7d 3a3d
00000060: 8c68 97bd 516f 273d 4a18 3abf 7f4a 3cbd
00000070: d478 08bf 3b2d 9bbe 8bea db3f 2860 a13d
00000080: 96fa 513d 9a63 95bd f6ca 8fbe bca3 ba3e
00000090: 814d 85be 0a96 06be b8ed 233e d2e6 9cbc
000000a0: 100f 943d 5dad 3cbe 6ad6 833e d63d b9be
000000b0: 01da 2fbe a5d4 aa3e 6452 d1bc 851b bd3d
000000c0: abb1 7cbe f787 373e 77e0 0f3e e95c 41be
000000d0: 432f b53d ade0 0e3e 8574 3e3f a396 2cbe
000000e0: fdb1 c1bd 2176 e7be 5549 96be 4cf6 783d
000000f0: 0781 26bc 70cd f5bd 944f 92bf 392b 9abd

encoder.6.bias f4 [2]
-0.122215025 0.107139714
00000000: df4b fabd 116c db3d
