ives_model/experiments/learning/multiple/multiple_001/baseline/run_08/models/decoder.pt (torch, 12429 bytes, 8 tensors)

decoder.0.weight f4 [32, 2]
000000 da 8c 66 bf 29 94 aa bf 31 65 9d 3e 80 cb c6 3d
       -0.9005867 -1.3326465 0.30741265 0.09706783
000010 b0 6a 52 bf ae 80 36 bf 5e 26 47 3f c2 4f 51 bf
       -0.8219404 -0.712901 0.7779292 -0.81762326
000020 4d d9 41 3f 17 1f ff 3e 53 b1 09 bf 9f 92 77 3f
       0.757222 0.49828407 -0.537862 0.967081
000030 35 4f 5f bf f5 c1 99 bf 17 5a 8a bf b1 cb 08 bf
       -0.87230235 -1.2012316 -1.0808743 -0.5343581
000040 41 8f 21 bf ea 66 52 3e 4d cd 9f 3f cf 02 6d be
       -0.63109213 0.20547071 1.2484528 -0.23145603
000050 7d 44 1f 3f fa d8 c5 3e 9d 76 30 bf 4f 42 60 bf
       0.6221388 0.38642102 -0.6893099 -0.8760118
000060 19 30 35 3f fd 7e 8d bd b5 2f dd bd 1f 5a 2e bf
       0.70776516 -0.06908987 -0.10800115 -0.68106264
000070 dd 17 a8 3e 83 a9 f5 be 3f eb 3c bf 3a 41 81 3e
       0.32830706 -0.4798089 -0.7379646 0.25245076
000080 56 9b 29 3f 6f 54 21 3e 4e e6 96 3c b7 a6 04 3d
       0.6625265 0.15754865 0.018420365 0.032385554
000090 b4 b5 3e bf be d6 6d bf 21 c8 ac bd 7c 26 fb be
       -0.74496007 -0.92905796 -0.08436609 -0.490528
0000a0 3f 82 23 3f 6b 5b 79 bf 04 03 85 bb fc a7 5b 3f
       0.63870615 -0.9740512 -0.0040591974 0.858032
0000b0 a7 89 0e 3f 7e db 95 3e e0 14 41 3f da 46 cc 3d
       0.5567879 0.29269022 0.7542248 0.09974451
0000c0 9e 88 87 bf 17 bd ec be 50 b3 dd 3d fa 7c 85 3f
       -1.0588567 -0.46238014 0.10825217 1.0428765
0000d0 34 15 17 be 68 55 9d 3e 8a 5e 2b bf 14 4c 9a be
       -0.14754182 0.30729222 -0.6694113 -0.30136168
0000e0 1b b2 7b 3f 53 84 66 3f 0d 2d 68 bf b0 94 d8 be
       0.9831864 0.9004566 -0.9069374 -0.4230094
0000f0 70 61 8d 3e 62 19 85 bf 0a 38 ac be 41 bb 1d 3f
       0.276134 -1.0398371 -0.33636504 0.6161385

decoder.0.bias f4 [32]
000000 37 03 0b 3e 45 22 0b 3f 66 a7 58 bd 3d 17 b5 3e
       0.13575445 0.54349166 -0.05289402 0.35369292
000010 69 31 49 3f 69 4c 92 3b 44 e7 34 be 75 38 23 be
       0.7859102 0.004464675 -0.17666346 -0.15939505
000020 4e d4 f5 3c dd ee 9d bc e8 fd 20 be 22 e4 05 3d
       0.030008461 -0.019278938 -0.15721858 0.032688268
000030 50 0a 97 bd 11 45 1a 3f 38 8c 35 3f 6e 0d e2 3c
       -0.07375014 0.60261637 0.7091708 0.027594294
000040 b0 ad 9a 3d 39 bc 74 be ae 02 7f 3e 04 c1 ca 3e
       0.075526595 -0.23899926 0.24903366 0.39600384
000050 05 9e 37 3f e2 e9 bd 3d ee fd 34 be 0b e9 da 3e
       0.71725494 0.09273125 -0.17674991 0.42755923
000060 92 51 d1 be 28 17 43 be f9 87 f6 be d7 46 a1 3e
       -0.40882546 -0.19051802 -0.48150614 0.3149936
000070 cc 36 42 be 9a 22 df 3e c1 4b 70 3d f6 c2 e1 3e
       -0.18966216 0.43581086 0.058665995 0.44094056

decoder.2.weight f4 [32, 32]
000000 ab cc fd be 4f 6f f7 bd f2 8d 10 bf d3 60 a7 be
       -0.49570212 -0.12081777 -0.5646659 -0.3269106
000010 a2 52 a5 3e 1c 17 b9 3e 22 87 a8 3f 9c f4 a6 be
       0.32289606 0.36150444 1.3166239 -0.32608497
000020 92 ac e2 bb 8b 46 d3 bd bd b7 87 3c 48 93 61 bf
       -0.0069175446 -0.103161894 0.016567105 -0.8811536
000030 49 f4 b4 bd db eb 3e bd 61 53 53 bd ef 35 1f 3e
       -0.08835656 -0.046611648 -0.05159319 0.15547918
000040 21 00 3a 3e dd 75 07 bd ef 5b 43 be b5 88 84 be
       0.18164112 -0.033071388 -0.19078039 -0.2588555
000050 f1 a0 8f be a4 fd ea 3e 74 97 fc 3d dd ed 83 3e
       -0.28052476 0.45896637 0.12333575 0.25767413
000060 e5 db 7c 3f 1c 62 a2 3e 59 d6 ea 3d 5d e9 1b be
       0.9877303 0.31715477 0.11466665 -0.1522574
000070 ee 6d 27 3e 69 24 7d bc b8 50 80 bf e8 33 80 3e
       0.16350529 -0.015450575 -1.0024633 0.250396
000080 bd a5 c4 be 9c c6 11 3e e9 99 5a be f3 b6 77 bd
       -0.38407698 0.1423592 -0.21347775 -0.06047721
000090 3c 6c 58 3e 8a b1 9c 3e 72 0b fa bf a4 61 77 bf
       0.21135038 0.30604202 -1.9534743 -0.9663336
0000a0 ac 92 c4 3d 7b 8b 28 be 98 84 1b be 48 fc a2 be
       0.09598288 -0.16459458 -0.15187299 -0.318331
0000b0 ea 05 67 be 52 7a 9f 3d 42 d6 5d 3d a7 8f 79 3d
       -0.2256085 0.077870026 0.05415941 0.060928013
0000c0 ff c8 d3 bd b7 61 82 3d fa 9b 50 bd e3 5c 8f 3c
       -0.10341071 0.06366294 -0.05093 0.017500347
0000d0 f3 9e 32 bd 4f 7f b4 3e c8 40 bf bd a5 8d 95 bd
       -0.043608617 0.3525338 -0.09338528 -0.07302407
0000e0 e1 aa b6 be dd ce 29 3e b2 71 e6 bd 27 f7 52 3e
       -0.35677245 0.16582818 -0.112521544 0.20602094
0000f0 89 a0 9a 3d fb f8 18 3c d9 21 51 bf 1f 56 82 3e
       0.07550151 0.009336705 -0.8169227 0.2545633
000100 2d d0 12 3e 3e 92 41 be ea 94 27 be b1 3d 0b 3e
       0.14337225 -0.18903443 -0.163654 0.13597752
000110 4a 9b e4 3c 93 cb cb bd 95 e9 27 be 6b 93 77 3d
       0.027906079 -0.09950938 -0.16397698 0.060443323
000120 de ed d4 3d a5 31 e9 3d f1 4a b5 bd e9 aa b9 3d
       0.10396932 0.11386422 -0.088521846 0.09065802
000130 ba f0 1a be 82 07 e9 bd 26 62 9d 3d c3 d2 87 bd
       -0.15130892 -0.11378385 0.07684736 -0.066319965
000140 b4 57 05 be c1 25 0d be 94 cf f4 bd 65 17 d5 bd
       -0.13021737 -0.13783933 -0.11953655 -0.10404853
000150 0d 56 d0 bd 3e 02 f0 3d 01 eb 0e 3e 32 3e 61 bd
       -0.10172663 0.11719178 0.13956834 -0.054990955
000160 45 e9 22 3d fd 4d 42 bd dd de bd 3d 05 58 0d 3e
       0.039773244 -0.047437657 0.092710234 0.13803108
000170 b4 7f f4 3d d6 0c f0 bc 67 3e fa 3d e2 2d 2d be
       0.1193842 -0.029302996 0.122189336 -0.16912034
000180 71 4a a8 be 0a 7c eb 3b 81 93 b4 be eb c7 e6 bd
       -0.32869294 0.0071864175 -0.35268787 -0.112686
000190 13 37 59 bd ae ac 14 3f 7a 28 09 bf d6 9a 9b bb
       -0.05303104 0.5807599 -0.5357739 -0.0047486825
0001a0 fd f7 d7 3e 31 28 01 be 61 15 87 be 0c 56 22 be
       0.42181388 -0.12612988 -0.26383498 -0.15853137
0001b0 89 36 b6 be dd 78 24 be c3 bc 7f 3e a2 96 80 3e
       -0.35588482 -0.1606173 0.2497435 0.25114924
0001c0 3e 91 85 3c 0a 0f a4 bd 90 9f 81 be b8 94 c3 bd
       0.016304608 -0.08010681 -0.2531705 -0.0954985
0001d0 93 fa 18 bd db 33 71 3e 70 ed 05 bf 21 70 53 3d
       -0.03734834 0.23554938 -0.52315426 0.051620606
0001e0 14 98 85 3f 50 3a 67 bd 74 3f 18 bd 01 9d 41 be
       1.0437036 -0.056452096 -0.03716989 -0.18907548
0001f0 3c 7e ca be 7e f3 0a be 7c 31 2f 3f 74 e7 91 3e
       -0.39549434 -0.13569447 0.6843488 0.28496897
000200 24 d5 79 3d 28 16 58 3e 00 a1 85 be e2 f5 0f 3f
       0.060994282 0.21102202 -0.26099396 0.5623456
000210 9d 3b 73 3e d9 7f 2f bc fc e7 cc be 3e d6 be 3e
       0.2375321 -0.010711634 -0.4002074 0.3727283
000220 60 59 21 3e 90 97 3a 3f 93 8f ae 3e 30 1b fb bd
       0.1575675 0.72887516 0.34093913 -0.12261045
000230 76 e2 3b 3f 1d e4 15 3d 88 55 ca 3c e3 17 c7 3d
       0.73392427 0.0365945 0.024698988 0.09721353
000240 94 45 64 3e be 1f 89 bd db 79 42 be 04 21 cb bd
       0.22292167 -0.066955075 -0.18991797 -0.099184066
000250 40 ff 3d 3d 96 be b4 bd 4a a8 c2 3e 79 27 9f 3c
       0.046386003 -0.08825414 0.3801902 0.019428002
000260 02 82 58 be 19 40 96 3d b0 04 bc bc 72 e6 ab 3d
       -0.21143344 0.073364444 -0.022951454 0.08393563
000270 88 e6 af 3e 68 fa a5 bc 74 48 dc 3e ed fe 1b be
       0.3435557 -0.020261005 0.43024027 -0.15233965
000280 9e bd cc 3e b1 fe 5c be f0 ae 5c 3e 4c 2a 0e bf
       0.39988416 -0.21581532 0.21551108 -0.5553329
000290 9e a6 e2 bd d1 81 4e 3e db 15 73 3c 70 d7 05 3f
       -0.11066936 0.20166709 0.014836754 0.52281857
0002a0 c6 1b 3c 3e 0e 9c 82 bd 63 e5 c5 bd 77 a3 b6 3e
       0.1836997 -0.06377421 -0.09662893 0.3567159
0002b0 eb 74 93 bd 67 92 0f be 6c 57 59 bd f7 08 33 3e
       -0.07200035 -0.14020692 -0.053061888 0.17483889
0002c0 3f 97 06 be 7d 43 01 3e 5e c8 c5 3e db d6 d2 3c
       -0.13143633 0.12623401 0.3862943 0.025737217
0002d0 0c e3 fa bd 95 78 85 3e 46 7c ce bd a4 97 de be
       -0.12250337 0.2606856 -0.10082297 -0.43475068
0002e0 03 c6 d4 3e 95 a7 fb bf 8b 06 ed bc 4b 55 c3 3c
       0.4155732 -1.9660517 -0.028933784 0.023844382
0002f0 78 26 07 be 08 b7 6f 3d a5 fa 07 bf 8b 3f c7 3d
       -0.13198268 0.05852416 -0.5311683 0.09728917
000300 3b 2a 85 3d d4 df 33 be f3 4c 18 be 25 3e 38 bb
       0.065021954 -0.17565852 -0.14873104 -0.0028113213
000310 80 34 c1 bd 91 bf ee 3d 94 95 2a be a8 f0 c6 3d
       -0.09433842 0.11657632 -0.16658622 0.0971387
000320 f7 e7 a4 bc a7 8c 1d be 29 b7 1e 3e 49 eb 06 3d
       -0.02013014 -0.15385686 0.15499558 0.03293923
000330 16 a4 ef bd 0b 09 50 bd ae 3d 9b bd ba c7 72 3d
       -0.11701219 -0.050789874 -0.07580124 0.059272505
000340 10 74 81 3c 7b 2d a5 3d c2 9c 42 be 7a 9a 9e 3d
       0.015802413 0.08065315 -0.19005111 0.07744308
000350 6c 5b f0 bd e9 21 05 3e ea 48 e0 bd e9 cf 18 bd
       -0.11736187 0.13001217 -0.10951407 -0.037307654
000360 1c b2 2c 3d 3c 96 13 3e 5d ec b7 3d 5d af 0e bd
       0.042162046 0.14412779 0.089806296 -0.03483521
000370 52 fd 31 be ac 53 ea 3d 30 d3 34 3d 57 3f e2 bd
       -0.1738179 0.114417404 0.044146717 -0.11047237
000380 eb 36 bc bc 86 33 fe bd ca 88 87 bd 79 27 01 bd
       -0.022975406 -0.12412171 -0.06617887 -0.031531785
000390 1e eb 20 be 4f 03 dc 3d ff 4c 48 bc 04 31 0a be
       -0.1571469 0.107428186 -0.012225389 -0.1349526
0003a0 ca 1a a3 bc fc bd c5 bd 01 99 b0 3d 57 9a bb 3c
       -0.019910235 -0.09655377 0.08622933 0.022900743
0003b0 ce 83 e6 bd 94 ba 16 3e e4 95 28 be 8f 4b af bc
       -0.112556085 0.14719611 -0.16463429 -0.021398334
0003c0 2d 03 07 be e7 32 22 3c eb b7 d6 3d 11 f6 fe bc
       -0.13184805 0.009899831 0.10484298 -0.031123193
0003d0 9a 33 eb bc e8 22 08 bc ba a0 7e 3d 6d ed 8a 3d
       -0.028711129 -0.008309104 0.062165 0.067835666
0003e0 57 8f 96 3d 96 ed 6c 3d 01 ba 2e be dc 73 5a bd
       0.07351559 0.057843767 -0.17063142 -0.05333315
0003f0 55 db 27 be c3 ef 33 3a 53 96 2e be 2b fa 10 be
       -0.16392262 0.00068640354 -0.17049532 -0.14157932

decoder.2.bias f4 [32]
000000 74 17 22 3d 58 e4 17 3e 86 ca 14 be 79 52 95 3e
       0.039573148 0.148332 -0.14530382 0.29164484
000010 c9 6c 56 3e 5e d1 9b bc 7f 34 2f be 73 af 98 bb
       0.20939936 -0.019020732 -0.1710987 -0.004659587
000020 fb 2e 64 bd d3 b5 4c bd b2 86 23 be 9a 86 c4 bc
       -0.055708867 -0.04997809 -0.15969351 -0.023989964
000030 b1 0b 40 be 3f 31 05 be 3e fe 52 3d 1b 73 e3 3d
       -0.1875446 -0.13007067 0.051511995 0.11105939
000040 4c d7 d4 3d aa eb e8 3d 0e 7c 7f 3e dd 5e 96 3d
       0.10392627 0.11373074 0.24949667 0.073423125
000050 02 6c b7 39 90 dc 76 bd 53 01 3a 3c 8f 6f 2f 3e
       0.00034984952 -0.06026894 0.011352855 0.171324
000060 bd 76 e1 3d 2b 29 3b 3e d8 b8 f9 3d 4f 55 a7 bd
       0.11008976 0.18277423 0.12193459 -0.08170568
000070 5a 41 c5 bd 68 81 b6 bc 93 a6 0e be 07 e1 23 3e
       -0.096316054 -0.022278503 -0.1393073 0.1600381

decoder.4.weight f4 [32, 32]
000000 0e 11 1e bd 50 82 a4 be c8 ba e9 bd ba 91 30 bf
       -0.038590483 -0.3213067 -0.11412579 -0.6897236
000010 f2 6d 40 be 84 ed 65 3e 65 bf 10 3e 49 2f 34 be
       -0.18791941 0.22453886 0.14135511 -0.17596163
000020 45 37 9d 3e a1 bd 54 3c df 17 f1 3e 54 2b 60 bd
       0.3070623 0.012984664 0.47088525 -0.05472882
000030 77 85 c2 3c 18 a0 b2 bd f2 56 0c 3e 43 be f7 3d
       0.023745282 -0.08721942 0.13705042 0.120968364
000040 54 1f cd be 81 5b 0e 3e b5 ab 1b 3d 2f b3 94 3e
       -0.40062964 0.13902093 0.03800555 0.29042956
000050 b0 7c 48 3e 1b 0f 15 bc de e5 e4 3d 4d 88 02 be
       0.19578815 -0.00909784 0.11176656 -0.12747307
000060 89 57 00 3f 89 27 7a bc 4c 88 83 bf 45 01 2d 3e
       0.5013357 -0.015268215 -1.027597 0.16895016
000070 bd f6 f3 bd 0a 6e 37 be 74 e4 2b bf d9 2a 96 3e
       -0.11912296 -0.1791307 -0.67145467 0.29329565
000080 e9 17 d4 bd 47 74 84 3d 20 fc 19 be 3d 35 00 be
       -0.10356123 0.06467491 -0.15037584 -0.12520309
000090 3d d7 fc bd bc 0b 39 bd 54 0d bf bd 9b ca b1 bc
       -0.12345741 -0.045177206 -0.09328714 -0.021703055
0000a0 1d 6b 21 be ce fe 9d 3d 24 b5 12 be 0c d2 88 bc
       -0.15763517 0.07714616 -0.14326912 -0.01670172
0000b0 82 84 bd bd b5 0f 2a be d4 83 17 be 69 30 a1 bc
       -0.092537895 -0.16607554 -0.14796382 -0.019676404
0000c0 5e aa 4a bd 95 e4 2e be fd a1 b8 bd 58 62 0a be
       -0.04947888 -0.17079385 -0.09015272 -0.13514078
0000d0 95 a5 ee bd 17 81 9c 3d c3 ce 9c 3c 26 92 35 3d
       -0.11652676 0.076418094 0.01914156 0.04432883
0000e0 d5 c6 3d bd 7f df 16 3c 65 34 45 3d 48 51 f7 3b
       -0.0463322 0.009208559 0.04814567 0.0075475313
0000f0 15 0e dc 3d 96 f5 b7 3d 89 31 08 3e ca 47 16 3e
       0.107448734 0.08982389 0.13300146 0.14675823
000100 82 01 ba 3d bd 6b 33 be 05 04 b1 bd 48 26 5d 3d
       0.09082319 -0.17521568 -0.08643345 0.053991586
000110 d6 a4 2a bd 7a 37 d6 bd f0 e5 83 bd 0e 00 6e bd
       -0.041661106 -0.104598 -0.064403415 -0.05810552
000120 97 a2 b1 3d cf 29 c8 3d f7 d0 e9 bd 5d a1 f2 3d
       0.0867359 0.09773599 -0.1141681 0.11847184
000130 99 78 d4 3b 98 50 fb bc e5 35 8f 3d df 3d c6 3d
       0.006484103 -0.030678079 0.069927014 0.0967977
000140 7a 00 29 3e d6 86 b3 bd 39 1f d9 bd 30 cc bb bd
       0.16504088 -0.08765952 -0.106016584 -0.09169805
000150 7f 2c bf bd 34 da 1c 3e 04 23 1f be fd dc f7 bd
       -0.09334659 0.15317613 -0.15540701 -0.12102697
000160 8f 8d 21 be 0a 0f 08 be 66 0a 97 bd 7e 53 fd bd
       -0.15776657 -0.13286987 -0.0737503 -0.123694405
000170 e9 6b 0d 3e d8 bb cd bd 95 12 0d 3e e1 d3 c8 bd
       0.13810696 -0.10045594 0.1377662 -0.09806038
000180 1c 5c 25 be 21 03 c8 bb 67 b9 d3 bd de 03 b0 3e
       -0.16148418 -0.0061038886 -0.10338097 0.3437795
000190 8d 26 84 3c 92 60 ed 3e d9 35 9b bd 4b 3d a9 3d
       0.016131664 0.4636274 -0.0757863 0.08263644
0001a0 f9 f7 2a bd 23 8d ac 3d 33 79 89 3e 6a 3c 74 bd
       -0.04174039 0.08425357 0.2685028 -0.059627928
0001b0 de 0f d2 3c b6 52 46 3e f5 de cf 3d e0 9e ee 3d
       0.025642332 0.19367489 0.101499476 0.11651397
0001c0 be 83 59 3e 4d 32 6c be d5 2b 8b be 5b 11 9b bb
       0.21241662 -0.23066063 -0.2718188 -0.0047322935
0001d0 16 f1 f5 bd 5f 19 f3 3d b1 b0 9b 3e ad 00 b2 3b
       -0.12008874 0.118700735 0.30408242 0.0054322095
0001e0 af 37 c0 3e d6 f5 b3 3d 47 8b 5b 3e 04 9d 02 3e
       0.37542483 0.08787124 0.21439849 0.12755209
0001f0 7c 2d e5 3c 3a b5 5f 3d 3b a3 20 be af 32 c3 3d
       0.02797579 0.05461619 -0.15687267 0.095311515
000200 91 d4 00 3d ad 83 53 be 49 e6 12 3e 99 60 0f 3e
       0.03145272 -0.20655699 0.1434566 0.14001693
000210 2f 7a 27 be 45 61 20 be ca fd 17 3d 93 1e e9 bc
       -0.16355203 -0.15662105 0.037107266 -0.028456962
000220 9f 10 b8 3d 07 93 f1 3d 57 a5 44 3d 85 df c4 3c
       0.08987545 0.11795621 0.048009243 0.024032364
000230 f4 eb b3 3d 50 9a fb bd ab f7 88 3d 14 d0 a4 3d
       0.08785239 -0.12285292 0.06687864 0.080475
000240 87 70 1f be 73 2d 88 3c ab 3b 97 bd 7d 85 2e 3b
       -0.1557027 0.016623234 -0.07384428 0.0026629858
000250 ef 6b 46 be 83 2f eb 3d 69 cc f8 3d 80 87 1e be
       -0.19377111 0.114836715 0.12148363 -0.15481377
000260 a2 e9 0c 3e bf 1f a8 bd 0d 77 15 be ed 98 72 3d
       0.13760999 -0.0820918 -0.14596196 0.059227873
000270 6a 9b 1e 3d 4f b9 30 3d 95 d0 f9 bd 2c 19 6e 3c
       0.038722433 0.043145474 -0.12197987 0.014532369
000280 17 e1 84 be 99 ed 0a 3d a5 d4 2c be d4 b5 a0 3e
       -0.2595298 0.033917997 -0.16877992 0.31388724
000290 45 04 b5 3d f8 fb b3 3e 59 6b c6 bd 7d de 09 3e
       0.08838705 0.35153174 -0.09688444 0.13463779
0002a0 9c 20 b0 bd 41 11 25 bd c6 24 8f bf 6d ef 2f be
       -0.0859997 -0.040299658 -1.1183097 -0.17181177
0002b0 fb 2c 2e 3e 63 c8 ca 3e 4e 67 8a be 36 a3 93 bb
       0.17009346 0.39606008 -0.2703194 -0.0045055402
0002c0 98 e8 9b 3e 69 3e 47 3d 05 25 94 be 29 63 6f bd
       0.30450892 0.048643503 -0.28934494 -0.058444176
0002d0 6b 8f 0a 3d ee 3a 27 be 90 87 65 3e 76 6e 99 bd
       0.03382818 -0.16331074 0.22414994 -0.07491772
0002e0 14 d6 8f 3e ff 42 5c 3e b2 72 40 3e 69 fe 92 3e
       0.28093016 0.21509932 0.18793753 0.28709725
0002f0 84 49 9e bd b5 21 d9 bc 19 1a e3 bd 93 30 ae 3d
       -0.07728866 -0.02650533 -0.11088962 0.085053585
000300 5b 5e 4d be 10 55 45 be 3e 42 83 3b cd 62 c1 3e
       -0.20055525 -0.1927073 0.0040056994 0.37770692
000310 31 51 78 3e 84 ba a2 3d 34 52 e0 3d 1a 78 09 3e
       0.24249722 0.07945731 0.10953179 0.13424721
000320 54 b0 af 3e 44 5a 8d bd b7 d9 6f bf 76 99 57 bd
       0.34314215 -0.069019824 -0.9369158 -0.052636586
000330 0d 3b ea 3c 1c 7b 4f 3e 24 16 b7 bd 0a c0 99 bc
       0.02859261 0.20261806 -0.0893977 -0.01876833
000340 25 f8 54 be 3f dc f2 3d 36 7c 9b bd fe 9f 2a be
       -0.20797785 0.11858415 -0.07592051 -0.16662595
000350 6e b5 b3 3d 32 32 69 bd 2b e5 e9 3d 6f 6a 1d bd
       0.08774839 -0.056932636 0.114206634 -0.03843158
000360 02 ad 54 3e 09 3e 8c 3e fd 50 5c bc 10 34 e0 3d
       0.20769122 0.2739108 -0.0134470435 0.1094743
000370 84 30 0d 3e a0 6b 36 3e 95 b4 c3 be 30 b2 97 3d
       0.13788038 0.17814493 -0.3822371 0.074070334
000380 ed 7b a6 3e 2d 82 fa 3e fe 38 9f bb 9e ea 4c 3d
       0.32516423 0.4892744 -0.004859089 0.050028436
000390 89 13 35 be ce 75 bc 3e ee c6 a5 bd 2c c2 8a bc
       -0.17683233 0.36808628 -0.080945835 -0.016938291
0003a0 1a 6e 81 3d c3 11 c0 3d f9 2c 22 be 84 0c 40 3d
       0.06319828 0.09378388 -0.15837468 0.046886936
0003b0 58 56 30 be 08 a9 06 3d ba da 24 3f e6 f3 fe bb
       -0.17220438 0.032876045 0.6439625 -0.00778054
0003c0 6b 55 99 3e 3e cf 62 3c bd 4d 95 bd 78 17 ac 3e
       0.2994798 0.013843356 -0.07290218 0.33611655
0003d0 b4 55 8c 3c db 79 2a 3e af 6d 1c 3d fc f6 73 3e
       0.01713071 0.16648047 0.03819054 0.23824686
0003e0 af 84 3b be f2 31 0c 3e 10 a2 18 be 6c 17 b2 3b
       -0.18312334 0.13690928 -0.14905572 0.005434921
0003f0 34 d5 22 3e ca 1b e3 bd e3 74 33 3e 5a 15 bb bd
       0.15901643 -0.11089285 0.17525057 -0.09134932

decoder.4.bias f4 [32]
000000 67 6a 22 3e d4 7f 19 be 37 bd 94 bd be 8e b6 bd
       0.15860902 -0.14990169 -0.07262652 -0.08913945
000010 c3 8b be 3c 7d e3 8f bd 3e 9f 33 3e b6 9d 89 3d
       0.023260003 -0.07025812 0.17541215 0.06719534
000020 fb d3 de 3d 44 50 01 3c a3 00 09 3e 82 b4 2d bd
       0.10880276 0.007892672 0.13379149 -0.042408474
000030 ee a0 e6 bd 47 e6 2c be 2f 1a b6 3d d5 a7 d1 bd
       -0.11261164 -0.16884719 0.08891713 -0.102370895
000040 f4 c2 53 be c1 56 8a bd b7 4b 31 3e 04 76 e0 3d
       -0.20679837 -0.06754828 0.17314039 0.1096001
000050 56 5f 5d be cb a6 2c be a7 bb 8c 3d 4e bd 7a 3e
       -0.21618399 -0.16860501 0.06871729 0.24486277
000060 0f 25 1b be c5 0a 7e bc 89 95 c4 3d 70 19 03 3d
       -0.15150855 -0.015505497 0.09598834 0.03200668
000070 ef af 72 bd 21 06 a5 3d 71 ca 85 3e c7 60 13 3e
       -0.059249815 0.080578096 0.26131013 0.14392386

decoder.6.weight f4 [3, 32]
000000 8c 76 86 3e 2e 65 13 be a6 aa e0 bd b4 9d 29 be
       0.2626232 -0.14394066 -0.109700486 -0.16564065
000010 39 94 4e bd bf 9f d4 be 0a ee 50 be 3c 15 91 3e
       -0.050434325 -0.41528127 -0.20403305 0.28336513
000020 f0 8b 94 be 85 33 14 be b3 ca 95 be 24 9e 4a be
       -0.29013014 -0.14472778 -0.2925621 -0.19786888
000030 0d ea 9c 3d c7 82 98 bd 5c 29 e4 3d 58 1e e0 be
       0.07661829 -0.07446819 0.11140701 -0.4377315
000040 29 25 c2 3e d9 df 65 be 6e 2c 88 3e 5d 78 21 bd
       0.37918976 -0.22448672 0.26596397 -0.039421428
000050 5f 3f 31 3f 87 ec bf 3e 04 a0 be 3d 4f e1 5b 3e
       0.6923732 0.37485144 0.09307864 0.21472667
000060 90 2f af bd 12 5a 87 3e a2 6f fb bd c0 17 a4 3d
       -0.08553994 0.26435906 -0.12277152 0.080123425
000070 7c c1 a4 bc e0 95 1a 3f 3a eb 61 3e ab 94 ac be
       -0.020111792 0.6038494 0.22062388 -0.33707175
000080 cd ff 2b 3e 1a c0 2a 3c 07 b6 d4 bc 83 94 a8 be
       0.16796799 0.010421777 -0.025965704 -0.32925805
000090 5b 87 ed bd 90 b3 b9 be 14 be 42 bd 9c d8 81 be
       -0.11598083 -0.36269808 -0.047544554 -0.25360572
0000a0 84 e5 ef bd 32 0d 13 be 32 ac bd 3d 05 80 3b bd
       -0.117136985 -0.14360502 0.09261359 -0.045776386
0000b0 56 89 2a 3e 93 9b c6 3d 31 34 60 be 95 79 11 bf
       0.16653952 0.09697642 -0.2189491 -0.56826144
0000c0 27 c9 e3 3e 26 8f 98 bc 62 7c c3 bc d0 19 64 3d
       0.44489405 -0.018622946 -0.023863021 0.05568868
0000d0 1f 32 77 3e f4 be 13 be 00 1a d9 bd db ca e3 3e
       0.24140213 -0.14428312 -0.10600662 0.44490704
0000e0 b8 aa 2d be 76 28 a9 be fd 72 c2 bd 28 0a b2 be
       -0.16959655 -0.33038682 -0.094945885 -0.34773374
0000f0 d7 fb c8 3d fd 17 96 3e 8e 24 88 3e fe 6d bc be
       0.0981366 0.29315177 0.2659039 -0.36802667
000100 ce ae 1f be 99 9f a2 3d d1 39 31 be e4 9e 26 3e
       -0.15594026 0.07940597 -0.17307211 0.1627155
000110 d3 1d d0 3d 89 04 dd 3d 1a ca b1 3e ba 0b 72 be
       0.101619385 0.10791881 0.34724504 -0.23637286
000120 f7 13 6a be 9f ff 60 3e 3f 10 b6 3e fe 75 82 3e
       -0.22859178 0.21972512 0.3555927 0.25480646
000130 aa ff 28 be 4e ce 9f bd 54 84 b9 3e 09 58 98 ba
       -0.16503778 -0.07803021 0.3623377 -0.0011622916
000140 c2 b6 f8 be c7 11 b9 be a5 97 6c 3e e2 97 16 3d
       -0.48576933 -0.36146376 0.23104723 0.03676594
000150 ef 09 d7 bd 8a e1 02 be c3 20 5f 3f a0 da 1f 3e
       -0.104999416 -0.12781349 0.87159365 0.15610743
000160 e3 55 a3 bd 59 b3 bb 3d c8 85 cf be c3 f3 44 be
       -0.07975366 0.09165067 -0.40531754 -0.19233613
000170 87 16 4e 3d da d7 10 bf 09 63 31 3d c5 00 44 3e
       0.050314452 -0.56579363 0.043307338 0.19140919

decoder.6.bias f4 [3]
000000 6f 60 91 bd 9f f1 4d 3d 6c e1 52 bd
       -0.070984714 0.050279256 -0.05148451
