leslie_map_3d/experiments/learning/sweeps/sweep_005/morals/run_08/models/decoder.pt (torch, 12493 bytes, 8 tensors)

decoder.0.weight f4 [32, 2]
000000 df ec c8 be ab a6 9d 3e 6b 19 95 3f c6 ce 1c bf
       -0.39243218 0.3079122 1.1648382 -0.6125301
000010 aa fc f9 be f5 a3 42 bd 8f b4 3f bf 06 20 25 3f
       -0.4882558 -0.047519643 -0.74884886 0.6450199
000020 a4 af 9e 3f 76 53 38 bf 6c 1c 5a be bc 4f 01 be
       1.2397351 -0.7200235 -0.21299905 -0.12628073
000030 b7 58 f1 3e 9a fc 90 3f e7 ba bc 3f 0f 15 5b be
       0.47137997 1.1327088 1.4744538 -0.21394752
000040 d2 95 da 3f e5 f3 b4 bf f8 c6 25 3e ca 0f a1 3f
       1.7076972 -1.4136931 0.16189182 1.2582943
000050 7d 99 b6 be ed 9f 3e 3f fb 04 4e bf 47 da a1 3f
       -0.35663977 0.7446278 -0.8047635 1.2644738
000060 19 90 ea 3e 6b 07 92 3f 4e 60 45 3f 60 a9 99 3f
       0.45813063 1.1408514 0.77100074 1.2004814
000070 03 04 07 bf 61 e3 8a bf 37 49 c4 bf bb c8 bb bf
       -0.52740496 -1.085064 -1.5334843 -1.4670633
000080 b1 f9 66 3f bc f5 c9 3f fb 63 54 3e e1 2e 9e bf
       0.9022475 1.5778117 0.20741265 -1.2358056
000090 f4 e6 67 3f 15 46 6d 3e 4a b4 ec bf 05 c8 a8 3e
       0.9058678 0.23171265 -1.849252 0.32965103
0000a0 8b b3 65 3f 4d dc c2 bf f4 ed 28 c0 2f a3 5b bf
       0.89727086 -1.522348 -2.6395235 -0.85795873
0000b0 30 59 49 3e 61 cf 94 bc 26 2f 86 be af 77 b2 3e
       0.19662929 -0.018165292 -0.26207846 0.34856936
0000c0 06 ac a6 3f 6a 34 a0 3f 9f a9 d1 3c 51 3b 87 bf
       1.3021247 1.2515996 0.025593577 -1.0564977
0000d0 e4 6d 2b 3f 8d 54 8e 3d 2c f1 c0 3f de b6 63 bf
       0.66964555 0.069497205 1.50736 -0.8895091
0000e0 ed 5c ab 3f 55 24 be bc 9b 0c ba be 88 f7 d5 3f
       1.3387734 -0.023210684 -0.36337742 1.6716166
0000f0 26 0f f6 bf 65 78 de bf dc da c7 3e 85 dc c2 3f
       -1.9223373 -1.7380491 0.39034164 1.5223547

decoder.0.bias f4 [32]
000000 79 c2 17 3f dc 08 15 3f a6 b7 f4 be 77 62 54 3f
       0.59281117 0.58216643 -0.47796363 0.82962745
000010 a1 1d 86 3e f2 3c 2b bf c4 f3 e5 3e d5 62 84 bd
       0.2619448 -0.6688987 0.4491254 -0.06464163
000020 18 fc 7c 3e 9b e8 cb 3e 3e 38 ee 3e 7e 1d b6 be
       0.24705541 0.398259 0.46527284 -0.35569376
000030 58 ad 7c 3e e1 c8 ea 3d 05 9b 42 3f de 54 7c 3e
       0.246755 0.11464096 0.7601779 0.2464175
000040 62 ca 15 3e 6f 8b 42 3f fa 2a 18 3f 32 99 10 3d
       0.14627984 0.7599401 0.5944058 0.03530235
000050 79 0d e5 3e aa 3e 9c 3e 01 1b 80 be 96 a7 22 bf
       0.4473684 0.3051656 -0.25020602 -0.63536966
000060 b5 3c 1f be 9c 13 98 3e 88 33 26 bf 01 d6 17 3f
       -0.15550502 0.2970246 -0.6492238 0.5931092
000070 2d 7d 8d 3d 49 b3 b6 3e 93 4f c4 3d 9d 5a 8e 3e
       0.06908641 0.3568366 0.0958549 0.27803507

decoder.2.weight f4 [32, 32]
000000 bd fe 3c be 9a 9e 82 3e 18 22 18 bd 00 3f da bb
       -0.1845655 0.25511628 -0.03714189 -0.006660342
000010 85 18 05 3f 6c 9e 07 3e d9 3c d3 3d 3c 3c 9b 3f
       0.5199054 0.13244027 0.1031434 1.2127757
000020 b9 00 20 3f 92 87 5e be aa 9b 10 be c1 19 5d 3d
       0.625011 -0.21731403 -0.14121881 0.05397964
000030 77 3f 46 3e 13 e0 b7 bc e9 2b 96 3d 79 26 20 bb
       0.19360147 -0.022445714 0.07332594 -0.0024436994
000040 05 85 0b be ed 2e 84 bd 99 07 41 3e 5b 6d 41 bf
       -0.13624962 -0.06454263 0.18850555 -0.7555749
000050 34 b6 ae 3e 73 71 c7 bf 90 12 74 3d 61 d1 9a bc
       0.34123385 -1.5581497 0.059588015 -0.018898668
000060 69 e4 1f 3f 93 76 37 3e 2f 55 1c bd f5 3e 75 3e
       0.624579 0.17916326 -0.038167175 0.23949797
000070 b6 19 01 3f 6c 78 19 bf 4e 2c 5d be 05 1e 85 be
       0.50429857 -0.59949374 -0.21598932 -0.25999466
000080 01 ba 22 bd 40 c8 e4 bd 0d 44 e9 bd 3a ad 5e bd
       -0.03972817 -0.11171007 -0.11389933 -0.05436442
000090 2d e6 ce bd f6 53 88 3a e6 35 19 3e 6c 7e cb 3d
       -0.10102496 0.0010400999 0.14961967 0.099362224
0000a0 0f 22 ea 3d d9 74 6e 3c 7a 97 a6 3d 4a d0 06 be
       0.114322774 0.014554226 0.081343606 -0.13165393
0000b0 da f4 e0 3c 78 0e 0f be 7e 47 9f bd 31 f8 a3 3d
       0.027460504 -0.13970363 -0.07777308 0.08006323
0000c0 ed c0 03 be 71 34 50 be 78 c5 c1 3c 1c a1 96 bd
       -0.12866564 -0.20332505 0.02365373 -0.07354948
0000d0 0b 1c 3d be 07 16 bf 3c b3 c6 ae bd e0 15 a4 bd
       -0.18467729 0.023325933 -0.085339926 -0.08011985
0000e0 25 b9 19 be 7d 63 97 bd 3e a1 0d 3e 06 de 9b bd
       -0.15012033 -0.07392023 0.1383104 -0.07610707
0000f0 d2 71 a0 3d 4e 14 40 be 7c b9 e7 3c 18 5a 22 be
       0.078342095 -0.18757746 0.028286688 -0.1585468
000100 dc 38 bb 3d 3a a6 b0 bd e8 a1 82 3a 48 9e 11 3e
       0.091417044 -0.08625455 0.0009966465 0.14220536
000110 08 e5 c6 bd 39 46 20 bd 29 20 5f b9 cb f4 06 be
       -0.09711653 -0.03912947 -0.00021278918 -0.13179319
000120 f8 e3 97 3d 77 cc d7 bd 0e 88 18 3d 28 94 71 bd
       0.074165285 -0.105370454 0.037239127 -0.058979183
000130 41 cb 84 3d 89 46 3d be b4 17 26 be f0 12 01 be
       0.0648408 -0.18483938 -0.1621998 -0.1260488
000140 19 b8 75 3c 6f e2 3c be 27 c4 59 bd 82 71 f5 bc
       0.014997506 -0.18445753 -0.05316558 -0.029961351
000150 d0 24 98 3d 8a fe 09 be 55 26 84 3c dd 3d 03 be
       0.074288964 -0.13476005 0.01613156 -0.12816568
000160 4e 8f 0b 3e 14 82 29 be 8f 42 e1 bd 4e 2c 25 3e
       0.13628885 -0.16553527 -0.10999023 0.16130182
000170 b5 5a 37 bd d8 b0 31 bd 02 9f 98 bc 2a 78 ef 3d
       -0.04476424 -0.043381542 -0.018630508 0.11692841
000180 58 2d 9c 3d d3 bf 08 3e 3e 3a 79 3c 33 95 39 3d
       0.07625836 0.13354425 0.01521164 0.045308303
000190 6b 4b 13 3e d8 9c 06 3e 68 cf d2 bc 25 f0 f3 bd
       0.14384238 0.13145769 -0.025733665 -0.11911038
0001a0 42 0c da 3d c9 0a cc bd e1 23 d9 bd 9c 79 fd 3d
       0.10646869 -0.099629946 -0.106025465 0.12376711
0001b0 8e 39 f8 bd f0 fa 9f 3d 4a 99 2c be 9d 37 ea bd
       -0.12120353 0.078115344 -0.1685535 -0.11436389
0001c0 19 0d 36 3d 10 c0 f8 bd 67 2f 8c 3d bc 6f 03 3e
       0.044446085 -0.12146008 0.06844979 0.12835592
0001d0 ec a8 38 be fd ed 5f bd 3a 4d 7d bb 2b e4 c9 3d
       -0.18033189 -0.054670323 -0.0038650767 0.09857973
0001e0 c3 52 30 3e 4a 1f 67 3d fe a0 fc bd 5a 2d 33 be
       0.17219071 0.056426324 -0.12335394 -0.17497769
0001f0 34 d7 12 be 52 f4 23 be 72 5f 9d 3d 03 73 23 be
       -0.14339906 -0.1601117 0.076842204 -0.15961842
000200 cd 6a 2b 3d bd 23 02 bf 99 99 0f bc 87 33 9e 3d
       0.0418499 -0.5083578 -0.008764648 0.07724672
000210 bd fc 07 bf d0 18 c6 3b 8e 76 73 3e 1e 9c bc be
       -0.53120023 0.0060454383 0.23775694 -0.36837858
000220 80 ce 7e bf d4 9b af 3e 57 8b 88 3d 59 15 a8 be
       -0.99533844 0.34298575 0.06667202 -0.32828787
000230 fa 3d 8c 3e 47 bf 69 bd f1 3c ec bd 8c 89 a4 bc
       0.27391034 -0.057067182 -0.11535061 -0.020085119
000240 5b ce cf 3d 74 05 cd be 97 c7 96 bc 61 a9 04 3e
       0.10146781 -0.40043223 -0.018405719 0.12955238
000250 7d 79 6a bf 7e 47 e9 3d ff b1 05 be e8 2c b4 bd
       -0.91591626 0.11390589 -0.13056181 -0.08797628
000260 c9 06 1b bf 95 db e4 be 7a 53 dc 3c 8e ce 28 bf
       -0.6055723 -0.44698778 0.026895273 -0.6594018
000270 50 76 19 bf ba 67 10 3f ae cc 8c be 91 8a 23 3f
       -0.59946156 0.56408274 -0.27499908 0.6388331
000280 50 74 c3 bd 95 af fd 3d 68 cf d6 bd 91 a6 8f bd
       -0.09543669 0.12387005 -0.10488778 -0.07014192
000290 fc 98 26 be 3f 4c 9e 3c 95 0f b4 bb 73 56 12 bd
       -0.16269296 0.019323466 -0.0054950216 -0.035726976
0002a0 2f 9f d7 bc 54 4e d8 bc 43 f9 26 3e 38 d8 21 be
       -0.026321022 -0.026404537 0.16306023 -0.15805137
0002b0 78 e4 0f be e9 f7 17 bd 0c 63 c0 3c 75 93 0b 3e
       -0.14051998 -0.03710166 0.02348473 0.13630469
0002c0 c9 bc 03 3e 4b 51 03 be 65 68 2e 3e c4 54 b5 bc
       0.12864985 -0.1282398 0.17032011 -0.022135146
0002d0 98 d9 5a bd 16 d2 0c 3e 54 78 af bd 4e 14 7d 3b
       -0.05343017 0.13752016 -0.08567873 0.003861684
0002e0 e4 eb 0c be c1 9e 30 be 5a e1 77 3d b1 23 8a bd
       -0.1376186 -0.1724806 0.060517646 -0.06745089
0002f0 2e ec e0 3d 25 dd 2d bd 00 73 13 be f6 78 d6 bd
       0.10982548 -0.042447228 -0.14399338 -0.1047229
000300 b9 5b 1c bd c8 49 e3 bc 45 8a 28 be 96 2c 32 3d
       -0.03817341 -0.027745143 -0.16458996 0.04349955
000310 82 e4 b7 3d 4a 37 9d 3d e1 22 ea bd 30 dd ba 3b
       0.08979131 0.07676561 -0.11432434 0.005702637
000320 cc 69 f9 3c 22 7f 00 be bc 62 12 3d 07 f9 7e bc
       0.030445956 -0.12548497 0.03573869 -0.015562302
000330 98 67 1a be e1 49 ec bd af 23 d1 bd 87 a6 7c bd
       -0.1507858 -0.11537529 -0.10211884 -0.06168225
000340 c7 31 04 bc 3e 27 07 3e d1 14 21 be 79 05 da 3d
       -0.0080685085 0.13198563 -0.15730597 0.10645575
000350 33 53 ac bd be 07 66 bd d5 99 1b be 82 aa 7f bb
       -0.084143065 -0.056159727 -0.15195401 -0.0039011543
000360 e6 9f 2c bd 24 e8 93 bd 60 f0 d6 bd 42 a1 30 be
       -0.04214468 -0.07222012 -0.10495067 -0.17249015
000370 91 0c 1e be d9 6d ac bb 40 95 bc bd 55 92 cb bd
       -0.15434481 -0.0052621183 -0.09208155 -0.0994002
000380 2f 71 7f 3e a5 ca 66 3e 9b 95 27 3e 98 d8 9a 3e
       0.2494552 0.2253824 0.16365664 0.30243373
000390 86 89 9b bd 66 e5 e8 bd cc 86 b1 3e 2a 58 e3 3c
       -0.0759459 -0.11371879 0.34673154 0.027752
0003a0 d9 75 53 be c9 00 dd 3e a1 d4 87 3e 95 a5 ce be
       -0.20650424 0.43164662 0.2652941 -0.40360704
0003b0 62 ed 35 3e 7b 66 a7 3d 73 d9 ce 3d cf 42 3c 3e
       0.17766336 0.081738435 0.10100069 0.1838486
0003c0 c7 12 d2 bd c3 6b 8d 3d df 92 a0 3e a0 56 8a be
       -0.10257488 0.069053195 0.31362054 -0.27019215
0003d0 52 be 03 3d 2d 8e 35 be 74 5b 0d be 4d 43 6d bd
       0.032163925 -0.17730017 -0.13804418 -0.05792551
0003e0 37 a7 0c 3e a3 19 df bd 78 ff b0 3d 51 47 76 bd
       0.13735662 -0.10893562 0.08642477 -0.060126606
0003f0 8b 58 b0 3e bc d7 a5 3e 69 1c 06 bf 4b 86 d3 3d
       0.34442553 0.32391155 -0.523871 0.10328349

decoder.2.bias f4 [32]
000000 f6 ec 30 be 2e 34 89 bb f1 7d bc bd 0c f7 18 3e
       -0.17277893 -0.0041871285 -0.09203709 0.14937991
000010 8b bb cc 3d f2 14 1e be f7 00 d4 bc 33 d8 82 3e
       0.099967085 -0.15437678 -0.025879366 0.25555572
000020 bc 7e f8 3d 7f 8b 24 3e eb 2f 03 3e f4 aa 21 be
       0.12133548 0.16068839 0.12811248 -0.1578787
000030 55 e2 56 3e 41 ba 21 3d cf 71 b4 3e 6d 9a 35 3d
       0.20984776 0.039484266 0.3524308 0.044336725
000040 5d df 50 3d 6c bd 15 be d9 cf 5d 3e d1 c2 3f bb
       0.050994266 -0.1462304 0.21661319 -0.0029260407
000050 a1 89 97 bd 42 67 40 be ab 08 59 3e d5 2e 23 3e
       -0.073992975 -0.1878939 0.21194713 0.15935834
000060 f7 c6 28 3e 22 e3 e4 bd 5b 9d a8 3d 71 63 f4 3d
       0.16482149 -0.11176135 0.08233138 0.119330294
000070 0f c9 54 3e 65 96 11 be 5e bd c5 3c d5 b1 fe 3d
       0.20779823 -0.14217527 0.024138149 0.124362625

decoder.4.weight f4 [32, 32]
000000 37 3e c9 3e 1f 8d a0 3d e9 21 14 3c 4e e3 02 bc
       0.3930528 0.07839417 0.009041288 -0.007988764
000010 78 c0 0b 3f ab 33 0b 3e 08 b6 ba 3c f8 8f 66 3e
       0.5459056 0.13593929 0.022791877 0.22515857
000020 7b 16 bc 3e 81 f4 9f 3d b5 63 13 bd 81 9e 13 be
       0.367359 0.07810307 -0.03598376 -0.14415933
000030 10 7b 8d 3d 8c 5b 95 3d b7 3f 3c 3e 17 31 0e be
       0.06908238 0.07292852 0.1838368 -0.13885914
000040 72 19 3d 3e b2 c7 02 be 8e 4b e1 3d cc a3 7d be
       0.18466738 -0.1277149 0.11000739 -0.24769515
000050 bc eb 43 3e 2a f9 25 bf d5 68 29 be d7 1e ac be
       0.19132894 -0.6483332 -0.16543896 -0.3361728
000060 a0 8e 04 be f5 a7 57 3d ae 64 ad bb 3f db 1e 3e
       -0.12945032 0.05265041 -0.005291543 0.15513323
000070 fa b3 85 3e fd df df 3d ac 51 1d be b5 b2 f2 bd
       0.26113874 0.10931394 -0.15363187 -0.11850492
000080 8d d3 6e 3e 4b f8 1e 3d 71 6f 18 3b 95 c5 df bd
       0.23322888 0.03881101 0.0023259784 -0.10926358
000090 9e 1a 95 bd d6 36 99 3d a7 a9 c1 bd 9a 44 50 bd
       -0.072804675 0.07481162 -0.09456187 -0.050846674
0000a0 16 d9 45 3f c0 d6 c8 3e f6 64 19 bf 87 24 1f be
       0.7728437 0.3922634 -0.5991968 -0.15541278
0000b0 0f c0 3c 3e 1a 53 8c 3e 4f fe ef be 65 99 ba 3d
       0.1843264 0.2740715 -0.4687371 0.09111289
0000c0 01 d0 48 3e c4 71 b1 bd 48 86 26 bd 12 11 9f 3e
       0.19610597 -0.08664277 -0.040655404 0.3106771
0000d0 da 3c 31 3e d8 a3 15 3e b6 92 ed be 86 0f 02 c0
       0.1730837 0.14613283 -0.46400994 -2.0321975
0000e0 e3 c4 3d 3e 82 bc 31 bd 10 b3 ad 3e 8d 00 ef 3d
       0.18532138 -0.043392666 0.33925676 0.11670027
0000f0 e7 b2 a1 bf 3c e2 8e bd ef 00 1a 3e 68 20 d8 3d
       -1.2632722 -0.069767445 0.15039419 0.10553056
000100 fb f7 62 3e 39 9c f8 3c 76 8f a1 bb 9d 69 10 3e
       0.2216491 0.03034793 -0.004930432 0.14102788
000110 ac 49 73 bf 4b 3c d0 3d a2 d4 ac 3d af f8 7f 3e
       -0.9503429 0.1016775 0.08438994 0.24997209
000120 e9 df 4b bf fc 27 86 3e 69 d4 87 3e 9e a1 ad 3c
       -0.79638535 0.2620238 0.26529244 0.02119523
000130 36 68 3e 3c a2 84 86 3e 10 8d 95 3e 0c 44 1e 3e
       0.0116215255 0.26273066 0.29209185 0.15455645
000140 80 04 24 be 3e 01 21 be f8 d5 97 3e c4 e7 e0 bd
       -0.16017342 -0.1572313 0.29655433 -0.10981706
000150 d8 09 87 3c 9c e6 41 bf 9d 8b 07 3f 4f c8 f4 be
       0.016484186 -0.75742507 0.5294741 -0.47809073
000160 7c 9f 30 bb f6 52 15 be c4 c1 50 3e c8 57 ba 3e
       -0.002695053 -0.14582428 0.20386416 0.36395097
000170 24 a4 b2 3e 3c b8 80 bc b9 11 8b 3d 18 16 e9 bd
       0.34890854 -0.01571285 0.0679049 -0.11381167
000180 39 1a a7 3f c3 39 25 bc ab 6f 25 3e 88 d1 81 bc
       1.3054878 -0.010084572 0.16155879 -0.015846983
000190 f4 7f af 3f db 35 a3 3d b2 a8 cf bd 08 51 02 bd
       1.3710923 0.079692565 -0.10139598 -0.03181556
0001a0 d9 ea 0f bf 40 0f d6 3d 86 cc 53 3e 94 62 06 be
       -0.56217724 0.104521275 0.20683488 -0.13123542
0001b0 00 fb 65 3e 56 52 b0 bc c8 20 e5 3d ad f9 95 3d
       0.2245903 -0.021523636 0.11187893 0.073230125
0001c0 a9 69 8f 3d 24 a7 46 bd c0 82 9d be 99 5b 50 3f
       0.07002575 -0.04849924 -0.30763817 0.81389767
0001d0 79 73 ed bb 5a 49 db c0 0e ec 65 3d 0e fc 51 bf
       -0.0072464314 -6.852704 0.056133322 -0.8202523
0001e0 da 12 5c bb 2e dd 05 bd 24 bc a6 3d 47 e8 c5 bd
       -0.0033580572 -0.032681637 0.08141354 -0.09663444
0001f0 96 db cc be 0f 9f 06 bc 12 e2 02 be cf 48 73 3d
       -0.4001128 -0.008216633 -0.12781551 0.059395608
000200 d7 43 ae bd e8 47 ae 3d 9a b8 93 bb 43 d2 d7 3d
       -0.08509033 0.08509809 -0.00450809 0.10538151
000210 a7 22 c5 3d b1 3f 26 be 14 a3 ac 3d 42 8e 11 bd
       0.0962575 -0.16235234 0.08429542 -0.03553606
000220 55 70 90 bd 5f 91 1d be 5c de 19 be 26 73 b9 b9
       -0.07052676 -0.15387486 -0.1502623 -0.00035371742
000230 83 f9 ee bd 44 ba 1f be 20 26 bc bd 85 76 16 be
       -0.11668684 -0.15598398 -0.09186959 -0.14693649
000240 15 ea 24 bd 9b 0e 31 3e 2e c7 0f 3e 6f 46 dd bd
       -0.0402623 0.17290728 0.14040825 -0.1080445
000250 a2 c2 17 be 2a cd 04 3e dd 5c 92 3d 62 cb 63 bd
       -0.1482034 0.12968889 0.071466185 -0.055613883
000260 bc bc c5 bd 8f 1e 8f bd 6c 5d 40 3d f6 a0 db bd
       -0.09655139 -0.069882505 0.046964094 -0.1072406
000270 3e df 23 3e 73 93 75 3a 0d 32 e3 bc ee 55 87 3d
       0.16003129 0.000936798 -0.027733827 0.06608187
000280 93 2b 02 40 b9 76 0e 3e 76 13 a1 3d a2 56 23 be
       2.0339096 0.13912477 0.0786504 -0.15951017
000290 e3 74 43 3e 2b bd cf 3d 34 c1 9a bc f4 0a bd bd
       0.19087557 0.10143503 -0.018890955 -0.09230605
0002a0 89 33 25 3f 98 61 22 3e 24 d1 23 bb 73 60 3e 3d
       0.6453176 0.15857542 -0.0024996484 0.0464787
0002b0 48 7a 8e 3d cc 9e 35 3f e1 92 0f bd 0d ca 12 3d
       0.06956917 0.7094543 -0.035052184 0.035837222
0002c0 49 2b 2d bd 61 21 e7 bd 28 34 1f be d6 6e 1d bf
       -0.042277608 -0.112856634 -0.1554724 -0.6149725
0002d0 7c ff 3d bd 58 65 a2 c0 34 25 c6 be bb ce cf 3e
       -0.046386227 -5.074871 -0.3870026 0.4058741
0002e0 d9 0a 2c be 46 af 0a be 67 0d b6 bd ab 13 be bd
       -0.16801013 -0.13543424 -0.08889275 -0.09281095
0002f0 6a 9b e4 bb af d1 c1 3d fd 26 1d be bc 2c d3 bd
       -0.0069765346 0.09463822 -0.15346904 -0.10311267
000300 25 5f 72 3c 8c 5a 0d 3e 15 2c b3 3d 96 84 1b 3d
       0.014793192 0.13804072 0.08748642 0.03796824
000310 c0 27 e8 3d 81 16 02 3e 90 20 84 3d c3 c6 62 3c
       0.11335707 0.12703897 0.06451523 0.013841334
000320 39 06 ed bd f0 02 19 be e7 0f 5d bd 8b 7b 7d bd
       -0.115734525 -0.14942527 -0.053970244 -0.061885398
000330 1c 01 e0 3c d5 ba 09 3e 3e 5a bf 3d 19 fb e6 bb
       0.027344279 0.13450177 0.09343384 -0.007048976
000340 9b 1f fb 3d 9d ac d4 bd 5e f8 e7 3b 4f d7 32 be
       0.12261888 -0.10384486 0.007079168 -0.17464946
000350 c7 fb 56 3d f4 a5 f3 3d b2 47 22 3d 45 09 f6 bd
       0.052486207 0.118968874 0.039619155 -0.12013487
000360 13 7f 1b be e8 0f bc bd 6a fe 8f bb 37 84 77 3c
       -0.15185194 -0.091827214 -0.004394342 0.015107206
000370 20 27 a9 3c 3b a7 07 3e 7f c8 6e bc 7e f8 85 bd
       0.020648539 0.13247387 -0.014574169 -0.06541537
000380 d3 0d d2 be 25 b2 cc bd aa 40 d5 3c 18 46 67 bd
       -0.41026172 -0.09994916 0.02603181 -0.05646333
000390 70 a2 3c 3f 9b b6 47 bd 01 46 f8 3d 7a c9 27 3d
       0.7368536 -0.04875813 0.12122727 0.040963627
0003a0 72 fe 5e 3f 88 5a 45 3c d5 0f a8 3e 64 41 22 be
       0.87107 0.01204551 0.3282458 -0.15845257
0003b0 2a 29 df 3c ff 7b 4f be cd 39 e2 3e 9b 56 06 bd
       0.027241308 -0.20262145 0.44184723 -0.032797437
0003c0 21 f9 e5 bd 9e 75 09 be 6a be e5 3d d6 07 aa be
       -0.11229158 -0.13423774 0.11217959 -0.33209103
0003d0 24 84 97 bd a1 d8 be be bd 64 4c bf ba fb 04 3f
       -0.07398251 -0.3727465 -0.79841214 0.51946604
0003e0 01 5c c0 be 3c 5f 03 be 42 35 1d 3e 92 0e 05 be
       -0.37570193 -0.12829298 0.15352347 -0.1299384
0003f0 a9 dd d5 3e 4a 0f 04 3e 7f 09 88 bd a8 02 62 bd
       0.41770676 0.12896457 -0.06642436 -0.055178314

decoder.4.bias f4 [32]
000000 bf 19 6a 3e 17 d6 27 3e 77 f9 2b 3e 38 71 0a 3e
       0.22861384 0.16390263 0.16794382 0.13519752
000010 91 9d e6 3d 67 35 40 bd 39 f2 1e be 37 bf 5e 3d
       0.11260522 -0.04692593 -0.15522088 0.054381575
000020 05 9b 0a 3e 10 24 3c bd 91 80 8e 3c 03 d9 57 3e
       0.13535698 -0.04593283 0.01739529 0.21078877
000030 d7 b8 68 3e 64 56 4a bc ae 58 bf bd 45 0a 75 3e
       0.22726761 -0.012349699 -0.09343086 0.23929699
000040 11 54 8b bd ff 61 8c bd 11 e1 0d 3e d1 a4 7c bd
       -0.06803144 -0.06854629 0.13855387 -0.06168062
000050 90 cc 3f 3e bb c4 d0 3d 04 f7 a2 3d 75 f5 f1 bd
       0.18730378 0.10193773 0.07957271 -0.11814395
000060 93 d8 a0 3c 55 a8 26 be 5a f7 a1 be 9b 26 25 bc
       0.01963452 -0.16275151 -0.31634027 -0.010080005
000070 9d c7 bc 3d 82 14 6f 3c 2c 70 fa 3d 20 ec 2b be
       0.09217761 0.014592292 0.12228426 -0.16789293

decoder.6.weight f4 [3, 32]
000000 eb d6 a6 bd 6f 1f 88 bd 25 16 d3 3e 2b 72 2e 3e
       -0.08146461 -0.066466205 0.41227832 0.17035739
000010 4f a4 18 3e c0 50 16 3e 19 8f 75 bd a6 ae 0c bf
       0.14906429 0.14679241 -0.05995092 -0.5495399
000020 9d ea 76 bd 99 96 fb 3d 82 3c 96 bd a2 ac a3 be
       -0.06028234 0.122845836 -0.0733576 -0.31967646
000030 40 a8 39 3b e7 04 4a 3e 3c 46 0c bf bb 20 9d 3e
       0.0028329045 0.19728433 -0.5479467 0.30689034
000040 f4 84 1f bd be 14 11 bd 00 97 8e 3d 15 ef b5 bd
       -0.038945153 -0.035420172 0.06962395 -0.08883492
000050 38 3a 9d be 27 6d d4 3c a5 30 4d bf c6 4a 4e bf
       -0.3070848 0.025930954 -0.8015235 -0.80582845
000060 b4 55 b5 3e 68 f8 c3 3c 95 b0 4d 3f 46 5d 0f 3e
       0.3541695 0.02392216 0.8034757 0.14000425
000070 83 2e b8 3d a5 5e 35 be 20 39 9f 3e 8c 3b 60 3c
       0.089932464 -0.17711885 0.3109827 0.013686072
000080 1a f7 cb bd 3a 00 77 bf 3b 23 8e be 60 c7 4b bf
       -0.0995924 -0.9648472 -0.27761254 -0.796011
000090 73 df 2e be 59 52 b4 3d 61 a3 92 3c e7 cd 12 3f
       -0.17077427 0.08804769 0.01790017 0.5734543
0000a0 93 01 55 3d 5a 2a 28 3e 09 07 51 3d 85 b0 4d be
       0.052003454 0.16422406 0.0510321 -0.20086868
0000b0 a6 fd d1 be 94 4c e2 3f 5d 92 07 c0 1e e2 91 bf
       -0.4101383 1.767962 -2.1183083 -1.139713
0000c0 eb 40 ab bd 64 b0 06 be f1 32 d8 3d 0b ce 3b bc
       -0.083619915 -0.13153225 0.10556591 -0.011462699
0000d0 18 24 65 be 40 8e 1e be 3a a3 a6 3d d3 5d 90 3f
       -0.2237705 -0.15483952 0.08136602 1.1278633
0000e0 2e 98 6e 3c 6c af 86 3c c1 c6 01 3f 55 d4 7d be
       0.01456265 0.01644107 0.506939 -0.2478803
0000f0 18 0d 8c be 76 72 f0 bd c4 85 3d be 59 ec 1b 3e
       -0.2735374 -0.11740582 -0.18508059 0.15226878
000100 d8 ce 92 be ba bf 9a 3e 52 7e 95 be f9 34 9d bf
       -0.28673434 0.302244 -0.29197937 -1.2281791
000110 95 9c 1b 3e af e4 86 bf c6 8d 18 3e a1 f2 60 bd
       0.1519645 -1.0538539 0.14897832 -0.05491889
000120 1a 3c 08 3e 38 c7 9b bd 58 c7 bc bd 87 1d 10 be
       0.13304177 -0.07606357 -0.09217709 -0.14073764
000130 7c 5e 7e be a3 ff c4 bf fe 7c 2e bd e8 75 41 3f
       -0.2484073 -1.5390514 -0.04259967 0.75570536
000140 33 00 51 3d 7c 95 5d 3c 9f 54 38 3d 8e db 39 3d
       0.05102558 0.013524409 0.045002576 0.0453754
000150 fc 07 5b be eb 63 0c bd de 49 8a 3e fc b1 ff 3d
       -0.21389765 -0.034274977 0.2700948 0.1248512
000160 6d c5 f4 3e f4 94 d5 bd a0 56 2d be ea cc d9 be
       0.47806874 -0.10428801 -0.16927576 -0.4253915
000170 1e 5c c7 be bd af cb be 53 72 fe bd 56 2a d7 bd
       -0.38937467 -0.39782515 -0.12424149 -0.10506122

decoder.6.bias f4 [3]
000000 f3 4a ec bd 96 45 60 be 5c d4 91 3b
       -0.11537733 -0.21901545 0.004450364
