leslie_map_3d/experiments/learning/sweeps/sweep_005/morals/run_08/models/encoder.pt (torch, 12493 bytes, 8 tensors)

encoder.0.weight f4 [32, 3]
000000 3a 9b 87 3e ec 7d f8 be 02 2b 12 bd 75 0e 3b be
       0.26485616 -0.4853357 -0.035685547 -0.18267234
000010 a1 3f 06 3e 18 9f b1 3e ab 00 16 3f 12 b8 24 3e
       0.1311021 0.3469169 0.5859477 0.16085842
000020 1c 82 34 3e ca 6b 1c bb a4 6e 95 3e fa 95 2f 3f
       0.17627758 -0.0023867958 0.29185975 0.6858822
000030 f1 dd 60 be 92 1b 42 3e 87 99 ea be 14 95 10 be
       -0.21959664 0.1895583 -0.45820257 -0.14119369
000040 06 b2 e4 bd b2 0c 9e 3e d6 56 fe 3e 4a cf 30 3f
       -0.11166768 0.3086906 0.49675626 0.690663
000050 e0 b9 0a 3f ba 94 99 3c 4a 8a e5 bf 16 15 16 3f
       0.5418987 0.018747676 -1.7932827 0.58625925
000060 42 4b a7 be 9a 76 b7 3e 90 24 24 3f 85 85 28 3e
       -0.32674605 0.35832673 0.6411829 0.16457184
000070 df 83 ec 3e 6b 89 c5 3e 92 81 12 bf 9c b8 da be
       0.4619436 0.38581404 -0.5722896 -0.4271897
000080 5e 1a e1 be df de 16 3f 97 21 c8 be 43 d1 0a 3e
       -0.4396543 0.58933824 -0.39088127 0.1355639
000090 f8 49 0a be 06 70 9d 3e fd 11 f2 3e 49 12 55 3e
       -0.1350478 0.3074953 0.4727935 0.20807756
0000a0 ad 2b f5 bd bf 0d 7c 3d 34 8c 31 3f 5b 7a 96 3c
       -0.11971221 0.061536547 0.6935456 0.01836889
0000b0 3e c4 92 3d a6 e5 25 bf 6b 9c 59 3e c8 bb 04 3f
       0.071663365 -0.6480354 0.21251075 0.5184903
0000c0 15 bb e1 3c 82 4b 9b 3d ad c5 17 be dc 7b dc bd
       0.027555028 0.07582761 -0.14821501 -0.10765812
0000d0 1f 0a f8 3e 6b 3a e6 bd 65 9f 82 3e 8c ac 3d bd
       0.48445222 -0.11241611 0.25512233 -0.04630713
0000e0 22 de 1e 3f 34 db e2 3d b8 ce e4 3e 80 f7 29 3d
       0.620577 0.11076966 0.44688964 0.0414958
0000f0 2e 22 10 3e ec 20 ac 3e 26 31 17 bf c3 d6 dd 3e
       0.14075539 0.33618867 -0.5905937 0.43327913
000100 a2 3c a1 3e 90 2b 80 3e 39 f8 c8 be e8 53 b3 3d
       0.31491572 0.25033236 -0.3925188 0.08756238
000110 72 60 1b 3e c3 9e d4 be aa 9f 0c be 68 01 0a bf
       0.1517351 -0.41527376 -0.13732782 -0.53908396
000120 51 07 c2 bd 6f 52 53 3e ad 46 a9 3e 27 e3 fd 3e
       -0.09474052 0.20636915 0.33061734 0.49587366
000130 54 a4 06 bf 78 38 b9 3d 36 d6 4c bf 8e bd 3d 3e
       -0.52594495 0.09043974 -0.8001436 0.1852934
000140 e2 94 d2 be 62 82 11 bf 9d 14 11 bf a6 46 11 bf
       -0.41129214 -0.56839573 -0.5667208 -0.56748426
000150 3b 1d 45 be a4 f5 4e bf fa cd b3 be 89 07 9d bf
       -0.19249432 -0.8084357 -0.35118085 -1.2267925
000160 35 58 bf 3e 25 dd 19 bd 93 fd 25 3f 12 70 0d 3f
       0.37371984 -0.037564415 0.6484005 0.5524913
000170 b0 34 ae 3e ea 81 ca be 38 66 0b bf c3 95 d8 be
       0.34024572 -0.39552242 -0.5445285 -0.4230176

encoder.0.bias f4 [32]
000000 9d ef 60 3e 04 2a 15 be 1a 16 ba bd bc 1a ff bc
       0.21966405 -0.14566809 -0.09086247 -0.031140678
000010 1d 87 af 3e 11 b5 c4 be ed d6 53 3e 8d 2f 17 3e
       0.3428277 -0.38419393 0.20687456 0.14764233
000020 cd ab ee 3e 5e db d9 be a7 f7 90 be f9 a5 ee be
       0.4661545 -0.42550176 -0.28313944 -0.46611002
000030 04 db 71 3e 62 ad 00 bf 24 29 3b be 8b c1 8f 3e
       0.23618704 -0.5026456 -0.18277413 0.2807735
000040 7f 8c 02 3e 2e b2 67 3d 44 25 77 be 23 bf 8e 3e
       0.12748908 0.05656641 -0.2413531 0.278802
000050 0f f7 bc 3e cd 28 61 3e 86 f3 68 be ab 64 9b be
       0.3690724 0.2198822 -0.22749147 -0.3035024
000060 95 29 f7 3e 47 6a 3a 3d be f5 4b 3e 31 e6 0f bf
       0.48273912 0.04551151 0.19917962 -0.5621062
000070 62 f7 de 3e b4 aa ba 3d 35 54 6d bd 63 e2 06 bf
       0.43548113 0.0911459 -0.057941634 -0.5268919

encoder.2.weight f4 [32, 32]
000000 33 11 15 3e 04 de a9 3c c7 38 8d bc b7 4a a9 3d
       0.14557342 0.020735748 -0.017238988 0.08266204
000010 9a ae aa 3d f1 07 44 bd 51 5a 0a be 78 7b ba 3d
       0.08334084 -0.047859136 -0.13511015 0.09105581
000020 9e 47 18 3e 48 9b 73 bd 72 45 90 bd 53 c4 30 be
       0.1487107 -0.05947426 -0.07044496 -0.17262392
000030 22 27 2d 3c 58 c5 00 be 38 ff cf 3c fa 9b fb 3d
       0.010568412 -0.1257528 0.025390252 0.122856095
000040 b5 1f d3 bd ef 6f 13 be 69 d8 35 bd b3 c8 ca bd
       -0.10308782 -0.14398168 -0.044395838 -0.099015616
000050 e6 24 1b 3e 2d ae 28 be a1 76 4c bd 70 b5 23 be
       0.15150794 -0.16472693 -0.04991782 -0.15987182
000060 7e fc f1 bd 47 c9 2b be 87 03 3f 3d f5 e7 c1 bd
       -0.11815737 -0.16776 0.046634223 -0.094680704
000070 2f b1 29 be 46 6f b2 bb b8 c9 21 3e e0 2b 84 bd
       -0.16571496 -0.0054453937 0.15799606 -0.06453681
000080 4d 98 d7 bd 93 e6 a8 3d 8b 01 10 3c fc 0a 7c bd
       -0.10527096 0.082471035 0.00878943 -0.061533913
000090 90 82 bd 3d 05 96 bd 3d a6 02 26 be c6 4e ab bd
       0.092534184 0.092571296 -0.16211948 -0.08364634
0000a0 1d e3 df bc 74 b5 15 3e 24 fb 23 3e 8b 61 e6 3d
       -0.027329976 0.1462 0.16013771 0.112490736
0000b0 40 de dd 3d d1 ac 0d 3e d1 9c b6 3d 10 be 0e bd
       0.108334064 0.13835455 0.08916629 -0.034849226
0000c0 74 b2 26 3e 3e 25 00 3e 5b a4 29 bd ac bf eb 3d
       0.16279012 0.12514207 -0.041416507 0.11511168
0000d0 c0 fe 2e bd 56 ec 1d be 06 c9 16 bd 8d 30 15 3e
       -0.042723417 -0.15422186 -0.036812805 0.14569302
0000e0 1a 7b a4 3d 6e e5 21 3d aa 9f 02 be fb f0 ca 3d
       0.08031292 0.03952544 -0.1275622 0.099092446
0000f0 be 6c bf bd f8 ec b5 3d c9 b7 23 be f6 73 de bd
       -0.09346913 0.08883089 -0.15988077 -0.108619615
000100 e9 2c 0a bc 71 b9 04 3e 86 41 f9 bd 22 45 12 be
       -0.008433559 0.12961365 -0.12170701 -0.14284185
000110 ec 63 ad bd a2 3d c1 3c d3 16 e4 bc 62 14 50 bd
       -0.08466324 0.02358896 -0.027842915 -0.05080069
000120 f8 0a 29 be 0f 8c 95 bd 75 a4 26 be cf 43 e0 bd
       -0.1650809 -0.07302105 -0.16273673 -0.109504335
000130 f1 27 86 bd e4 b2 05 3e f9 76 a7 bd ad cf a7 3d
       -0.06550587 0.13056523 -0.08176989 0.08193908
000140 7b 91 c5 3d 37 b8 5b bd 86 64 12 bc 8d be 0e be
       0.09646889 -0.053642478 -0.0089350995 -0.13939877
000150 ae 7a 8d bd 05 b9 05 be 59 7c 2f be 4f 59 ef 3d
       -0.06908165 -0.1305886 -0.17137279 0.11686956
000160 cc ac d0 bd b3 25 03 3e 05 56 a1 bd f2 e9 2e be
       -0.101892084 0.1280735 -0.07877735 -0.1708143
000170 90 f3 c8 bd 99 04 28 be 6f fa 10 3e f7 b6 29 be
       -0.09812081 -0.16408004 0.14158033 -0.16573702
000180 6c fe 2a be fc cd e0 bd cb 84 6a bd 18 92 6e bd
       -0.16698617 -0.109767884 -0.057255547 -0.058244795
000190 85 92 91 3d 6a 5c d6 bd d1 0a ce bd 9b 64 1e be
       0.071080245 -0.10466845 -0.10060657 -0.15468065
0001a0 3e 5d b2 3c 45 5c 10 3e 83 47 de bd e9 5e 17 bd
       0.021772977 0.14097698 -0.108534835 -0.036955748
0001b0 e3 41 e4 bd e7 53 b1 bd 10 cb aa 3c 73 20 50 be
       -0.111453794 -0.08658581 0.02084878 -0.20324878
0001c0 8a df 33 be e1 ed 5e 3d ce cb 8d 3d 8f d2 f4 3d
       -0.17565742 0.054426078 0.06923638 0.11954223
0001d0 71 cc 95 3d 99 3a 9c bc 8b de 2e 3e 3e 80 fa 3d
       0.07314385 -0.01907091 0.17077081 0.122314915
0001e0 c1 74 d0 bd 56 7b e9 bd f9 70 df 3d 9d b8 05 be
       -0.10178519 -0.114004776 0.1091022 -0.13058706
0001f0 11 60 9c 3d 31 be cd bd 3f 23 4a bd 86 85 7a bb
       0.07635511 -0.10046042 -0.04935002 -0.0038226559
000200 39 f8 dd 3c 8c 0d f3 bd 39 84 0d 3b 59 6d 10 bc
       0.0270959 -0.11867818 0.0021593703 -0.008815133
000210 94 b8 07 be 79 da a4 bc 2c c1 25 be 17 8c 5a 3d
       -0.13254005 -0.020123707 -0.1618697 0.053356256
000220 f8 e8 eb 3d e7 22 4d bb 63 6b 36 bd 62 71 6f 3d
       0.11519045 -0.003130132 -0.044536006 0.05845774
000230 47 9b 41 be 98 6f da 3c 34 a5 00 3e 80 dd 8e 3d
       -0.1890689 0.02666454 0.1256302 0.069758415
000240 d3 0c 46 3d 4b 11 ca bb c2 d4 cf bd e0 d8 8e bd
       0.048352074 -0.0061666123 -0.10148002 -0.069749594
000250 c2 01 45 bd b6 de d3 3c f6 16 0f 3a 09 4a ea 3d
       -0.04809738 0.025863033 0.00054584385 0.11439902
000260 8b dc 5f 3d e5 c8 57 3c 08 c4 2c 3d 16 f7 e4 bc
       0.054653686 0.013170456 0.042179137 -0.027949851
000270 cb 7e c6 3d a4 c4 2e bd 40 58 69 bd c6 e4 30 3d
       0.096921526 -0.042668 -0.056968927 0.043186925
000280 76 aa 35 be 45 5c d3 3d 1c 10 17 bd ec 5f 9e bd
       -0.17740807 0.103203334 -0.036880597 -0.077331394
000290 eb 5f c9 bd 8c 6a ba 3c d7 61 f3 bd c6 90 10 3e
       -0.09832748 0.022755884 -0.11883896 0.14117727
0002a0 2a fc 2d bd 7e 06 74 3d 8b 23 28 3e 35 b0 13 be
       -0.04247681 0.059576504 0.16419809 -0.14422686
0002b0 6b 76 b2 bb ae 0f fe bd b7 1c a8 bd 31 36 b3 3d
       -0.0054462454 -0.124053344 -0.08208602 0.087505706
0002c0 08 35 f9 bb 04 df 5d bd ad 2c 43 be ea 9d bd bd
       -0.007605199 -0.054167762 -0.19060011 -0.09258635
0002d0 f2 f2 bd bd f1 24 b6 3c 96 c2 87 bd 60 0d 8c bd
       -0.09274854 0.022234412 -0.06628911 -0.068384886
0002e0 f4 73 4c bd b9 37 18 3e cc b3 69 bd 4a 28 4d bd
       -0.04991527 0.14865007 -0.057056233 -0.05008725
0002f0 c0 50 4e bd 77 a1 cf 3d f9 f9 3a be 7d 90 cd bd
       -0.050369978 0.10138219 -0.1825942 -0.100373246
000300 68 5c f5 3d 4d b6 07 3d 3d 69 3b bd 8d 37 89 3d
       0.11980516 0.03313284 -0.04575466 0.067000486
000310 a7 01 95 bd 89 f0 d1 3d bf 78 9c bd aa f4 82 bd
       -0.07275706 0.102509566 -0.07640218 -0.06394322
000320 46 8a 4b 3e 8e e4 6d be 1c b9 28 be c5 d8 75 be
       0.19876966 -0.23231718 -0.16476864 -0.24008472
000330 e6 a7 fa 3c 51 98 13 3e 19 ed d2 3d 87 10 a5 bd
       0.030597638 0.14413573 0.10299129 -0.08059793
000340 ba 56 7f 3d d3 a5 80 bc 6a 72 05 bd 66 77 24 3d
       0.06233857 -0.015704071 -0.032579817 0.04015293
000350 38 87 ae bc f8 44 fe 3d f7 e9 0e bd 44 ec b2 3d
       -0.021304712 0.124154985 -0.034891095 0.0873647
000360 d5 0b 3e 3e 4d 14 da bc d7 a0 c6 bd a7 29 f8 3d
       0.18559201 -0.026621008 -0.096986465 0.121173196
000370 71 7b 01 be c7 66 07 3e 15 b3 4d be a2 3f 0f 3e
       -0.12644745 0.132228 -0.20087846 0.13989118
000380 71 26 d1 3d b4 5e b1 3c 4a 38 62 be f6 2b 89 bd
       0.1021241 0.021651603 -0.22091785 -0.06697838
000390 e1 59 5a be 6c 1d 23 3e e7 a9 b7 3d b2 d5 b5 be
       -0.21323349 0.15929192 0.08967953 -0.355146
0003a0 b9 63 b1 3d fa 3e 71 3d 08 bf f4 3d f0 e4 11 be
       0.08661599 0.05889795 0.11950499 -0.14247489
0003b0 7d aa 33 bd 58 d9 c4 bd de f1 d9 3e 26 60 a3 3d
       -0.043863762 -0.096117675 0.42567343 0.07977323
0003c0 2e 68 a9 bd 7a 7d ce bd f7 ac 45 3e c0 f7 3d 3e
       -0.08271824 -0.100825265 0.19304262 0.1855154
0003d0 03 04 9c 3c 9b 2c 44 3e d9 dd d2 3d bf 23 47 3c
       0.019044882 0.1915764 0.1029622 0.012154519
0003e0 18 8c 55 bd 29 56 bf bd 14 a8 fd bd 1e 92 72 3c
       -0.052135557 -0.093426056 -0.12385574 0.014805345
0003f0 9b 4b d0 bd 33 f2 13 3e e5 09 03 3e 29 1a 2c be
       -0.101706706 0.1444786 0.12796743 -0.16806854

encoder.2.bias f4 [32]
000000 19 a9 27 be bb 7e 06 bd d7 00 09 3e dc 18 b4 bd
       -0.163731 -0.032835703 0.13379227 -0.08793804
000010 7a 46 f5 bd 7e 69 b5 3c 2f a0 74 3d a7 37 d5 bd
       -0.11976333 0.02214503 0.059723075 -0.104110055
000020 87 2b 99 3d 2a ed 08 3d 20 2c 92 3d e1 54 31 be
       0.07479005 0.033429302 0.071373224 -0.17317535
000030 90 7d 56 3d 40 2f 5c 3d 29 ad 14 3e be 4c 2d 3e
       0.05236584 0.053756 0.1451918 0.16923806
000040 dc d7 cf 3d d1 6c 2c 3e 78 13 fc 3d 3c 1c c5 bd
       0.10148594 0.16838385 0.12308401 -0.09624526
000050 30 87 1f 3e 64 1a 33 3e 7b dd 9b bd c7 2d 9e 3d
       0.15578914 0.17490536 -0.076106034 0.07723575
000060 d5 90 81 bd 22 e4 b0 3c 5d 9a af bd 1b dd 49 bd
       -0.06326453 0.021593157 -0.08574364 -0.04928313
000070 e4 98 a4 bd 9e c1 13 3d d5 93 dd 3c 09 f9 0a be
       -0.08036974 0.03607332 0.02704803 -0.13571562

encoder.4.weight f4 [32, 32]
000000 9d 77 fe 3d 22 43 52 3d ad 34 19 be 55 bf 86 bd
       0.12425158 0.051333554 -0.149615 -0.065794624
000010 94 42 e3 bd 9e a2 41 3d f2 55 b8 bd 32 ab cd be
       -0.11096683 0.047274224 -0.09000768 -0.40169674
000020 b3 5b 14 3e 17 3c 18 3e 78 09 45 3e 1a 69 77 3d
       0.14488105 0.14866672 0.19241893 0.060402967
000030 8e eb 0b bb c9 42 f8 3a 1f b9 63 be 5f 9f 27 3e
       -0.0021350118 0.0018940802 -0.22238587 0.16369389
000040 27 30 6a 3e 26 f8 31 be c1 72 a3 3d 6a 45 ab 3d
       0.22869931 -0.17379817 0.07980872 0.08362849
000050 43 58 8c bd ef 1e 0f bd f7 ce 2b be b8 0c 12 3e
       -0.06852772 -0.03494161 -0.1677817 0.14262664
000060 0c 62 97 3b c7 f1 31 3e 02 90 89 bd 10 f6 16 3d
       0.0046198424 0.17377387 -0.067169204 0.036855757
000070 aa 05 60 bf 9a c9 76 bd d5 fc 3d 3e 61 9b 80 3d
       -0.8750864 -0.060250856 0.18553479 0.06279636
000080 d3 7d 88 3d ba bc 2c be 8c c4 a2 3d 3c 0b 57 3d
       0.06664624 -0.16868868 0.079476446 0.05250095
000090 80 0e db bd 1f e1 33 be 51 ff 6d bd 04 fa b4 bc
       -0.10696125 -0.17566346 -0.058104817 -0.022091873
0000a0 4f f8 8e 3e 98 c4 20 3e 12 e0 b3 3d e0 bc 09 bd
       0.2792382 0.15699995 0.087829724 -0.03362739
0000b0 d4 52 3e 3d c0 b1 6f 3c c3 fd 40 3e e5 ea 57 3d
       0.04646571 0.014629781 0.18846802 0.052714247
0000c0 db 40 9f be 6c ba 01 bd 06 e1 a2 bd a0 47 14 3e
       -0.31104168 -0.031671926 -0.07953076 0.14480448
0000d0 9e 26 d9 bd 20 2f ed 3d 75 86 a5 3b 4a 3d 8d bd
       -0.10603069 0.11581254 0.005051429 -0.068964556
0000e0 77 59 b0 bd 9d a9 96 bd 60 d8 88 3d 7a 20 41 3c
       -0.08610814 -0.0735657 0.06681895 0.011787528
0000f0 17 20 e2 bd 7c 47 0b 3d dd 35 f4 3d 4a e9 c6 3c
       -0.11041277 0.03400372 0.11924336 0.024281163
000100 ed 1a ed bd 5a b4 dc bd 8d 84 be 3c 76 e6 17 3e
       -0.11577401 -0.10776587 0.023256565 0.14834008
000110 f1 fc 1e be c4 5d 87 bd 2b f6 81 bd 5d 93 18 be
       -0.15526177 -0.06609681 -0.06345781 -0.14899965
000120 cb 3a 24 3e c5 d7 19 3e 75 cb 72 3d 3f 20 66 bd
       0.16038053 0.15023716 0.059276063 -0.056183096
000130 50 f0 a1 bc 4a 5c 5e bd 98 33 b3 3e 8f 53 ed 3d
       -0.01976791 -0.054287232 0.350003 0.11588203
000140 00 d8 9e be 68 10 91 be 67 7f 31 3e 9b 3d 5f 3d
       -0.3102417 -0.2833283 0.17333756 0.05450211
000150 5f cb b9 bd eb 28 77 bd c2 30 10 be 10 27 80 3d
       -0.09071993 -0.060341757 -0.140811 0.062574506
000160 54 da 00 be f5 03 a4 3c d3 c1 11 3e 09 32 52 be
       -0.12583286 0.020021418 0.14234094 -0.205269
000170 6f f4 60 be 25 43 eb 3d fc ad fc 3d 61 b3 db bd
       -0.21968244 0.11487416 0.123378724 -0.10727573
000180 ef a6 be 3d c1 f0 4d bd e4 1f 38 bd cc 4e 09 3e
       0.09309184 -0.05027843 -0.04495229 0.13408965
000190 cb 75 be 3d ca 88 f2 3d 0c 7f 11 3e 6c b0 14 3e
       0.09299811 0.11842497 0.14208621 0.14520425
0001a0 fe ea c2 bd 77 88 33 3d b7 67 09 3d dd 3a af bd
       -0.095174775 0.043831315 0.033546176 -0.08556149
0001b0 31 de 28 be 92 17 1a 3e ab 67 49 be d3 ae ff 3d
       -0.1649101 0.15048054 -0.19668452 0.12484517
0001c0 7e 1b a5 3d b9 86 49 3c 2e 6a d6 bd 72 13 d9 bd
       0.08061884 0.012300187 -0.10469471 -0.10599412
0001d0 82 1b eb bc f3 8d a5 3d 84 92 71 be 2b ba f8 3d
       -0.02869964 0.08083715 -0.23591048 0.12144884
0001e0 a0 77 7e 3d d0 19 93 3c 16 65 47 3d 24 9b 59 3d
       0.062125802 0.017956644 0.048680387 0.05312647
0001f0 d2 00 95 3e a6 97 2d 3e e6 6e 6c bd e2 14 e3 bc
       0.29102188 0.1695238 -0.05772295 -0.027719919
000200 91 91 24 be be ff 93 bd 82 5a b5 ba 00 91 a0 3d
       -0.16071154 -0.07226513 -0.0013836178 0.078401566
000210 67 85 b9 bc 48 1d 2c 3e b5 ee 6b 3d 2e 32 8c bc
       -0.022646619 0.16808045 0.057600696 -0.017113771
000220 83 cf 31 bd 67 74 9b 3d 9f ce 9f bd e8 e7 d9 3d
       -0.04341079 0.07590561 -0.07803082 0.10639936
000230 a9 f1 d5 38 2b a3 22 be af 82 ba 3d 62 6b ac 3d
       0.00010201644 -0.15882556 0.09106957 0.08418919
000240 f3 47 d6 bd d0 1a e4 3d df c7 bc bd cc ec e2 bd
       -0.10462942 0.111379266 -0.0921781 -0.11080322
000250 2f c7 92 bc 69 54 0b be 3a f2 77 3c 95 40 30 be
       -0.017917244 -0.13606419 0.015133435 -0.17212136
000260 0d b7 23 be 60 82 00 be 28 7d 25 3d 7d 2b df 3d
       -0.15987797 -0.12549734 0.04040256 0.108969666
000270 d2 cf c6 3d d0 2d 9f 3c 06 9a db bc 2f e1 88 3d
       0.09707607 0.019431025 -0.026806843 0.06683575
000280 fb 3d b6 bc 22 95 d0 3d 41 18 51 bd 94 d6 d6 3c
       -0.022246351 0.10184695 -0.05104852 0.026225366
000290 93 73 40 bd 13 6f a6 3d 32 5c ca 3d ee ec a0 3e
       -0.04698522 0.081266545 0.09880866 0.31430763
0002a0 d7 68 a7 3b 9d 95 87 bd 6c 58 7f 3e f4 02 17 3e
       0.0051089334 -0.06620333 0.24936074 0.1474722
0002b0 39 a2 d0 bd de 56 9b ba ba 4c 45 be 73 4c 6d be
       -0.101871915 -0.001185145 -0.1926755 -0.23173694
0002c0 c7 e3 c6 3e 16 11 2d 3f 0d a2 bd bb 80 10 8c bc
       0.38845655 0.67604196 -0.00578714 -0.017097712
0002d0 6b 7d 79 be ac 44 8f 3d ec 02 90 3e cb c7 cd 3d
       -0.2436425 0.0699552 0.2812723 0.10047873
0002e0 7e 3a ac 3d 07 4d f9 bd d4 d1 99 3d ff d3 25 3d
       0.08409594 -0.12172895 0.07510725 0.04048538
0002f0 97 8a 39 3f a7 1f 22 3e a2 3b 4d 3b 4b 88 95 bd
       0.72477096 0.15832387 0.0031316062 -0.073013864
000300 cc 42 77 3d 5a af 80 bc 9d cb fe bd 2e df be 3d
       0.060366437 -0.015708614 -0.1244118 0.09319912
000310 14 22 9f 3c 81 09 0e be 66 7d 07 3e e5 6b 0c be
       0.01942543 -0.13870813 0.1323143 -0.13713033
000320 39 21 df bd 51 54 06 3d aa 04 b3 bd bc ef 99 bd
       -0.108950086 0.032795254 -0.08741124 -0.07516429
000330 51 d8 bd bd 7e 2b 68 3e 5a 88 2c 3d 62 a1 51 3e
       -0.09269775 0.22672841 0.042122222 0.20471719
000340 f5 60 cf bd 87 77 af bd 06 b6 01 3e 6e 51 cc 3d
       -0.10125915 -0.0856772 0.12667093 0.09976469
000350 93 ef 17 3d 05 e1 94 bd 8d 0d 80 be 6a 1b 8d 3d
       0.03709371 -0.072694816 -0.25010338 0.068899944
000360 f8 e5 ed 3d 21 98 14 3e 0e 5b 21 3e 71 93 22 be
       0.11616129 0.14511158 0.15757391 -0.15876557
000370 77 e7 2c be 83 58 7e 3c e6 99 69 3e b1 9a 8e 3d
       -0.16885172 0.0155240325 0.22812614 0.06963099
000380 dd 75 1d be 93 72 8d 3d 83 8b 26 3d 28 82 da bd
       -0.15376993 0.06906619 0.040660392 -0.106693566
000390 b9 a9 f6 3d f5 8d ca 3d fb 0b cf 3d c7 4c b3 3d
       0.12044091 0.098903574 0.10109707 0.087548785
0003a0 05 e4 9a bd 12 44 ca bc 46 ea f7 3d 9e 2b 31 3d
       -0.075630225 -0.024690662 0.12105231 0.043254487
0003b0 df b1 d3 3d e3 4b 8d 3e 6d 4a d1 bd 35 b8 80 3e
       0.103366606 0.2759696 -0.10219274 0.2514054
0003c0 2b ff 8c 3d 05 c2 14 3b 86 cb 89 3d 15 3a 72 bc
       0.06884607 0.0022698652 0.06728272 -0.014784356
0003d0 5f 4a cf bc 3d 75 dd bc 27 f2 3b be 69 63 31 bd
       -0.025304018 -0.027033443 -0.18354093 -0.043307696
0003e0 5c 45 2a be b8 57 08 3d f0 98 6e 3e 50 3c 8b 3d
       -0.16628021 0.03328678 0.23300529 0.06798613
0003f0 9c 07 bf be ea ae 8e bd 76 9b ed 3d ea 6f 28 3d
       -0.37310493 -0.06966956 0.116019174 0.041122355

encoder.4.bias f4 [32]
000000 75 86 52 bb 0f 5e 5a 3d 02 14 29 3e b8 6a 17 3d
       -0.00321236 0.053312358 0.16511539 0.03696701
000010 88 ce 0d be b5 e9 80 bd 15 6c a9 3d 62 86 a4 3d
       -0.13848317 -0.06294576 0.08272568 0.08033444
000020 8f d8 e6 bb 36 73 08 3d a1 d8 b9 3c 12 fe 45 3d
       -0.0070448588 0.033313 0.022686305 0.048338003
000030 c8 90 9a 3d f5 56 3c bc 51 fd 5d bd 37 ed 94 3a
       0.07547146 -0.011495342 -0.05419666 0.00113622
000040 89 7b 16 bd 38 70 00 3e 75 06 8d bc ba 71 e8 3d
       -0.036738906 0.12542808 -0.017214993 0.113498166
000050 b4 6e d1 bb 2e b6 11 be 8e a5 55 be a4 50 ef bd
       -0.0063913707 -0.14229652 -0.20863935 -0.11685303
000060 c6 e3 a0 bb 3e 9b 00 3e 3f 9f 52 bd d5 b5 b4 bd
       -0.004909965 0.1255922 -0.0514214 -0.08823744
000070 f9 02 ef 3d 23 6a a8 3c 3c ca a7 3c bd ce 9f 3d
       0.11670489 0.020558422 0.020482175 0.07803104

encoder.6.weight f4 [2, 32]
000000 4c 08 b1 3e 70 66 16 be e5 3e c0 3c ef 3c ca 3d
       0.34576643 -0.14687514 0.02346749 0.098749034
000010 b8 04 a3 3d 70 09 89 be 32 a5 f2 3d fd 68 59 3e
       0.079598844 -0.26765013 0.11847915 0.21231456
000020 29 94 1a 3e 1a 16 19 3e 25 30 63 3e 87 78 97 bd
       0.15095581 0.14949837 0.22186334 -0.07396036
000030 ab 50 e5 3d 1e 57 f1 bd e4 ba 0e 3e bd 13 b4 bd
       0.11197027 -0.117841944 0.1393848 -0.08792827
000040 24 38 be bf cc 2b 0f bc 08 93 0f 3e 9d 1a 12 3e
       -1.4860883 -0.008738469 0.14020932 0.14267965
000050 a0 08 d5 3e e6 18 f8 bc d5 fc 42 bc db cf 8a 3f
       0.41608143 -0.03028531 -0.0119011 1.0844682
000060 6f 31 96 be 0e 96 64 3e 5b f7 3c 3e f1 36 9a be
       -0.2933459 0.22322866 0.18453734 -0.30120042
000070 95 71 ca be b4 e9 21 3d 25 ed 02 bd 00 86 17 be
       -0.3953978 0.039529517 -0.03196444 -0.1479721
000080 8c 11 a7 bc 8b f2 bf 3d 24 21 a6 3d 60 43 0c be
       -0.02039411 0.09372433 0.0811179 -0.13697577
000090 88 cf 43 3c 70 80 3c be 42 a6 17 3d e6 e4 dc 3c
       0.011951335 -0.1840837 0.03702379 0.026964616
0000a0 8f b1 e7 bd d1 ca 4e bd 2b 17 bd be 24 d2 8c bd
       -0.113131635 -0.05048639 -0.36931738 -0.06876019
0000b0 5f eb 0c 3e 64 f4 f7 3c 45 46 1c be f5 01 fe 3d
       0.13761662 0.030267902 -0.1526118 0.12402717
0000c0 ae 46 85 3f 04 5d bb bd 80 1a 17 3e bc 3c d9 3d
       1.0412195 -0.09148601 0.14756203 0.10607287
0000d0 88 c6 d3 be f5 5e 75 3d 33 82 d6 3c 07 76 aa 3e
       -0.41362405 0.05990501 0.02618513 0.33293173
0000e0 e9 b3 26 be 33 bc 22 3e 3c 1c f1 be 4d d8 ef bd
       -0.16279568 0.15892105 -0.47091854 -0.11711178
0000f0 e0 8a 84 bd ce 6e 2f be ad 6c ab 3e 57 cf 3d 3e
       -0.06471801 -0.17132112 0.3348135 0.18536125

encoder.6.bias f4 [2]
000000 f4 12 ae 3c b8 2e 2a 3d
       0.021249272 0.04154846
