examples/multiple_run_001/tanh_activation/run_tanh_activation_001/models/latent_dynamics.pt (torch, 12925 bytes, 8 tensors)

dynamics.0.weight f4 [32, 2]
0	0x3e1fd955	0.1561025
1	0x3ec20706	0.37895983
2	0x3dc33cd0	0.095330834
3	0x3e80b288	0.2513621
4	0x3ec9dd9f	0.39426896
5	0xbedad4c0	-0.4274044
6	0xbe12613d	-0.14294906
7	0x3d951d20	0.07280946
8	0xbe4ee325	-0.20203836
9	0xbe8425ba	-0.25810033
10	0x3f22f652	0.63657105
11	0xbe8d7202	-0.27626044
12	0xbeffa1b2	-0.4992805
13	0xbf4602c0	-0.77347946
14	0x3eb379d8	0.35053897
15	0xbf238199	-0.63869625
16	0x3f1e9816	0.61950815
17	0xbed6ea55	-0.41975656
18	0xbf28ac6c	-0.65888095
19	0xbf343732	-0.7039672
20	0x3ebe9ca0	0.3722887
21	0x3e494321	0.19654514
22	0xbf2edcd4	-0.68305707
23	0xbe53c404	-0.20680243
24	0xbe8ee9b9	-0.2791269
25	0x3ed1b3b6	0.4095742
26	0x3e50d5c4	0.20394045
27	0x3f02b4ee	0.51057327
28	0xbefa006e	-0.48828453
29	0x3ed110b6	0.40833062
30	0x3f0fbaba	0.561443
31	0xbec92f62	-0.39293963
32	0xbd4528dd	-0.048134673
33	0xbf3c5bb7	-0.73577446
34	0xbd8cf62b	-0.0688289
35	0xbf334025	-0.7001975
36	0x3eee9445	0.46597496
37	0xbefcb20b	-0.49354586
38	0x3e3e0766	0.1855751
39	0x3e17f55e	0.14839694
40	0x3f10b5cd	0.56527406
41	0xbea1a7aa	-0.3157323
42	0xbd682661	-0.056677226
43	0x3e4389b4	0.19095498
44	0xbe96931c	-0.2940911
45	0xbda1d0f1	-0.079011805
46	0xbeb9311d	-0.36170283
47	0xbb87c030	-0.0041427836
48	0xbefd200e	-0.49438518
49	0x3eca2bf4	0.3948666
50	0xbf3abd77	-0.7294535
51	0xbe8bed9c	-0.2732972
52	0x3eaf3bb7	0.34225246
53	0xba1382ee	-0.0005627115
54	0xbed05cc6	-0.4069578
55	0x3eab4807	0.3345339
56	0xbf458471	-0.77155215
57	0xbe26d2e0	-0.1629138
58	0xbf3fab51	-0.74870783
59	0xbdce2570	-0.100657344
60	0x3f16a7ed	0.58849984
61	0xbf2160c4	-0.6303828
62	0x3e58f790	0.21188188
63	0xbdf0a9a9	-0.1175111

dynamics.0.bias f4 [32]
0	0x3f3abbfc	0.7294309
1	0x3e8c54a6	0.27408332
2	0xbdfae562	-0.122507825
3	0x3f0464f5	0.5171655
4	0xbe3e0196	-0.18555292
5	0x3df6bdf2	0.12047948
6	0x3d556e15	0.052106936
7	0x3e3152a2	0.17316678
8	0xbe8f0511	-0.27933553
9	0xbe7af290	-0.24506593
10	0x3cf4208a	0.029800672
11	0x3f00cce7	0.50312656
12	0x3ea268d1	0.31720594
13	0xbc58f820	-0.013242751
14	0xbe823c2d	-0.25436535
15	0xbdf76db4	-0.12081471
16	0x3e91bd1f	0.284646
17	0xbbd86ed7	-0.00660501
18	0x3ee73125	0.45154682
19	0xbf33fb7b	-0.70305604
20	0x3f22a2f4	0.63529897
21	0xbeea7114	-0.45789397
22	0x3f26fbc2	0.652279
23	0x3f2f08f2	0.68373024
24	0xbede10da	-0.43372232
25	0xbf0ce549	-0.5503736
26	0x3e3336df	0.175014
27	0xbec9c7a6	-0.39410132
28	0x3d5af572	0.05345673
29	0x3e86d913	0.2633749
30	0x3e788c39	0.2427224
31	0xbe422310	-0.18958688

dynamics.2.weight f4 [32, 32]
0	0x3de60209	0.11230857
1	0xbde852ed	-0.11343942
2	0xbda29e3b	-0.07940336
3	0xbc249fae	-0.010047836
4	0xbc6ed096	-0.014576098
5	0x3d83f5e7	0.064433865
6	0x3e542489	0.20717062
7	0xbcd71f71	-0.02626011
8	0xbe07b04f	-0.1325085
9	0x3db8dbb2	0.090262786
10	0x3b829356	0.003984849
11	0xbd6df0e4	-0.05809106
12	0x3d07f0aa	0.0331885
13	0xbddfe713	-0.10932746
14	0x3da2bb79	0.07945914
15	0xbd09caed	-0.03364079
16	0x3d90201e	0.07037376
17	0x3e75bd65	0.2399803
18	0x3e3eb5e2	0.1862407
19	0xbe11b12b	-0.1422774
20	0x3e5722aa	0.21009317
21	0xbd45bf7a	-0.04827831
22	0x3c614017	0.01374819
23	0x3da2b80b	0.0794526
24	0xbe0eb301	-0.13935472
25	0x3e3a5094	0.181948
26	0xbdd61371	-0.10452927
27	0x3d3eed68	0.046613127
28	0x3de31e5a	0.110897735
29	0xbd7c6c0b	-0.061626475
30	0x3e3ae68f	0.18252014
31	0x3dd3bcd1	0.10338748
32	0x3e16836f	0.14698575
33	0x3d870367	0.06592446
34	0xbddb872e	-0.10719143
35	0x3e1d0e9f	0.15337609
36	0x3e719e83	0.23595624
37	0x3e2a39ef	0.16623662
38	0x3e3822d0	0.1798203
39	0x3e5727bf	0.21011256
40	0xbe0fba50	-0.14035916
41	0x3dc444e2	0.09583451
42	0x3dda2e7d	0.10653398
43	0xbbf458a2	-0.007456855
44	0x3c7a0afc	0.015261408
45	0x3e13e2ea	0.1444203
46	0x3d660c24	0.056163922
47	0x3dda1ed2	0.1065041
48	0x3ce55f8a	0.027999658
49	0x3e791ae2	0.24326661
50	0x3de19da7	0.11016398
51	0x3c235175	0.009968151
52	0x3d237422	0.039905675
53	0xbe0c6253	-0.13709383
54	0x3e467822	0.19381765
55	0x3e064171	0.13110901
56	0xbe33535b	-0.17512266
57	0x3d466e7f	0.04844522
58	0x3d904a00	0.070453644
59	0xbd9a5c9a	-0.075371936
60	0x3e657985	0.22409637
61	0x3e838a16	0.2569129
62	0x3a1fc396	0.0006094513
63	0x3d52e22f	0.051485237
64	0x3e68149e	0.22664115
65	0xbdc2bdfa	-0.095088914
66	0xbd5a02e9	-0.05322543
67	0xbd96af6c	-0.07357678
68	0x3e8c0565	0.27347866
69	0x3c0bbb03	0.008528474
70	0xbd84c885	-0.064835586
71	0x3e06f6e6	0.13180122
72	0x3c44e464	0.012017343
73	0xbd414059	-0.047180507
74	0x3be8f837	0.0071096676
75	0x3dec23e2	0.115302816
76	0x3e71d67d	0.23616977
77	0x3c357ad4	0.011076648
78	0x3deaa74a	0.11457689
79	0xbe2a1d17	-0.1661266
80	0x3d81714b	0.06320437
81	0x3e362af8	0.17789829
82	0x3e2929e5	0.16519888
83	0x3dc30dd0	0.09524119
84	0x3e684b95	0.22685082
85	0xbe264ec1	-0.1624098
86	0xbda6f106	-0.0815144
87	0x3e40dc68	0.18834078
88	0x3c7041c1	0.014664114
89	0x3d00d696	0.031454645
90	0x3d5767c1	0.05258918
91	0xbddb25f3	-0.107005976
92	0xbd9b16d7	-0.07572716
93	0x3d7bd15b	0.061478954
94	0x3e5d4f61	0.21612312
95	0xbd943415	-0.07236496
96	0x3c2fe794	0.010736365
97	0xbda82c3a	-0.082115605
98	0xbd766324	-0.06015314
99	0x3daae935	0.08345262
100	0x3d75d3c4	0.06001641
101	0xbe0244e2	-0.12721589
102	0x3d2af2d5	0.04173549
103	0x3e3aa77f	0.18227957
104	0x3e1e237f	0.15443228
105	0x3dbfc55e	0.09363817
106	0xbdcde5b1	-0.10053576
107	0x3e83d44f	0.25747916
108	0xbc427f0c	-0.011871111
109	0xbe289fd9	-0.16467227
110	0xbdd9d448	-0.106361926
111	0xbcd08158	-0.0254523
112	0x3e18aa62	0.14908746
113	0x3da9c21b	0.08288976
114	0xbc7a7eba	-0.015289003
115	0x3d26484b	0.040596288
116	0xbd18eb26	-0.03733363
117	0xbd2acab6	-0.041697226
118	0x3dd733fb	0.10507961
119	0xbcc75da0	-0.024336636
120	0xbd071056	-0.032974564
121	0xbc27edcb	-0.010249565
122	0x3bd2937b	0.0064262724
123	0x3c98b502	0.018640999
124	0x3e625b8c	0.22105235
125	0xbd0010b1	-0.03126592
126	0xbcb498cb	-0.022045514
127	0x3dc4de2f	0.09612691
128	0x3d8d73c8	0.06906849
129	0xbdb8aa58	-0.090168655
130	0x3cf06822	0.02934653
131	0xba6beb6c	-0.0008999619
132	0x3e58496b	0.21121757
133	0xbbbcaa52	-0.0057576085
134	0x3e3c2bf8	0.18376148
135	0xbd5d6211	-0.0540486
136	0xbd8c1204	-0.06839374
137	0x3cbb52db	0.022866657
138	0xbdbdae33	-0.092617415
139	0x3d8e6bfb	0.069541894
140	0x3da80e99	0.08205909
141	0x3e20c28c	0.15699214
142	0xbdb2a0a5	-0.08722047
143	0x3df9a4c0	0.12189627
144	0x3e301540	0.17195606
145	0x38818e68	6.1777246e-05
146	0x3e7a9dc2	0.24474242
147	0xbb4c4c17	-0.0031173283
148	0xbc6df248	-0.014523096
149	0x3d87bd81	0.06627942
150	0xbd811e16	-0.063045666
151	0xbd488c56	-0.04896196
152	0x3d97cd02	0.07412149
153	0x3da4d732	0.08048858
154	0xbe19f634	-0.15035325
155	0xbdb5de9b	-0.08880349
156	0x3e2160e7	0.15759622
157	0x3df2a5aa	0.11848004
158	0x3e087061	0.13324119
159	0xbdde19ae	-0.10844742
160	0x3c9e9224	0.019356795
161	0x3db5dafd	0.08879659
162	0xbe0d6890	-0.13809419
163	0x3e249c3a	0.1607522
164	0x3dd54ee6	0.10415439
165	0x3d65a959	0.056069706
166	0x3df2c7a8	0.11854488
167	0x3e269cbb	0.16270725
168	0xbcc6f80e	-0.024288204
169	0x3d885f10	0.06658757
170	0x3b997da4	0.004684167
171	0x3e4871e8	0.19574702
172	0x3dec214c	0.115297884
173	0xbd5d6f2b	-0.054061096
174	0xbda91243	-0.08255436
175	0xbe451726	-0.19247112
176	0xbdb6acf4	-0.08919707
177	0x3e21483f	0.15750216
178	0x3cbb28e0	0.02284664
179	0x3ce01245	0.027352462
180	0x3d5118e5	0.051049132
181	0x3d06903b	0.032852393
182	0x3d33b5a0	0.043874383
183	0x3d91db86	0.07121949
184	0x3e04e0a0	0.12976313
185	0x3d4e6305	0.0503874
186	0x3d0bf273	0.034166764
187	0xbc8c15c1	-0.017100217
188	0x3e24c7c1	0.16091825
189	0x3e31aa9a	0.17350236
190	0x3e3dd9a8	0.1854006
191	0xbd7f9971	-0.062402193
192	0xbe2010b9	-0.15631379
193	0xbde84261	-0.11340786
194	0x3c09f676	0.008420577
195	0x3d4e1af3	0.05031867
196	0xbdaf2233	-0.08551445
197	0x3d720ad2	0.05909235
198	0xbe3214b0	-0.17390704
199	0x3e0db542	0.13838676
200	0x3e1c2c04	0.15251166
201	0xba8a0da4	-0.001053263
202	0xbdae9f82	-0.085265175
203	0xbd662530	-0.05618781
204	0x3dd54707	0.10413938
205	0xbcb3b21d	-0.021935517
206	0xbd4e0389	-0.05029634
207	0x3db699c5	0.08916048
208	0xbbe0ee49	-0.0068643433
209	0x3db8eaf4	0.09029189
210	0xbdedf606	-0.11619191
211	0xbd3b7b23	-0.04577173
212	0x3bdad809	0.0066785854
213	0x3d5d4565	0.054021258
214	0x3e0fbf4e	0.1403782
215	0xbd3806ff	-0.044928547
216	0xbe17e9fb	-0.1483535
217	0xbdfd743a	-0.12375684
218	0xbd6fc764	-0.058539763
219	0x3dbd0528	0.09229499
220	0x3e1a3bba	0.15061846
221	0xbcf7dea6	-0.030257534
222	0x3e051de2	0.1299968
223	0xbe0659c2	-0.13120177
224	0xbe087ca4	-0.13328797
225	0xbe335963	-0.17514567
226	0xbdb37817	-0.0876314
227	0xbd232802	-0.039833076
228	0x3df346ce	0.11878739
229	0x3e029b49	0.12754549
230	0xbe061faf	-0.13098024
231	0x3d4976ac	0.04918544
232	0xbe30343c	-0.17207426
233	0x3d1ffb7e	0.0390582
234	0xbe2bf6ea	-0.16793409
235	0xbe1f5e54	-0.15563327
236	0x3e17cffb	0.14825432
237	0xbc94f75f	-0.018184362
238	0x3df71a94	0.12065616
239	0xbe127e99	-0.14306106
240	0x3d5551a5	0.052079815
241	0xbd32340d	-0.04350667
242	0x3da7fadc	0.082021445
243	0xbe110890	-0.14163423
244	0x3dfa37c8	0.12217671
245	0x3e1ec2d8	0.15504014
246	0xbe34cb48	-0.1765567
247	0x3e0c3b8f	0.13694595
248	0x3dec665d	0.11542962
249	0x3d203fa9	0.03912321
250	0xbde0f72b	-0.109846435
251	0xbcf36f7c	-0.029716246
252	0xbcab37ea	-0.020900685
253	0x3d8dcb17	0.06923502
254	0x3e299a50	0.16562772
255	0xbce94429	-0.028474884

dynamics.2.bias f4 [32]
0	0x3e691f40	0.22765827
1	0x3df2042f	0.11817204
2	0x3da5a817	0.08088701
3	0x3e7e9c4e	0.24864313
4	0x3e337ac7	0.17527305
5	0x3e218602	0.15773776
6	0xbdfc3abd	-0.12315891
7	0xbe2f1842	-0.17099097
8	0xbd089d47	-0.033353116
9	0xbde6b1f4	-0.112644106
10	0xbe2d52c2	-0.16926101
11	0xbdd0c34d	-0.10193501
12	0xbddd25e2	-0.10798241
13	0xbcdbe3b6	-0.02684198
14	0xbd6a6225	-0.057222504
15	0xbe3dc528	-0.1853224
16	0x3dae5e0f	0.08514034
17	0x3cc1a49b	0.02363806
18	0xbd98b4af	-0.07456338
19	0xbd168920	-0.036751866
20	0x3d55e6be	0.052222006
21	0x3ddd7b92	0.10814585
22	0x3e24e174	0.16101629
23	0x3e3aa70c	0.18227786
24	0xbdf300f3	-0.118654154
25	0x3e83e4ca	0.2576049
26	0xbe3041ac	-0.17212552
27	0xbd963db2	-0.07335986
28	0x3e55341b	0.20820658
29	0xbd9f9712	-0.07792486
30	0x3c56b338	0.0131042525
31	0x3daa24da	0.0830781

dynamics.4.weight f4 [32, 32]
0	0xbd1d4085	-0.03839161
1	0x3d79223b	0.06082366
2	0x3de312e9	0.11087591
3	0x3debfc09	0.11522681
4	0x3c3ffa57	0.0117174005
5	0xbd7e661d	-0.0621091
6	0x3ba35d73	0.0049855052
7	0x3d08dad1	0.033411805
8	0x3e558274	0.20850545
9	0xbe4ad00c	-0.19805926
10	0x3e0e4dcf	0.13896869
11	0xbe31ad07	-0.17351161
12	0xbd318112	-0.04333598
13	0x3dc281f3	0.09497442
14	0x3e216216	0.15760073
15	0xbe327722	-0.17428258
16	0x3e23f54f	0.16011547
17	0xbe1b8fb6	-0.1519154
18	0x3dac1f83	0.08404448
19	0x3e0ad905	0.13559349
20	0x3d47a0c4	0.048737302
21	0xbda24438	-0.07923168
22	0xbd4a139f	-0.04933512
23	0x3e0ed9cf	0.13950275
24	0xbdd419fe	-0.1035652
25	0x3de41e26	0.11138563
26	0xbde32bcf	-0.1109234
27	0x3e10ecf3	0.14152889
28	0xbd65acfe	-0.05607318
29	0xbdd54422	-0.10413386
30	0x3e64dde5	0.22350271
31	0x3e20f28b	0.15717523
32	0x3c410690	0.01178135
33	0xbc93544b	-0.01798453
34	0x3df1e631	0.11811484
35	0x3cdd566f	0.027018754
36	0x3d9d953a	0.07694478
37	0x3e792fe9	0.24334683
38	0xbe3402ea	-0.17579237
39	0xbd4a9611	-0.04945952
40	0xbc14e5f9	-0.009088033
41	0xbc0fd553	-0.008778888
42	0x3e06c23f	0.13160037
43	0x3c377c1a	0.011199022
44	0x3deceab7	0.11568206
45	0xbc8545d0	-0.01626864
46	0x3c940074	0.018066622
47	0xbcf492e8	-0.029855207
48	0x3e149d48	0.14513123
49	0xbc4fdb1c	-0.012686517
50	0x3cce6129	0.025192814
51	0x3d1919cd	0.03737812
52	0x3e4381ed	0.19092532
53	0xbc7060a4	-0.014671478
54	0x3ca7dcd6	0.020491045
55	0x3e10e0e7	0.14148293
56	0x3d572c6a	0.05253259
57	0x3e84da5f	0.25947854
58	0xbd6f6278	-0.058443516
59	0x3df41e51	0.11919845
60	0x3e0138d8	0.1261934
61	0x3e0d52da	0.13801137
62	0xbcf7f6ac	-0.03026899
63	0x3e53a14e	0.20667002
64	0xbdb9c90a	-0.09071548
65	0xbdcf5339	-0.10123295
66	0xbd154002	-0.036437996
67	0xbe023119	-0.12714042
68	0x3e231905	0.15927513
69	0xbdf6b28c	-0.12045774
70	0x3d514eb2	0.05110044
71	0xbd5c7f62	-0.05383242
72	0xbc500e33	-0.012698698
73	0x3d1a1698	0.037619203
74	0xbdc6f3c9	-0.09714467
75	0xbdbbb0e6	-0.091646
76	0x3e25255e	0.16127536
77	0xbcb53174	-0.022118308
78	0xbd906528	-0.07050544
79	0x3d88161f	0.06644844
80	0xbd81122f	-0.06302296
81	0xbd80fb09	-0.06297881
82	0x3d8c649d	0.06855128
83	0xbc656af6	-0.014002552
84	0xbe2785b3	-0.16359596
85	0x3e051dd1	0.12999655
86	0x3c3a3f6a	0.011367658
87	0x3dc7bf55	0.097532906
88	0x3796155a	1.7891336e-05
89	0x3dabbe44	0.083859
90	0x3c38354e	0.011243178
91	0x3e2feecd	0.17180939
92	0xbcaa34fb	-0.020777216
93	0x3db7ede9	0.08980925
94	0xbb29aa63	-0.0025888912
95	0xbdc1c607	-0.09461599
96	0xbe217030	-0.15765452
97	0xbe13c0a9	-0.14428963
98	0x3ccae86b	0.024769029
99	0x3dc0a82b	0.094070755
100	0xbd8b9b0e	-0.06816684
101	0xbdc3d850	-0.09562743
102	0x3e0a43d3	0.13502435
103	0x3cd6bc83	0.026212936
104	0x3d3db6c4	0.046316877
105	0xbe29cf7e	-0.16583058
106	0x3c6d0b05	0.014467959
107	0x3e28dab1	0.16489674
108	0xbd45d5ba	-0.04829953
109	0x3e24c802	0.16091922
110	0xbc8ec6ec	-0.017428838
111	0x3c43a48d	0.011941087
112	0x3ddf6fdb	0.109100066
113	0x3c94e3d7	0.018175049
114	0x3df133de	0.11777471
115	0xbe1be547	-0.15224181
116	0xbd0fa549	-0.035069738
117	0xbe2efe01	-0.17089082
118	0xbcdcec7a	-0.02696823
119	0xbe317497	-0.17329632
120	0x3e243bb6	0.16038403
121	0xbe328d97	-0.17436825
122	0x3d7acf98	0.061233133
123	0x3cfe110d	0.03101399
124	0xbe13f645	-0.14449413
125	0xbc02c395	-0.007981201
126	0x3d0d423c	0.034486994
127	0x3d93c9ac	0.072162
128	0xbde7659b	-0.112986766
129	0xbd4a6ee2	-0.049422152
130	0x3e174875	0.14773734
131	0xbe1b4055	-0.1516126
132	0x3da3da7b	0.08000656
133	0xbdd1d171	-0.10245026
134	0x3c191874	0.009344209
135	0xbc00353f	-0.007825195
136	0x36695861	3.477115e-06
137	0x3dc6baf6	0.09703629
138	0xbdc026bc	-0.09382388
139	0x3c21f9e4	0.009886239
140	0x3d25b986	0.040460132
141	0x3b8e92e8	0.0043510087
142	0xbda4c0e8	-0.080446064
143	0xbe0ceb66	-0.13761672
144	0xbe0f19aa	-0.13974634
145	0xbcc46a24	-0.023976393
146	0xbe1a4bf8	-0.15068042
147	0xbe123f51	-0.14281966
148	0xbe0acc16	-0.13554415
149	0xbdaf950e	-0.08573352
150	0xbb8bef44	-0.004270466
151	0x3dba46c9	0.090955324
152	0x3e1ff0cf	0.15619205
153	0xbdb7ddf4	-0.08977881
154	0xbe1bcb7b	-0.1521434
155	0xbe2bee44	-0.1679011
156	0xbd0763ca	-0.03305415
157	0x3e30642b	0.17225711
158	0xbdeff178	-0.117159784
159	0xbdc2663e	-0.094921574
160	0x3cab8267	0.020936204
161	0xbd398216	-0.045290075
162	0x3e6de6ff	0.2323265
163	0x3e7a2d54	0.24431354
164	0x3e01f09f	0.12689446
165	0x3e59356e	0.21211788
166	0xbdb904e7	-0.09034138
167	0x3e173c41	0.14769079
168	0x3e6fb199	0.23407592
169	0x3d90b770	0.07066238
170	0xbd40a920	-0.04703629
171	0x3c0125d8	0.007882558
172	0x3e2bf890	0.16794038
173	0xbe191dd0	-0.14952779
174	0xbd40dfdf	-0.0470885
175	0xbdf65878	-0.12028593
176	0x3e5454a8	0.20735419
177	0xbd6a85a7	-0.057256367
178	0x3da320f4	0.0796527
179	0x3dcf44c8	0.10120541
180	0xbd301a93	-0.042994093
181	0x3e12a7ab	0.14321773
182	0x3e6b5197	0.22980343
183	0x3dac2a3a	0.084064916
184	0x3d26309a	0.040573694
185	0xbb9c8643	-0.0047767474
186	0x3e29d24a	0.16584125
187	0xbd3b755a	-0.045766212
188	0x3e44ba8b	0.19211785
189	0x3e2b00b8	0.16699493
190	0x3dfb64ad	0.12275062
191	0x3e29c5e9	0.16579403
192	0x3ca2edbb	0.01988875
193	0xbddfaad1	-0.109212525
194	0x3d8b0ff5	0.06790153
195	0x388b8b0d	6.653937e-05
196	0x3dc064fe	0.09394263
197	0xbe0bd7a6	-0.13656482
198	0x3de7c426	0.11316709
199	0x3e2f8133	0.1713913
200	0x3dde01ce	0.10840188
201	0x3ddb8668	0.10718995
202	0x3d81e56b	0.06342586
203	0xbd224ce1	-0.0396241
204	0x3de90897	0.113785915
205	0xbe1b4ecc	-0.15166777
206	0xbe30f0a7	-0.17279302
207	0xbe1bbda8	-0.15209067
208	0xbe245fa0	-0.16052103
209	0xbdc9f754	-0.09861627
210	0x3e12e188	0.14343846
211	0xbde393c4	-0.111121684
212	0x3dde7e9b	0.10863992
213	0xbe25688e	-0.16153166
214	0x3de4e441	0.111763485
215	0x3de6a3ec	0.11261734
216	0xbe17de8f	-0.14830993
217	0x3d9eb032	0.0774845
218	0xbe0a3e12	-0.1350024
219	0x3e020d21	0.12700321
220	0x3deaaa1b	0.11458226
221	0x3c75854e	0.014985396
222	0xbe2b9ea8	-0.16759741
223	0xbd63b098	-0.055588335
224	0x3e22e905	0.15909202
225	0xbd92ece8	-0.071740925
226	0xbe2376f2	-0.15963343
227	0x3d89d33d	0.06729744
228	0xbd15ad23	-0.03654207
229	0xbd888b47	-0.0666719
230	0xbd17a479	-0.037022088
231	0x3dc2fa01	0.09520341
232	0xbe2829a8	-0.1642214
233	0x3e084afb	0.13309853
234	0xbd8e579f	-0.06950306
235	0xbd5ff62f	-0.05467814
236	0xbc2ddf93	-0.010612386
237	0xbe2020e5	-0.15637548
238	0x3b9b31da	0.0047361674
239	0x3da715ce	0.08158456
240	0xbe350d11	-0.17680766
241	0xbbb81d16	-0.0056187017
242	0x3df4bb40	0.119497776
243	0x3dc75e38	0.09734768
244	0x3d1df16a	0.03856031
245	0xbca2fd44	-0.019896157
246	0x3e24a4ce	0.16078493
247	0xbd7ddf82	-0.06198073
248	0x3d510c18	0.051036924
249	0x3e2069de	0.15665385
250	0xbdd039ad	-0.10167251
251	0x3d68b948	0.056817323
252	0x3d23ca20	0.039987683
253	0x3e0dcd7f	0.13847922
254	0xbc31c90f	-0.010851159
255	0x3d976c21	0.07393671

dynamics.4.bias f4 [32]
0	0x3e1b4b59	0.15165462
1	0x3dfa4074	0.12219325
2	0xbd0f5a50	-0.034998238
3	0xbe299a36	-0.16562733
4	0x3d8f67db	0.07002231
5	0x3d866786	0.06562714
6	0xbd504952	-0.050851174
7	0xbe2e4740	-0.17019367
8	0x3e04a8ac	0.12954968
9	0x3b22df44	0.0024852315
10	0xbcb38ec2	-0.021918658
11	0x3da5d767	0.08097725
12	0x3dbc3fc5	0.091918506
13	0xbdff75c4	-0.12473634
14	0x3e42bf0e	0.19018194
15	0x3d25128f	0.040300902
16	0x3de992fc	0.11404988
17	0xbb8f4133	-0.004371786
18	0xbcf8ca44	-0.030369885
19	0x3e1d7457	0.15376411
20	0xbd99f9ba	-0.07518335
21	0x3dba3f05	0.09094051
22	0x3d6a9d75	0.05727907
23	0x3e2f7d9b	0.17137758
24	0xbdc451a1	-0.09585882
25	0xbd830fd7	-0.063995056
26	0x3e35f3c9	0.17768778
27	0x3d20add8	0.03922829
28	0x3d76565a	0.060140945
29	0xbd81ebe4	-0.06343821
30	0xbe166936	-0.14688572
31	0xbd1cd1d7	-0.038286056

dynamics.6.weight f4 [2, 32]
0	0xbd68b159	-0.056809757
1	0xbe81ae84	-0.25328457
2	0xbd4b1b7c	-0.049586758
3	0x3dd2dd48	0.10296112
4	0xbe080949	-0.13284792
5	0xbdaedcaf	-0.08538186
6	0x3e0f6b4f	0.14005779
7	0xbd42ce42	-0.047559984
8	0xbe236bfe	-0.15959165
9	0xbde62cc6	-0.112390086
10	0x3d2315b4	0.03981562
11	0xbdf8a4ec	-0.12140831
12	0x3bf3926a	0.0074332254
13	0x3e03fc31	0.12889172
14	0xbe274da9	-0.16338219
15	0x3d0fc128	0.035096318
16	0xbd7820be	-0.0605781
17	0x3e0d5a41	0.1380396
18	0x3d885995	0.066577114
19	0xbe7deb51	-0.24796797
20	0xbb185520	-0.0023244098
21	0x3dda851c	0.1066992
22	0x3df7c56e	0.120982036
23	0xbe84f4bd	-0.2596797
24	0x3dc176c9	0.094464846
25	0x3dacc70e	0.08436404
26	0xbe0c3cd4	-0.13695079
27	0xbe157b27	-0.1459776
28	0xbd8dcfde	-0.06924413
29	0xbd08ab5f	-0.033366557
30	0x3e1dc9af	0.15408967
31	0xbdbcb429	-0.0921405
32	0xbe211ff6	-0.15734848
33	0xbe3bf0cc	-0.18353575
34	0xbd278919	-0.04090223
35	0x3d864aa0	0.06557202
36	0x3e2f0e44	0.17095286
37	0xbe6b71fc	-0.229927
38	0xbe079a4f	-0.13242458
39	0x3db09fb1	0.08624209
40	0xbe26c151	-0.16284682
41	0xbe1a4d84	-0.15068632
42	0x3d4ac2a7	0.04950204
43	0xbe3b6074	-0.18298513
44	0x3d4f3709	0.050589595
45	0xba67be66	-0.0008840322
46	0xbe1c58c8	-0.15268242
47	0xbe0ddecf	-0.13854526
48	0xbd9c7208	-0.07638937
49	0x3ca86b29	0.02055891
50	0x3e30de39	0.17272271
51	0xbe4af2b6	-0.1981915
52	0x3db33787	0.087508254
53	0xbc913b80	-0.017728567
54	0x3d9cd1f1	0.07657231
55	0xbdbc37d5	-0.091903366
56	0xbd231f52	-0.03982479
57	0x3d6a0f60	0.05714357
58	0xbe64f392	-0.2235854
59	0xbd33ac08	-0.043865234
60	0xbe1ab1eb	-0.15106933
61	0x3be101f7	0.0068666893
62	0x3c0cf036	0.008602193
63	0xbde6ca24	-0.11269024

dynamics.6.bias f4 [2]
0	0xbe45591d	-0.19272275
1	0xbe279742	-0.16366294
