examples/multiple_run_001/sigmoid_activation/run_sigmoid_activation_008/models/encoder.pt (torch, 12493 bytes, 8 tensors)

encoder.0.weight f4 [32, 3]
0.5537091 0.1923974 0.29617643 -0.19251014 0.39156887 -0.1124204 -0.3034083 -0.19549313
0.17560518 -0.3557156 0.49419054 0.5805201 -0.0570624 -0.5202323 0.27569425 -0.5197464
0.16878036 -0.35321957 -0.085519634 -0.37662575 0.32284316 0.13717976 -0.5023789 0.033492032
-0.381332 -0.059887297 0.15063764 -0.34041822 0.52034765 -0.25506642 0.10066624 0.12902245
0.2693546 0.5615184 0.5694521 -0.23650347 0.037213147 0.35125893 -0.15057962 -0.5895699
0.14741097 0.40871412 -0.1310496 0.21868865 -0.5700306 0.55793846 -0.3278806 0.24055184
0.18213663 -0.30380124 -0.23277228 -0.14953984 0.53088784 -0.14881262 0.14469633 0.36545363
-0.30932125 -0.40174603 -0.42114097 -0.14365357 0.010175519 0.054187458 -0.40938252 0.5332171
0.028572537 -0.08644699 -0.3849196 0.5662141 0.33182415 -0.5498222 -0.3676611 -0.18232182
0.5561022 -0.27298105 -0.15999979 0.09952848 0.13435602 -0.23345794 0.5798169 -0.27861473
0.17124917 -0.19053546 -0.37050483 -0.55806476 0.27013424 0.014269807 0.33585295 0.45223746
0.52027315 0.14427745 0.09120727 0.51322085 0.21040675 0.5427032 0.13772577 0.57427484
00000000: e1bf 0d3f d303 453e 70a4 973e 6121 45be
00000010: b77b c83e ab3c e6bd 5558 9bbe 5a2f 48be
00000020: d8d1 333e 5b20 b6be 8b06 fd3e f79c 143f
00000030: 43ba 69bd f22d 05bf cc27 8d3e 1a0e 05bf
00000040: c2d4 2c3e 32d9 b4be eb24 afbd 17d5 c0be
00000050: b34b a53e da78 0c3e e79b 00bf f12e 093d
00000060: f33d c3be 624c 75bd c140 1a3e 4c4b aebe
00000070: 8135 053f 1198 82be 1a2a ce3d 761e 043e
00000080: d9e8 893e abbf 0f3f 9dc7 113f f72d 72be
00000090: d06c 183d 36d8 b33e 8b31 1abe 0eee 16bf
000000a0: e7f2 163e fa42 d13e de31 06be ebef 5f3e
000000b0: 87ed 11bf 0ed5 0e3f f7df a7be 3953 763e
000000c0: 0682 3a3e d68b 9bbe db5b 6ebe f920 19be
000000d0: 44e8 073f 5662 18be 462b 143e bd1c bb3e
000000e0: 5b5f 9ebe a8b1 cdbe ca9f d7be ec19 13be
000000f0: 38b7 263c abf3 5d3d 969a d1be ea80 083f
00000100: f410 ea3c 1f0b b1bd 2f14 c5be 68f3 103f
00000110: dbe4 a93e 26c1 0cbf 133e bcbe 92b2 3abe
00000120: b75c 0e3f 2cc4 8bbe fcd6 23be 96d5 cb3d
00000130: a094 093e 990f 6fbe e16e 143f 97a6 8ebe
00000140: f15b 2f3e ba1b 43be cfb2 bdbe 55dd 0ebf
00000150: 094f 8a3e e9cb 693c ebf4 ab3e ab8b e73e
00000160: 9f30 053f 78bd 133e e1ca ba3d 7162 033f
00000170: de74 573e 99ee 0a3f fc07 0d3e ad03 133f

encoder.0.bias f4 [32]
-0.40515023 0.19054353 0.4190186 -0.085797295 0.2522814 -0.1865068 0.61252886 -0.18134764
0.24418983 -0.10961367 0.42177698 0.4779167 -0.119407356 -0.20775847 -0.36828333 0.5359221
0.4601634 -0.10944278 0.24254376 0.11657232 -0.5934578 -0.42354408 -0.46219766 0.4729849
0.38384822 -0.5240348 -0.43198046 0.21766482 -0.083794944 -0.45103928 0.26797372 0.10962143
00000000: da6f cfbe d81d 433e 9b89 d63e 7eb6 afbd
00000010: 072b 813e a3fb 3ebe b1ce 1c3f 32b3 39be
00000020: e60c 7a3e 227d e0bd 27f3 d73e 7fb1 f43e
00000030: d88b f4bd a3be 54be a28f bcbe 3132 093f
00000040: 8a9a eb3e 8923 e0bd 645d 783e 78bd ee3d
00000050: daec 17bf c5da d8be 2ca5 ecbe 142b f23e
00000060: c187 c43e 2527 06bf 8b2c ddbe 87e3 5e3e
00000070: af9c abbd 9fee e6be da33 893e 3381 e03d

encoder.2.weight f4 [32, 32]
-0.04182471 -0.18497849 0.046163045 0.10333504 0.17236853 -0.15387651 0.02378125 -0.16960123
0.102887414 -0.0016815626 0.048778404 0.03352779 0.040772595 0.01652516 -0.10862806 0.08595166
-0.052276455 0.0076431297 0.16369744 0.019501261 0.039120328 0.1193802 -0.11956709 -0.024837032
-0.041172642 -0.04379788 0.07701244 0.06126072 -0.04182697 0.079340816 -0.0669083 -0.06529074
0.17207909 0.050635338 0.055956215 0.12796204 -0.042021625 0.03481263 0.09408239 -0.061346874
-0.056323618 0.021109177 0.06437691 0.024402376 -0.0035534874 0.105360396 0.12849258 0.20516075
0.21326147 -0.06789959 0.10993491 0.070124686 0.16896456 0.049448464 0.17456019 -0.022703938
0.12628995 0.16291149 -0.039241377 0.025036028 0.08947723 0.10998711 -0.0062047974 0.14013962
0.1098295 -0.06707172 0.38927066 -0.057331868 0.51527154 -0.057054527 0.4951303 0.4355086
0.4925166 0.113193646 0.24159195 0.14663683 0.20513168 -0.053748034 -0.008223132 0.25241193
0.4017967 0.16732104 0.12788643 -0.15012577 -0.12762953 0.26225215 -0.107101396 -0.13000399
0.306767 -0.06586465 0.11844246 0.12098853 0.19416805 0.041161273 0.024097163 0.11595433
-0.029261852 0.015932089 -0.109260455 -0.08197745 0.06476701 0.04927894 -0.14657854 0.120715484
-0.09073637 -0.10358069 0.08670703 0.022166869 0.061247423 0.11041406 -0.10882897 -0.13098258
0.0056553273 0.123167776 -0.15983118 -0.116509 -0.041028958 -0.1268363 0.10293098 -0.11900801
0.11283226 0.01285444 -0.1343014 -0.0118432855 0.18513888 0.03979548 -0.0672527 -0.056988284
-0.15090102 0.03831482 0.107788935 0.11859877 -0.06851957 0.14888507 -0.11210648 -0.061628785
-0.09652203 0.12678081 -0.0018089819 0.14474908 0.15773214 -0.017516576 0.086458854 -0.15088932
-0.042408865 0.10932599 0.022415314 -0.005641693 -0.009302828 0.05645909 0.062516615 -0.1024252
0.103538156 -0.076162614 0.015507551 0.15278363 -0.14895658 0.14059865 -0.13627146 0.08261211
0.01685583 -0.057075728 -0.18167955 0.12981899 -0.11798761 -0.18118331 -0.03428498 -0.04053565
0.0533598 0.060863633 -0.18415782 -0.16817854 -0.12228218 0.09654133 0.09690008 -0.0012000018
-0.101203345 0.09581856 0.0562198 0.1171871 -0.011490845 0.12446311 -0.021872979 0.077139415
0.041690312 0.12252496 -0.19717544 0.1257553 -0.03466387 -0.118869334 0.11854867 0.05246816
0.21034205 -0.0009379013 -0.13588053 0.14725834 -0.0972903 0.12462585 0.19065852 -0.08423142
0.12163109 0.119818784 -0.027933538 -0.11644155 0.19518131 -0.07847907 -0.032966312 -0.017785609
0.10473475 0.04829155 0.18532558 -0.15719567 -0.099896446 -0.084490776 -0.031017557 0.15472706
0.19177808 0.16115886 0.18916422 0.09155874 0.10056243 0.13206562 0.18748188 -0.11605723
0.16863574 0.09774678 0.2134005 0.048017837 -0.094751604 0.08716554 0.09598933 0.017678063
0.123534866 -0.0041045193 -0.00202156 -0.07109858 0.06884167 -0.038551476 -0.08792057 0.08881561
0.05020999 0.150814 0.1857226 0.13057247 -0.15337989 0.08411684 -0.013393755 0.07650486
0.12229314 0.14651856 0.08296908 0.09968851 -0.10246617 0.16398817 0.10811171 0.19098118
00000000: 6350 2bbd 006b 3dbe 7615 3d3d 52a1 d33d
00000010: 6081 303e ce91 1dbe e5d0 c23c f2ab 2dbe
00000020: a3b6 d23d e167 dcba ddcb 473d 7054 093d
00000030: 2a01 273d c65f 873c 6378 debd 6d07 b03d
00000040: d61f 56bd 3873 fa3b 4da0 273e 1cc1 9f3c
00000050: a33c 203d 9b7d f43d 97df f4bd 0877 cbbc
00000060: a5a4 28bd 6865 33bd b3b8 9d3d 85ec 7a3d
00000070: c252 2bbd 707d a23d 3807 89bd 27b7 85bd
00000080: 8035 303e 0067 4f3d 5832 653d 7b08 033e
00000090: de1e 2cbd b097 0e3d 45ae c03d dc46 7bbd
000000a0: 98b3 66bd 27ed ac3c 0bd8 833d 7ee7 c73c
000000b0: a0e1 68bb 31c7 d73d 8f93 033e a915 523e
000000c0: 3761 5a3e f10e 8bbd 8e25 e13d 889d 8f3d
000000d0: 0c05 2d3e 798a 4a3d e8bf 323e 9cfd b9bc
000000e0: 2752 013e 45d2 263e 91bb 20bd 5b18 cd3c
000000f0: d73f b73d ec40 e13d 9d51 cbbb c380 0f3e
00000100: 4aee e03d e65c 89bd 7c4e c73e d2d4 6abd
00000110: d6e8 033f 02b2 69bd b881 fd3e fcfa de3e
00000120: 232b fc3e 12d2 e73d e163 773e f727 163e
00000130: 0a0e 523e e626 5cbd 51ba 06bc 233c 813e
00000140: 4cb8 cd3e 3556 2b3e a9f4 023e 92ba 19be
00000150: 51b1 02be ea45 863e fa57 dbbd c41f 05be
00000160: 9010 9d3e 0ce4 86bd f691 f23d d6c8 f73d
00000170: fdd3 463e b998 283d 6a67 c53c 7779 ed3d
00000180: 8db6 efbc 0384 823c f2c3 dfbd cbe3 a7bd
00000190: 91a4 843d b7d8 493d af18 16be ae39 f73d
000001a0: fdd3 b9bd 1d22 d4bd 7593 b13d 4b97 b53c
000001b0: 94de 7a3d c420 e23d b9e1 debd 4c20 06be
000001c0: 5350 b93b 633f fc3d c9aa 23be 459c eebd
000001d0: fb0d 28bd 60e1 01be 7acd d23d 79ba f3bd
000001e0: 9a14 e73d 6e9b 523c 4e86 09be 570a 42bc
000001f0: 0c95 3d3e 9600 233d c9bb 89bd 8c6c 69bd
00000200: cc85 1abe 00f0 1c3d 72c0 dc3d e9e3 f23d
00000210: fd53 8cbd 5475 183e 1598 e5bd 776e 7cbd
00000220: 58ad c5bd d4d2 013e 5c1b edba 1a39 143e
00000230: 8984 213e ec7e 8fbc 5711 b13d bb82 1abe
00000240: ebb4 2dbd 4ee6 df3d 52a0 b73c f3dd b8bb
00000250: e46a 18bc a641 673d b608 803d 4ec4 d1bd
00000260: d00b d43d 25fb 9bbd 6213 7e3c 5073 1c3e
00000270: 1388 18be 18f9 0f3e bf8a 0bbe 8a30 a93d
00000280: 3d15 8a3c 3dc8 69bd 340a 3abe 45ef 043e
00000290: 7da3 f1bd 1e88 39be 686e 0cbd b608 26bd
000002a0: ce8f 5a3d 254c 793d de93 3cbe ff36 2cbe
000002b0: 146f fabd 76b7 c53d 8d73 c63d 6149 9dba
000002c0: b343 cfbd 853c c43d bc46 663d caff ef3d
000002d0: 1944 3cbc 84e6 fe3d f62e b3bc 45fb 9d3d
000002e0: 76c3 2a3d 5eee fa3d 5ce8 49be ffc5 003e
000002f0: b4fb 0dbd c471 f3bd a5c9 f23d dae8 563d
00000300: e863 573e 7edd 75ba 4424 0bbe e4ca 163e
00000310: 2340 c7bd d63b ff3d fd3b 433e 8681 acbd
00000320: b919 f93d 8d63 f53d e0d4 e4bc e878 eebd
00000330: 9cdd 473e a2b9 a0bd af07 07bd 20b3 91bc
00000340: 2c7f d63d 5ccd 453d fdc5 3d3e e7f7 20be
00000350: 8296 ccbd 8009 adbd 8818 febc c570 1e3e
00000360: 7961 443e d406 253e 44b4 413e 2683 bb3d
00000370: adf3 cd3d 363c 073e 40fb 3f3e 6aaf edbd
00000380: d9ae 2c3e 772f c83d a985 5a3e 5aae 443d
00000390: 210d c2bd d983 b23d 0e96 c43d 96d1 903c
000003a0: d9ff fc3d 347f 86bb 267c 04bb 229c 91bd
000003b0: ddfc 8c3d 27e8 1dbd b30f b4bd f5e4 b53d
000003c0: fea8 4d3d fc6e 1a3e 112e 3e3e cab4 053e
000003d0: 9e0f 1dbe 7345 ac3d 7b71 5bbc 94ae 9c3d
000003e0: d374 fa3d f608 163e b1eb a93d 7d29 cc3d
000003f0: c9d9 d1bd 84ec 273e ac69 dd3d 9290 433e

encoder.2.bias f4 [32]
0.026789129 0.2022702 0.2272808 0.1158696 0.036939953 -0.00940403 0.18272768 0.07883136
-0.1073236 0.083880804 -0.12873277 -0.055485614 -0.18336204 -0.1592449 -0.07343359 0.22103785
-0.035330616 0.03489252 -0.06402391 -0.03992122 -0.0182142 0.17690112 0.006818199 -0.069992304
0.04323941 -0.09791233 0.11369411 -0.019820305 0.044878993 -0.16218019 0.024829376 0.13893008
00000000: e074 db3c eb1f 4f3e 4cbc 683e 0a4d ed3d
00000010: 594e 173d 5c13 1abc f71c 3b3e 5672 a13d
00000020: 7acc dbbd b3c9 ab3d 86d2 03be e244 63bd
00000030: 42c3 3bbe 1811 23be 5a64 96bd bf57 623e
00000040: d6b6 10bd 76eb 0e3d f81e 83bd 6f84 23bd
00000050: f235 95bc 9125 353e 336b df3b 2058 8fbd
00000060: cf1b 313d 4286 c8bd 75d8 e83d 315e a2bc
00000070: 09d3 373d 9012 26be fa66 cb3c b043 0e3e

encoder.4.weight f4 [32, 32]
-0.006020325 0.059529155 -0.14379588 -0.055004023 0.03537703 0.039339177 -0.13357191 -0.12397342
-0.14869021 -0.060624868 0.12926222 -0.18095261 -0.04077019 -0.07422163 0.12574655 0.1097819
0.09443906 -0.06715564 0.15463531 -0.010552601 -0.099136144 0.07355015 0.11996242 -0.15017778
-0.06979401 -0.11629493 0.048899826 -0.017769052 0.08492694 -0.13474092 0.05255546 0.115699396
0.08766135 -0.026983783 0.27828765 0.109507784 0.13769458 0.15371159 -0.08519162 0.07733806
0.1339124 0.12742187 -0.11750586 0.1395893 0.08616517 0.14545976 0.09318223 0.098765396
-0.08068263 0.21534903 0.12285238 0.0643743 -0.12673801 0.071023025 0.14208852 -0.02719361
-0.17402798 0.09275766 -0.06333864 0.039168328 0.032526363 -0.011544694 -0.033193134 0.15820432
0.11528255 0.028793797 -0.025788901 0.07888071 0.04646991 0.13109873 -0.016004678 -0.04592832
0.06489438 -0.043536007 0.15936859 0.0037238633 -0.12612958 0.001147563 -0.020066544 0.01634946
0.03441162 -0.14497091 -0.163509 0.06457369 -0.010510446 0.07223885 -0.07443856 -0.03244797
0.12545976 0.1159027 0.12616055 -0.092983276 -0.17322405 0.03614599 -0.17040768 0.16711172
-0.17064855 -0.13713741 0.122289844 -0.16279238 -0.13344334 0.09406407 0.083716206 0.028062467
0.090004295 -0.17106348 0.15966073 0.07090409 -0.116395056 -0.1048614 0.09776663 -0.024366254
0.123462066 -0.13099872 -0.17011023 -0.1423126 -0.042845145 -0.0022731472 -0.021613851 0.11429262
-0.07323221 -0.022454534 -0.007700114 -0.017702485 -0.064029984 0.10880166 0.05292081 -0.11367728
0.121629976 0.13672273 0.055373978 -0.15575016 -0.12339392 -0.05455007 0.050836295 -0.046294533
-0.08635573 0.048887014 -0.16174038 0.14927717 -0.1376726 0.094398856 0.024446622 -0.113449275
-0.120171055 -0.21153338 0.024401952 0.11942425 -0.14136533 -0.07519941 -0.047016818 0.12565413
0.08455387 -0.0022956445 -0.05023707 0.06810212 -0.034461338 0.080011606 -0.07848949 0.1627649
-0.041434348 0.11775617 0.23988111 0.082059436 0.16797806 0.15832432 -0.009424504 -0.13261434
0.011588712 -0.08922298 0.1518567 0.14336044 0.111698285 -0.11071964 -0.1613226 0.068488136
0.06878287 0.1891567 -0.06902902 -0.095499426 0.13761048 0.100226596 -0.03908368 -0.042504065
-0.15259622 -0.1110698 -0.07545415 -0.051654812 0.15473095 0.024014862 0.101530015 0.16266625
-0.101769306 -0.07594672 0.020820556 0.16005827 0.11563678 0.04461243 -0.19274566 -0.08306696
0.057450123 0.030587295 0.04117414 -0.11709244 0.00094219676 0.0058135143 -0.15474418 0.003537697
0.027404968 0.048421312 -0.16486481 0.04936736 -0.10294285 0.115160674 -0.1494989 0.01620051
0.017768452 0.02728589 -0.13015239 0.11397632 0.061305057 0.025326332 0.035988845 -0.1517314
0.23286776 0.04440384 0.54698426 0.0015320241 -0.029619819 -0.050530426 -0.0018988166 0.11822396
0.124897525 -0.1099163 -0.064237416 -0.023088811 -0.042027656 -0.05739315 0.099078186 0.23631045
-0.01501338 0.2095991 0.18116142 0.058804337 0.045926526 -0.11832185 -0.14454798 0.02343015
0.07555939 -0.1013016 0.20098582 0.0670928 0.04071311 0.13574153 0.07323366 0.04339485
00000000: 2546 c5bb d8d4 733d 3a3f 13be e64b 61bd
00000010: 81e7 103d 1e22 213d 13c7 08be c7e5 fdbd
00000020: 3f42 18be c851 78bd 515d 043e a44b 39be
00000030: a5fe 26bd 8301 98bd b4c3 003e 55d5 e03d
00000040: 4469 c13d e588 89bd b858 1e3e d1e4 2cbc
00000050: e407 cbbd 76a1 963d dbae f53d 34c8 19be
00000060: 29f0 8ebd 092c eebd 2f4b 483d 6790 91bc
00000070: 2dee ad3d 86f9 09be 6544 573d cef3 ec3d
00000080: cb87 b33d 180d ddbc b87b 8e3e 9e45 e03d
00000090: cfff 0c3e 9266 1d3e f278 aebd 6b63 9e3d
000000a0: 5520 093e e17a 023e eaa6 f0bd 7ff0 0e3e
000000b0: 5d77 b03d 67f3 143e 53d6 be3d 8345 ca3d
000000c0: ef3c a5bd 7584 5c3e 079a fb3d acd6 833d
000000d0: 9cc7 01be 8574 913d a77f 113e 22c5 debc
000000e0: 6434 32be baf7 bd3d b0b7 81bd f86e 203d
000000f0: 5d3a 053d f525 3dbc 86f5 07bd 5000 223e
00000100: 4219 ec3d f8e0 eb3c 3f43 d3bc 368c a13d
00000110: 3b57 3e3d bf3e 063e 3e1c 83bc 561f 3cbd
00000120: 58e7 843d d052 32bd 8531 233e 0f0c 743b
00000130: 1d28 01be d369 963a 9862 a4bc 4eef 853c
00000140: 33f3 0c3d 4173 14be e76e 27be 363f 843d
00000150: 0134 2cbc f6f1 933d 3e73 98bd 2ae8 04bd
00000160: 8678 003e 655e ed3d 3b30 013e 046e bebd
00000170: a561 31be d10d 143d 5a7f 2ebe 561f 2b3e
00000180: 7ebe 2ebe c06d 0cbe 1973 fa3d 0cb3 26be
00000190: 5fa5 08be aaa4 c03d 6773 ab3d 42e3 e53c
000001a0: 2c54 b83d 442b 2fbe 1a7e 233e 2a36 913d
000001b0: 8860 eebd 93c1 d6bd df39 c83d bd9b c7bc
000001c0: aed9 fc3d 8724 06be 6031 2ebe 65ba 11be
000001d0: 647e 2fbd 15f9 14bb 880f b1bc 4012 ea3d
000001e0: c5fa 95bd 92f2 b7bc 3d51 fcbb cd04 91bc
000001f0: 2722 83bd 68d3 de3d 7ec3 583d a2cf e8bd
00000200: 2319 f93d 0b01 0c3e d3cf 623d f87c 1fbe
00000210: f4b5 fcbd e56f 5fbd b839 503d 569f 3dbd
00000220: 46db b0bd c03d 483d 459f 25be 1ddc 183e
00000230: 0cfa 0cbe 3054 c13d 4844 c83c 1858 e8bd
00000240: 3e1c f6bd 359c 58be 9ae6 c73c b494 f43d
00000250: 13c2 10be 2602 9abd b594 40bd 7aab 003e
00000260: 942a ad3d 8672 16bb 63c5 4dbd 2079 8b3d
00000270: 5527 0dbd 20dd a33d 19bf a0bd d8ab 263e
00000280: 10b7 29bd 262a f13d 65a3 753e c70e a83d
00000290: 7102 2c3e c51f 223e 3c69 1abc 0ecc 07be
000002a0: 95de 3d3c 8aba b6bd 5380 1b3e 14cd 123e
000002b0: 12c2 e43d fbc0 e2bd c031 25be 8243 8c3d
000002c0: 09de 8c3d 4bb2 413e 165f 8dbd 3495 c3bd
000002d0: c3e9 0c3e 9a43 cd3d 3516 20bd be18 2ebd
000002e0: 2f42 1cbe 9078 e3bd b587 9abd ff93 53bd
000002f0: ca71 1e3e d1ba c43c f8ee cf3d fb91 263e
00000300: 6d6c d0bd f489 9bbd df8f aa3c 51e6 233e
00000310: fad2 ec3d 86bb 363d 1e5f 45be 031f aabd
00000320: d250 6b3d 3592 fa3c 37a6 283d 29ce efbd
00000330: c1fd 763a 4b7f be3b 4275 1ebe b5d8 673b
00000340: 6280 e03c 6d55 463d 52d2 28be 6e35 4a3d
00000350: b3d3 d2bd 5cd9 eb3d 3d16 19be efb6 843c
00000360: 258f 913c a986 df3c ab46 05be 6b6c e93d
00000370: 031b 7b3d 2b79 cf3c 0a69 133d 7a5f 1bbe
00000380: e374 6e3e cde0 353d 2907 0c3f 33ce c83a
00000390: 43a5 f2bc fef8 4ebd b6e1 f8ba 671f f23d
000003a0: 46ca ff3d cc1b e1bd e88e 83bd bf24 bdbc
000003b0: 3125 2cbd 1415 6bbd 81e9 ca3d 5efb 713e
000003c0: aefa 75bc 25a1 563e 6182 393e d1dc 703d
000003d0: 741d 3c3d ba52 f2bd 6304 14be 96f0 bf3c
000003e0: e2be 9a3d 3777 cfbd 3acf 4d3e f367 893d
000003f0: cac2 263d d4ff 0a3e 87fb 953d ccbe 313d

encoder.4.bias f4 [32]
-0.07259091 0.20781104 0.076096684 -0.08402179 0.1038843 0.10307933 -0.14933397 0.043001477
0.09062956 -0.18524234 0.015678437 -0.07760803 0.02744391 0.22682272 -0.09019851 0.10229192
-0.08821483 0.09214978 -0.10903143 0.09252043 -0.05074094 0.08701941 -0.16626771 -0.015704613
-0.08955237 0.13196974 -0.024691282 0.12986976 -0.068218365 -0.091980875 0.027703295 -0.06085836
00000000: 8baa 94bd 6bcc 543e 94d8 9b3d 9e13 acbd
00000010: 4bc1 d43d 411b d33d 01eb 18be 5122 303d
00000020: fe9b b93d 2bb0 3dbe 1170 803c f5f0 9ebd
00000030: 0dd2 e03c 3744 683e ffb9 b8bd 6d7e d13d
00000040: faa9 b4bd 06b9 bc3d df4b dfbd 5a7b bd3d
00000050: bbd5 4fbd 3c37 b23d 1542 2abe f6a6 80bc
00000060: 3c67 b7bd 1323 073e 5f45 cabc 94fc 043e
00000070: 12b6 8bbd 7860 bcbd 05f2 e23c 9e46 79bd

encoder.6.weight f4 [2, 32]
0.03135152 0.055775512 0.0026020873 0.09866326 -0.04877768 -0.09664157 0.10599722 0.124648996
0.1802369 -0.12948203 0.17372912 -0.096141115 0.14767867 0.1563983 0.21275291 -0.13478206
-0.11310155 0.19781892 0.017835008 0.04258683 0.201559 0.25723943 -0.13734259 0.16477114
0.19002683 -0.007291844 0.012654775 -0.09579999 0.0021219274 -0.16339645 0.110736325 0.012004603
-0.071962565 0.08082799 -0.044283677 -0.10646452 -0.14618772 0.20427343 -0.011020468 0.23323905
-0.07321865 0.085902296 0.10180401 -0.08293638 -0.039384615 0.20743099 -0.03258496 -0.13602394
-0.10153077 -0.0363551 -0.12477041 -0.14296983 -0.12562434 0.2726085 0.13707998 0.22178547
0.13402498 0.14926586 0.112095684 -0.037182312 0.12429235 0.066986546 0.0059615267 0.17750642
00000000: 746a 003d dd74 643d c887 2a3b f70f ca3d
00000010: 1bcb 47bd 04ec c5bd 1215 d93d f947 ff3d
00000020: 0690 383e f096 04be 0ce6 313e a2e5 c4bd
00000030: 1439 173e e026 203e e6db 593e 4f04 0abe
00000040: c9a1 e7bd 0b91 4a3e b91a 923c 876f 2e3d
00000050: 7c65 4e3e e3b4 833e 89a3 0cbe c4b9 283e
00000060: 6596 423e 6cf0 eebb f955 4f3c c932 c4bd
00000070: 0910 0b3b 6651 27be bac9 e23d f4ae 443c
00000080: 1c61 93bd 2589 a53d cd62 35bd 120a dabd
00000090: 3cb2 15be 0e2d 513e 318f 34bc 38d6 6e3e
000000a0: a9f3 95bd 8bed af3d 9f7e d03d 8cda a9bd
000000b0: c351 21bd ca68 543e cf77 05bd dc49 0bbe
000000c0: 5def cfbd 16e9 14bd a187 ffbd af66 12be
000000d0: aba3 00be 5793 8b3e b25e 0c3e bb1b 633e
000000e0: d83d 093e 26d9 183e 6c92 e53d 7b4c 18bd
000000f0: fd8c fe3d 3e30 893d e958 c33b 3ec4 353e

encoder.6.bias f4 [2]
0.06961106 -0.06792464
00000000: 3e90 8e3d 131c 8bbd
