ives_model/experiments/learning/multiple/multiple_001/morals/run_01/models/decoder.pt (torch, 3165 bytes, 4 tensors)

decoder.0.weight f4 [32, 2]
-0.5754899 -0.35412255 -0.12742956 0.20827775 1.7571467 -0.50140214 -0.0460915 -0.07005643
0.15462412 -1.0781584 -1.8889875 -0.5049419 0.9105799 -0.29819942 -1.223806 0.19373327
0.39291438 -0.70658726 -0.28283742 -1.9753956 -0.6027185 -0.31218514 1.5647727 1.0569899
0.41626814 0.25779685 -0.18424585 0.79146343 -0.86875015 -1.346664 -0.39471567 2.2111266
0.00024396823 1.1335065 -0.07650362 1.3377174 -0.06462739 -0.46021482 1.4080522 -0.88752156
0.31493077 1.2192607 0.2514476 0.019126577 -0.4489661 -1.2675142 0.4967616 -1.1463674
0.5170254 -1.4038309 0.35398176 0.16868567 -1.1392964 -1.208155 -0.13648859 0.089548886
0.7899422 1.6167307 0.8104661 -1.3644125 -1.0372666 -0.7618715 2.525512 -0.3828313
00000000: 4e53 13bf 8d4f b5be e57c 02be c346 553e
00000010: 2fea e03f e45b 00bf 71ca 3cbd bf79 8fbd
00000020: c955 1e3e 1801 8abf 58ca f1bf df43 01bf
00000030: c41b 693f 98ad 98be ada5 9cbf 0462 463e
00000040: 132c c93e e7e2 34bf 11d0 90be c3d9 fcbf
00000050: c24b 1abf bbd6 9fbe 794a c83f 724b 873f
00000060: 1921 d53e f3fd 833e f2aa 3cbe 599d 4a3f
00000070: 6966 5ebf 7c5f acbf 2c18 cabe 1983 0d40
00000080: b9d1 7f39 be16 913f eead 9cbd 533a ab3f
00000090: 5d5b 84bd 47a1 ebbe 0e3b b43f 9d34 63bf
000000a0: 9b3e a13e bc10 9c3f bdbd 803e 57af 9c3c
000000b0: e2de e5be e83d a2bf 8957 fe3e 2bbc 92bf
000000c0: c75b 043f bbb0 b3bf 193d b53e f0bb 2c3e
000000d0: 77d4 91bf d3a4 9abf aac3 0bbe 6865 b73d
000000e0: a739 4a3f 08f1 ce3f b57a 4f3f 12a5 aebf
000000f0: 27c5 84bf 030a 43bf fda1 2140 7702 c4be

decoder.0.bias f4 [32]
0.45429602 -0.65522486 -0.36674544 0.3273598 0.5034541 -0.068729445 0.7956722 -0.1718249
0.7903398 -0.52437663 0.59756273 0.069873534 -0.70531744 0.41481644 0.5137261 0.27689627
0.5385856 0.6492408 -0.67215675 0.41166544 0.64825654 -0.38433433 0.94233227 0.4104533
0.5391772 -0.6894716 -0.12352867 0.48270258 0.575376 0.22742583 -0.2776763 -0.6713581
00000000: 7d99 e83e d1bc 27bf 0fc6 bbbe b49b a73e
00000010: 5ee2 003f 06c2 8cbd 2cb1 4b3f def2 2fbe
00000020: b653 4a3f 8c3d 06bf dff9 183f db19 8f3d
00000030: af8f 34bf d262 d43e 8e83 033f 59c5 8d3e
00000040: bfe0 093f a534 263f 7712 2cbf d0c5 d23e
00000050: 24f4 253f 78c7 c4be b03c 713f ef26 d23e
00000060: 8407 0a3f 3681 30bf 99fc fcbd cb24 f73e
00000070: d74b 133f 51e2 683e 972b 8ebe 20de 2bbf

decoder.2.weight f4 [3, 32]
0.19272316 0.034462508 -0.93969685 0.028672472 0.5233191 -0.5354293 0.054807834 0.07966449
0.23089494 -0.34856033 0.09248351 0.054974884 -0.0642087 -0.5209754 -0.06117108 0.8979108
-0.6515627 -0.86600584 -0.038560215 -0.19907302 -0.5788619 0.058357727 0.23559153 0.7317872
0.7587882 0.015832884 0.72605306 0.031274743 -0.3894635 -0.9545732 -0.5257249 6.1253085
0.24767444 -0.03894194 -1.9426968 -0.035706777 0.25940484 0.17706662 -0.4544 1.4587156
0.08764892 -0.64902943 0.34477934 -0.3704142 0.072302304 0.15505314 0.2391858 0.64642686
0.45750853 0.39476132 -0.12901679 -0.9229546 0.099207334 0.1671634 0.06454095 -0.23459972
-0.28957438 0.11519737 0.14839351 0.2792613 -0.92715 -0.28370437 0.21069263 -3.5274715
0.27497363 0.059370432 2.0597248 0.11988209 0.06790952 0.7509711 -0.44956237 0.4905559
0.13597538 3.2268126 0.20099361 -1.331919 -0.01131959 0.17296277 -0.5710226 -1.0089173
-0.23989278 -0.10523809 -0.104611866 0.4731436 -0.4991396 0.03573728 0.2001696 -0.089370556
0.16820472 0.15171611 0.07475814 0.34065047 1.0359318 0.7711628 0.70840776 -8.88021
00000000: 3859 453e 8f28 0d3d f98f 70bf 88e2 ea3c
00000010: 3ef8 053f e511 09bf 2e7e 603d 2327 a33d
00000020: b96f 6c3e 8076 b2be ff67 bd3d 582d 613d
00000030: da7f 83bd a55e 05bf 878e 7abd 7bdd 653f
00000040: d0cc 26bf 8fb2 5dbf 51f1 1dbd ccd9 4bbe
00000050: 4b30 14bf 8308 6f3d e83e 713e 6856 3b3f
00000060: f23f 423f f7b3 813c 9dde 393f f219 003d
00000070: c367 c7be e95e 74bf e895 06bf 8702 c440
00000080: 5e9e 7d3e 9581 1fbd 4aaa f8bf 4541 12bd
00000090: b6d0 843e f450 353e 1ea7 e8be 31b7 ba3f
000000a0: 4781 b33d cb26 26bf eb86 b03e eea6 bdbe
000000b0: 3b13 943d 40c6 1e3e 1fed 743e 3b7c 253f
000000c0: 8f3e ea3e 281e ca3e fa1c 04be c146 6cbf
000000d0: 372d cb3d e22c 2b3e 0c2e 843d e93a 70be
000000e0: 1843 94be 99ec eb3d 78f4 173e 56fb 8e3e
000000f0: b459 6dbf b341 91be cfbf 573e 18c2 61c0
00000100: 58c9 8c3e 692e 733d 88d2 0340 be84 f53d
00000110: 2514 8b3d a43f 403f 0a2d e6be 252a fb3e
00000120: 213d 0b3e 1984 4e40 45d1 4d3e 527c aabf
00000130: cd75 39bc 271d 313e 8a2e 12bf 3424 81bf
00000140: 74a6 75be 1187 d7bd bf3e d6bd e13f f23e
00000150: 3a8f ffbe 4161 123d 42f9 4c3e e907 b7bd
00000160: dc3d 2c3e 785b 1b3e cc1a 993d bd69 ae3e
00000170: 6a99 843f ed6a 453f 365a 353f 5715 0ec1

decoder.2.bias f4 [3]
0.11106014 0.23572537 0.19110769
00000000: 8073 e33d fe61 713e bcb1 433e
