ives_model/experiments/learning/multiple/multiple_001/morals/run_01/models/encoder.pt (torch, 3165 bytes, 4 tensors)

encoder.0.weight f4 [32, 3]
0	0x3e994ef1	0.2994304
1	0xbe310e18	-0.17290533
2	0x3eaedf72	0.3415485
3	0xbd8ac1e1	-0.06775261
4	0xbe6c9ada	-0.23105946
5	0xbec0be6d	-0.37645283
6	0xbdf6a90d	-0.12043963
7	0xbe8af366	-0.27138823
8	0xbeab79bf	-0.33491322
9	0x3e83bd40	0.25730324
10	0xbd3e6bc7	-0.046489503
11	0xbdecc10c	-0.11560258
12	0x3ef218af	0.47284457
13	0x3ede9019	0.43469313
14	0xbed4e7d7	-0.4158313
15	0xbf077a6b	-0.5292117
16	0x3f4b6b5a	0.7946068
17	0x3f495277	0.78641456
18	0x3eec9f5d	0.46215335
19	0xbe5e761c	-0.21724743
20	0x3ef0674d	0.46953812
21	0x3f1840e9	0.59474045
22	0xbda14839	-0.078751035
23	0xbe55df07	-0.2088586
24	0x3da22c69	0.07918627
25	0x3d8add8a	0.067805365
26	0xbe8b6785	-0.27227417
27	0xbe239714	-0.159756
28	0x3ec38c5c	0.38193023
29	0x3d99e478	0.0751428
30	0xbe6c3c6d	-0.23069926
31	0x3f0a2297	0.5395903
32	0x3d3f15e4	0.046651736
33	0x3e469890	0.19394135
34	0xbe15195a	-0.14560452
35	0xbe2cbb77	-0.16868387
36	0x3efe3f96	0.49657887
37	0xbe33a8db	-0.17544882
38	0x3e6e5db3	0.23277931
39	0xbdada303	-0.08478358
40	0xbeda5770	-0.42644835
41	0x3e9c76d1	0.305594
42	0xbead97c5	-0.33904853
43	0xbe916161	-0.28394607
44	0x3c322666	0.010873413
45	0xbd4063a8	-0.04697004
46	0xbf024a43	-0.50894564
47	0x3f1c6bce	0.61101997
48	0xbf175aa9	-0.5912271
49	0x3ea4dc43	0.32199296
50	0x3ef0531c	0.46938407
51	0x3ea2cbdc	0.31796157
52	0x3e9524c7	0.2912962
53	0xbf0afeac	-0.5429485
54	0x3cb679a8	0.022274807
55	0xbeef0f1e	-0.4669122
56	0x3f17a8cd	0.59241945
57	0xbe9c07bc	-0.3047465
58	0x3e2da8de	0.16958949
59	0xbe476cc5	-0.19475086
60	0xbeccedf6	-0.400253
61	0x3d0b75ae	0.034047775
62	0x3ed17e05	0.40916458
63	0xbd3d29db	-0.046182495
64	0x3ee95865	0.45575252
65	0x3ec301f6	0.38087434
66	0x3e882689	0.265919
67	0x3eeffa24	0.4687053
68	0x3e9ab70f	0.30217788
69	0x3e2cfd39	0.16893472
70	0xbe919a0d	-0.28437844
71	0x3eb4d308	0.35317254
72	0x3e711c31	0.2354591
73	0x3f8015bc	1.0006633
74	0x3dc82f32	0.09774627
75	0xbdc94d59	-0.09829206
76	0xbe900f39	-0.28136614
77	0x3e3d2863	0.18472438
78	0x3f197ba4	0.59954286
79	0xbe28a930	-0.1647079
80	0xbdb78097	-0.089600734
81	0xbeec5f67	-0.46166536
82	0x3e185c32	0.1487892
83	0xbf112c28	-0.56708
84	0x3dbb82fe	0.09155844
85	0x3e784fd1	0.24249198
86	0xbe43bbe7	-0.19114648
87	0x3f1e9af8	0.61955214
88	0xbee1d271	-0.44105867
89	0xbe918627	-0.28422663
90	0x3f32498b	0.6964347
91	0x3ea72040	0.32641792
92	0x3be5e653	0.007015982
93	0xbe8da30a	-0.2766345
94	0x3f1b4f6d	0.6066807
95	0x3ea8d571	0.32975343

encoder.0.bias f4 [32]
0	0x3f0712c1	0.5276299
1	0x3f4d1c57	0.8012137
2	0xbe9bb43c	-0.30410945
3	0xbe58884f	-0.21145748
4	0x3ee360af	0.444097
5	0xbf879133	-1.0591186
6	0x3d1edda2	0.038785584
7	0x3e999ae1	0.30000976
8	0x3ef688cb	0.4815124
9	0x3ee32be7	0.44369432
10	0x3e40b76a	0.18819967
11	0x3e6d2757	0.23159538
12	0x3df5dd25	0.120050706
13	0x3eb1f568	0.34757543
14	0x3efb1251	0.49037412
15	0x3eec4059	0.46142843
16	0x3eb0cf9f	0.34533402
17	0x3eca356b	0.3949388
18	0x3ea239b6	0.31684655
19	0x3f197875	0.5994943
20	0xbeb45b7a	-0.3522604
21	0xbdb67509	-0.089090414
22	0xbe2a8545	-0.16652401
23	0x3e452a54	0.19254428
24	0xbee6d8f4	-0.45087397
25	0xbeed21af	-0.4631476
26	0x3e57f55b	0.2108969
27	0xbdcbf122	-0.09958102
28	0xbed1709d	-0.4090623
29	0x3f269421	0.65069777
30	0xbc34b508	-0.011029489
31	0xbf1694e3	-0.58820933

encoder.2.weight f4 [2, 32]
0	0xbe21b30a	-0.15790954
1	0x3af83444	0.0018936475
2	0xbe063795	-0.1310714
3	0xbbbe1ee9	-0.0058020246
4	0xbd97e19c	-0.074160784
5	0xc01f77b7	-2.4916818
6	0xbe21746d	-0.15767069
7	0x3e83634a	0.2566169
8	0x3eb85175	0.35999647
9	0x3aa552c0	0.0012613162
10	0xbcbab634	-0.02279196
11	0xbdc14f1b	-0.09438916
12	0xbcbdeacd	-0.02318325
13	0xbd0fcedf	-0.035109397
14	0xbdd5ff92	-0.10449137
15	0x3e25cf23	0.16192298
16	0x3e6e936e	0.23298427
17	0xbd0919ea	-0.03347198
18	0xbccfe8d2	-0.025379572
19	0x3e953b60	0.29146862
20	0xbdc1d680	-0.09464741
21	0xbe4f7bff	-0.20262145
22	0xbd829cbd	-0.06377552
23	0x3e0bfff7	0.13671862
24	0xbf65d9c0	-0.89785385
25	0xbd3d4b5a	-0.04621444
26	0x3d827289	0.06369502
27	0xbe25b043	-0.1618052
28	0xbdfae416	-0.12250535
29	0x3e12a89a	0.14322129
30	0x3db3a161	0.08771015
31	0xbfd7ebf0	-1.6868877
32	0xbd7af2ad	-0.06126659
33	0x3ea4013f	0.320322
34	0x3dc26edc	0.09493801
35	0x3e145f8d	0.14489575
36	0xbd8b5fe0	-0.06805396
37	0xbdb27e4a	-0.08715494
38	0xbe0713ef	-0.13191198
39	0xbd05a5d8	-0.032628864
40	0x3ef48d7a	0.47764188
41	0xbd933e35	-0.071895994
42	0x3dd7eb85	0.10542969
43	0x3d24f509	0.040272746
44	0xbe5d6f14	-0.21624404
45	0xbc69b2d3	-0.014263826
46	0x3e93c44c	0.288607
47	0x3c22a7f6	0.00992774
48	0x3e0da84d	0.13833733
49	0x3c917538	0.01775609
50	0xbe29137e	-0.16511342
51	0x3e918634	0.284227
52	0xbd97f802	-0.074203506
53	0x3cb7ae08	0.022421852
54	0x3c2ef955	0.010679563
55	0xbe4ba3bd	-0.1988668
56	0xbc937f97	-0.018005176
57	0xbe19d617	-0.15023075
58	0xbd853afb	-0.0650539
59	0x3e227ea6	0.15868625
60	0xbc9a7306	-0.018853676
61	0x3da76334	0.08173218
62	0xbe5dfaa1	-0.21677639
63	0x3ea384b8	0.31937194

encoder.2.bias f4 [2]
0	0xbdb2bbc0	-0.08727217
1	0xbddd6c55	-0.10811678
