leslie_map_3d/experiments/learning/sweeps/sweep_005/morals_full/run_04/models/encoder.pt (torch, 3165 bytes, 4 tensors)

encoder.0.weight f4 [32, 3]
00000000: 5a30 793e f46f 36ba 264e fe3e 54d8 473d
00000010: 9c2e 213e 26cb f53e 6007 903e 9b74 97bd
00000020: 1882 a4be f9e3 533d 75eb b83e a610 1e3e
00000030: 78cb 51bc 44d0 1c3f a939 ef3e 932e a3be
00000040: 0ced d83e ae85 53bd 52fb 41be 25e3 c2be
00000050: 404a 383e c9e3 af3e 1698 843c db83 033f
00000060: a783 fd3f 4636 4dbf 126c 7c3e 529d 123c
00000070: 6525 97be bb18 aabf fd79 a1bc b66d 93bd
00000080: 010a c73e 618c 3cbf 0812 53be 96b4 2f3f
00000090: 95e8 dcbd 2ee3 01bf ca7c 22bf 7da9 073f
000000a0: 5247 c93e 6169 313f 9596 363e 7be6 0bbf
000000b0: 507f 083e 99f5 f33d 7ef6 2dbf ec38 fdbc
000000c0: 42b2 213e b0b8 fa3e 83da b83e ef38 80be
000000d0: 3698 97be e4f9 debe 6b1e ca3d 4de4 263c
000000e0: 41ca d03e 1000 0abf 4f2d ee3e c4d0 51bc
000000f0: 8828 ef3d 0010 22be eafc 063f 2909 b0be
00000100: ec7c cf3e e9a4 95bc 5a36 88be b012 9fbe
00000110: 2c3a 9ebe d646 97be 95ac 84be 15bf e93e
00000120: 2608 ec3d 24a6 6a3d 83a4 463e 1195 013f
00000130: c22f 1d3f a6c1 a73e 50a0 40bf 4d8e 67be
00000140: 8586 cbbf cdd4 c83e 203e 363d 2313 de3d
00000150: 3d37 fe3e 2414 c4bc 3f4a f6bd f7f0 633f
00000160: dfe7 1f3f 637d 3d3e a2b8 0540 1d3e 4bbf
00000170: ca71 cc3d 0500 2dbf c7a1 33be b241 9dbf
0.24334851 -0.00069594313 0.49668998 0.04879029 0.15740436 0.48006552 0.28130627 -0.073952876
-0.32130504 0.051731084 0.3611714 0.15436038 -0.012804858 0.6125529 0.4672368 -0.3187147
0.42368352 -0.05164116 -0.18943527 -0.38063923 0.17997074 0.34353474 0.016185801 0.5137307
1.9805802 -0.8016094 0.246506 0.008948641 -0.29520717 -1.3288797 -0.019711489 -0.0719866
0.3887482 -0.736517 -0.20612347 0.6863493 -0.10786549 -0.50737274 -0.63471663 0.52992994
0.39312226 0.6930142 0.1783088 -0.5464856 0.13329816 0.119120784 -0.6795424 -0.030910932
0.15790656 0.4896903 0.3610421 -0.25043437 -0.29608315 -0.43550026 0.09869083 0.010186267
0.40779307 -0.53906345 0.46518943 -0.012806121 0.116776526 -0.15826416 0.52729666 -0.3438199
0.40524995 -0.018267112 -0.26603967 -0.31068945 -0.30903757 -0.2954623 -0.2591292 0.45653597
0.11524992 0.05728735 0.19398694 0.5061808 0.61401 0.3276493 -0.7524462 -0.22612877
-1.5900427 0.39224854 0.04449284 0.10843494 0.49651518 -0.023935385 -0.1202588 0.8903956
0.6246318 0.18504862 2.089394 -0.7939165 0.09982641 -0.67578155 -0.17542182 -1.2285674

encoder.0.bias f4 [32]
00000000: 4142 163e 61d7 213f 0410 04bf 1909 f63e
00000010: cdb0 ad3e dd8b 0dbf c706 74be abc4 be3d
00000020: ae2d 9fbe fac8 b33e ad03 0cbf 7aca 1c3f
00000030: a4b5 093f 58b3 733e e7fe f4be 0b67 0e3f
00000040: ee52 c73e 5495 10bf a97d ee3d 0194 efbe
00000050: b9f9 913e c7b8 113f 0cf2 80be f585 103f
00000060: 9db2 653e d1c8 013e ec9e ac3e 554e 753e
00000070: 506b 8f3e ad18 3cbe b8d6 44be a603 113f
0.14673711 0.6321927 -0.5158694 0.48053816 0.3392395 -0.5529154 -0.2383071 0.09314855
-0.31089538 0.3511427 -0.5469311 0.61246455 0.53792787 0.23798883 -0.47850725 0.5562598
0.38930458 -0.56477857 0.116450615 -0.46792606 0.28510836 0.5692257 -0.25184667 0.564544
0.22431417 0.12674262 0.33714998 0.23955663 0.2801156 -0.18368788 -0.19222534 0.5664619

encoder.2.weight f4 [2, 32]
00000000: f19f ebbd d5bb 5e3d 3c4b e03c 4195 493e
00000010: 396f 9e3e 3f59 123e 2782 b73d c2f0 433e
00000020: 9b34 8b3f 79ff 5fbf c47e b4bd 9afe a2be
00000030: 0414 06bf 416f babd 6f57 4fbd 0239 8e3e
00000040: 77ec 13be e7e4 853d 3a36 373e 47e4 26be
00000050: 6f20 a3bd 5040 a03e c19e c0bc 4b48 dc3c
00000060: a6f0 3f3e 50d3 213e d57f 073d 52d0 05be
00000070: ac11 e4bd cef9 dcbd b750 88bf fb7a dabe
00000080: 3536 2ebe 5c4a 1abe c569 c1bd fc98 3a3d
00000090: a370 38be 72b9 e4bd bf48 053e ee0d 643e
000000a0: 53a2 0ec0 4f76 d9be 3402 25be 7f4f 293f
000000b0: 42c1 84be 15fa 75be 9d27 fe3d 6de2 9fbd
000000c0: 9d82 173d 14b7 56bd 896f 8c3e 6043 293d
000000d0: 2396 29be 5aac f5bc 63eb 89bd 4e91 babd
000000e0: fe6c 36be fbc4 e9bd 077b 0cbf f403 283e
000000f0: b614 263d 0704 2b3f b607 0a40 c528 03bf
-0.11505116 0.05437835 0.027379625 0.19685842 0.3094423 0.14291857 0.089603715 0.1913481
1.0875429 -0.87499195 -0.08813241 -0.3183487 -0.5237429 -0.09103251 -0.050620493 0.27777869
-0.14445673 0.065378 0.1789178 -0.16298018 -0.079651706 0.31299067 -0.0235132 0.02688994
0.18744144 0.15803266 0.033080895 -0.13067749 -0.11136183 -0.10789834 -1.0649632 -0.42671952
-0.17012866 -0.15067428 -0.09444002 0.045556054 -0.18011717 -0.111681834 0.13016032 0.22270939
-2.2286575 -0.42473075 -0.16114122 0.66136926 -0.25928694 -0.2402118 0.124098994 -0.07806859
0.036989797 -0.05242069 0.27428845 0.04132402 -0.16561179 -0.02998941 -0.067343496 -0.09109746
-0.17815015 -0.11414524 -0.54875225 0.16407758 0.040547095 0.6680302 2.1567206 -0.51234084

encoder.2.bias f4 [2]
00000000: 5c37 babd 2652 30be
-0.0909259 -0.17218837
