leslie_map_3d/experiments/learning/single/run_002/models/decoder.pt (torch, 12429 bytes, 8 tensors)

decoder.0.weight f4 [32, 2]
0.2878756 0.40825808 -0.28867567 -1.090867 0.25036177 0.78647476 -0.744232 -0.1886876
0.47538847 0.660038 0.61526656 0.8536068 -0.40648705 -0.54523104 -0.29654115 -0.5642765
0.17094734 0.4201734 0.24848998 0.33585614 0.04858561 -0.691413 0.39033255 0.30323926
-0.37636226 -0.69507515 -0.90907556 0.50945777 0.3454112 0.577062 -0.625337 -0.6476244
-0.8414893 0.56630826 0.35854983 0.48839745 -0.6977976 0.4516481 -1.0109854 0.17511068
0.2602439 0.7348406 0.120754376 -1.0993567 -0.30321974 0.72750866 0.8662918 -0.3406818
0.16835587 0.73072916 -0.57137096 -0.6952428 0.7347451 0.12604043 -0.9506728 0.43177778
-0.43715826 0.6906254 0.20680265 0.2749736 -0.49805024 0.69499606 0.7267977 0.17921221
00000000: 6e64 933e 3407 d13e 4ccd 93be 88a1 8bbf
00000010: 6b2f 803e 6956 493f fd85 3ebf 5237 41be
00000020: 1e66 f33e 40f8 283f 1c82 1d3f fa85 5a3f
00000030: 121f d0be 4394 0bbf 3ed4 97be 6d74 10bf
00000040: d20c 2f3e f820 d73e 2874 7e3e 56f5 ab3e
00000050: b401 473d 7100 31bf abd9 c73e 2d42 9b3e
00000060: 8eb2 c0be 72f0 31bf 2db9 68bf d36b 023f
00000070: bdd9 b03e 56ba 133f 1616 20bf b6ca 25bf
00000080: d86b 57bf 94f9 103f d893 b73e 3b0f fa3e
00000090: dda2 32bf 6b3e e73e f867 81bf 3750 333e
000000a0: b03e 853e 831e 3c3f 124e f73d b8b7 8cbf
000000b0: 9e3f 9bbe 023e 3a3f 4dc5 5d3f d86d aebe
000000c0: 7b65 2c3e 1111 3b3f 5e45 12bf 6ffb 31bf
000000d0: 4118 3c3f be10 013e 4b5f 73bf fa11 dd3e
000000e0: 35d3 dfbe d4cc 303f 13c4 533e 57c9 8c3e
000000f0: 7100 ffbe 43eb 313f 6a0f 3a3f 6883 373e

decoder.0.bias f4 [32]
0.23996526 0.33667758 0.1414266 -0.5002171 -0.741829 -0.067056194 -0.2403529 1.4785253
0.09557637 0.9215138 -0.018041553 0.6278207 1.227467 0.16338725 0.15504542 -0.08768471
0.2846185 -0.5165023 -0.4467904 0.8060565 0.3525768 -0.7886318 0.6299867 0.022322541
-0.5701525 1.0257006 -0.5636465 0.02181868 0.76728797 -0.27103367 0.4637905 -0.38889894
00000000: 74b9 753e 0161 ac3e 22d2 103e 3a0e 00bf
00000010: 81e8 3dbf c254 89bd 121f 76be 5140 bd3f
00000020: 8bbd c33d 54e8 6b3f e1cb 93bc dbb8 203f
00000030: a31d 9d3f fd4e 273e 3ac4 1e3e 0b94 b3bd
00000040: 84b9 913e 7f39 04bf b6c1 e4be b859 4e3f
00000050: f284 b43e c6e3 49bf cf46 213f c3dd b63c
00000060: 84f5 11bf 284a 833f 234b 10bf 17bd b23c
00000070: fc6c 443f edc4 8abe f375 ed3e c31d c7be

decoder.2.weight f4 [32, 32]
-0.066801 0.18377523 -0.30832157 0.04876334 -0.69677854 -0.3389928 0.3230528 0.41631532
-0.38400364 0.2734463 0.2545034 0.14806396 0.4033216 0.24486841 -0.14576554 0.33076328
-0.00403689 -0.4606511 -0.0010545754 0.11293152 -0.19545682 0.11486648 -0.066058815 -1.6900576
-0.60463357 0.33749416 -1.1843389 0.009481399 0.18542397 -0.8035723 0.085905604 -1.371487
0.11803976 -0.06417566 0.2533229 -0.5798436 0.24863431 0.2743047 -0.1051875 0.3274586
-0.04743532 0.20886862 -0.285723 0.100174546 0.49548447 -0.07731829 0.17606683 -0.17408352
0.039330855 0.21488033 -0.313454 -0.13132782 0.21561155 -0.3885754 0.16180576 -0.017935945
0.25757664 0.50059867 -0.0017467197 -0.2888022 0.29590166 0.057654835 -0.011728024 0.13647273
0.14320076 -0.19245723 0.32995805 -0.852597 0.40959215 0.122980885 -0.31779686 0.42897224
0.37406027 0.36980176 -0.25957057 0.2983744 0.28918865 -0.18873848 0.14257492 -0.057875045
-0.11932141 0.35186392 -0.017255979 -0.06214897 0.12857805 -0.7929756 0.17514588 -0.08293487
0.12357534 0.43333852 0.016229324 -0.04160461 0.26125515 0.33398822 0.05062772 0.0010206215
-0.0069561745 -0.746348 -0.0822765 -0.07018989 0.03717651 0.047747537 -0.34402448 -0.10840159
-0.092460014 0.18365 -0.38008657 0.030469995 -0.09908734 0.23794025 0.036826972 0.059158545
0.5358607 -0.012131204 0.42041567 0.17765562 0.24760734 -0.36559856 0.31350315 -1.8631383
-0.08529292 -0.43175998 -0.08850802 0.30312622 0.37591773 0.037495922 0.31231982 0.08004811
0.004483287 0.31343228 0.11860595 0.10244461 0.14553519 0.28835866 0.30846685 0.08928369
0.12991597 0.2082917 0.18658137 0.29915905 0.1914453 -0.7338976 0.271231 0.25895432
-0.25514182 0.108362995 -0.5978121 -0.52824944 0.14614572 0.04897615 0.040439554 -0.14972156
-0.041998614 0.2552599 0.09613071 -0.80551505 -0.032468427 0.27281088 0.0056440854 0.2166915
0.24520144 0.3796546 -0.01611378 -0.22489023 -0.10987023 0.16272953 -0.0028740324 0.520005
-0.087713234 0.31353185 0.14916538 0.32490188 0.22809686 -0.30948305 -0.073958494 -0.0028217013
-0.16087472 0.0002894823 -0.25405157 -0.49182338 0.179594 -0.13212082 0.029616717 -0.5208069
0.040192075 0.2086367 0.09018464 -0.52945715 -0.14323497 0.1374386 0.07421837 0.12140506
0.24659733 0.22401567 0.13261934 -0.5690799 -0.010065392 0.07025941 0.09245922 0.29549417
0.23450859 0.057329137 -0.18369022 0.064215235 0.34971502 -0.04276771 0.17436711 0.010783549
-0.37073663 -0.09860715 -0.071432345 0.12516417 0.1750955 -0.7766035 0.10445162 -0.31143576
-0.04057305 0.2876056 -0.0822038 0.09245236 -0.04924266 0.05834341 0.1957527 0.1896677
0.12594654 0.06570424 -0.00039498816 -0.78548145 0.042986296 0.0089242505 0.12988697 0.42904162
0.11447631 0.41667145 0.16441846 0.13587101 0.3985295 0.028513972 0.3069222 -0.16686541
-0.24704051 0.03296671 -0.092180364 0.05423961 0.16522186 -0.58184254 0.18867126 -0.45130426
0.035732582 -0.038475715 -0.01565025 -0.02716475 0.25560933 0.13909778 -0.0067394003 -0.1341561
00000000: f6ce 88bd 932f 3c3e 53dc 9dbe 11bc 473d
00000010: 1460 32bf 7790 adbe 2d67 a53e 4827 d53e
00000020: 209c c4be 2701 8c3e 454e 823e 149e 173e
00000030: 2b80 ce3e c9be 7a3e 9043 15be ce59 a93e
00000040: e347 84bb 76da ebbe ae39 8aba a448 e73d
00000050: d525 48be 1e3f eb3d d849 87bd cf53 d8bf
00000060: 44c9 1abf 09cc ac3e 6b98 97bf df57 1b3c
00000070: c8df 3d3e eab6 4dbf 47ef af3d e38c afbf
00000080: d4be f13d 876e 83bd 8ab3 813e a170 14bf
00000090: fe99 7e3e aa71 8c3e 8b6c d7bd a7a8 a73e
000000a0: 8a4b 42bd a8e1 553e 494a 92be 5028 cd3d
000000b0: 24b0 fd3e 0d59 9ebd dd4a 343e f342 32be
000000c0: 6419 213d 9709 5c3e 0b7d a0be cd7a 06be
000000d0: 46c9 5c3e 5bf3 c6be 69b0 253e 67ee 92bc
000000e0: 16e1 833e 3c27 003f 30f2 e4ba e2dd 93be
000000f0: 6c80 973e 7a27 6c3d e626 40bc 82bf 0b3e
00000100: 38a3 123e 8213 45be 43f0 a83e cc43 5abf
00000110: 10b6 d13e 67dd fb3d 45b6 a2be 40a2 db3e
00000120: d484 bf3e a856 bd3e 6fe6 84be 88c4 983e
00000130: 8910 943e a944 41be 29ff 113e 620e 6dbd
00000140: c95e f4bd 8227 b43e 695c 8dbc eb8f 7ebd
00000150: f7a9 033e 7300 4bbf 7159 333e c2d9 a9bd
00000160: 1115 fd3d 8cde dd3e 5cf3 843c 9869 2abd
00000170: 3cc3 853e 8100 ab3e 035f 4f3d 60c6 853a
00000180: 9ff0 e3bb aa10 3fbf 9580 a8bd b8bf 8fbd
00000190: 6546 183d ec92 433d fa23 b0be a701 debd
000001a0: ad5b bdbd bf0e 3c3e b59a c2be 369c f93c
000001b0: 4eee cabd 9ca6 733e e1d7 163d 3b50 723d
000001c0: 2b2e 093f f5c1 46bc b940 d73e 5beb 353e
000001d0: c78c 7d3e bc2f bbbe 7c83 a03e 517b eebf
000001e0: 0eae aebd a50f ddbe b143 b5bd 5c33 9b3e
000001f0: 4a78 c03e 5395 193d 62e8 9f3e 43f0 a33d
00000200: 8ae8 923b 327a a03e ade7 f23d 7bce d13d
00000210: 2d07 153e bfa3 933e 5eef 9d3e 5eda b63d
00000220: b108 053e 6b4a 553e 300f 3f3e 602b 993e
00000230: 3d0a 443e b7e0 3bbf cade 8a3e a995 843e
00000240: f3a1 82be 6bed dd3d 370a 19bf 5b3b 07bf
00000250: 39a7 153e 379b 483d f2a3 253d 9c50 19be
00000260: bd06 2cbd 6db1 823e 2de0 c43d 3c36 4ebf
00000270: 9dfd 04bd dead 8b3e 05f2 b83b 60e4 5d3e
00000280: 1616 7b3e 1662 c23e 0c01 84bc a049 66be
00000290: a503 e1bd 92a2 263e 435a 3cbb 0c1f 053f
000002a0: ffa2 b3bd 3f87 a03e cfbe 183e 8a59 a63e
000002b0: 3992 693e 9074 9ebe 8d77 97bd 4bec 38bb
000002c0: 58bc 24be a8c5 9739 0c13 82be 46d0 fbbe
000002d0: 7de7 373e ae4a 07be c29e f23c 9a53 05bf
000002e0: 72a0 243d dca4 553e b9b2 b83d 818a 07bf
000002f0: 30ac 12be b4bc 0c3e cdff 973d 37a3 f83d
00000300: 0384 7c3e 5d64 653e 5dcd 073e 38af 11bf
00000310: 50e9 24bc 2ae4 8f3d 425b bd3d 034b 973e
00000320: 0523 703e f5d1 6a3d 4a19 3cbe 4783 833d
00000330: d90d b33e 322d 2fbd 4b8d 323e 7cad 303c
00000340: 31d1 bdbe 8cf2 c9bd 1f4b 92bd 092b 003e
00000350: 3c4c 333e 7dcf 46bf bbea d53d 8274 9fbe
00000360: ed2f 26bd 0b41 933e 775a a8bd aa57 bd3d
00000370: acb2 49bd 80f9 6e3d 6573 483e 4038 423e
00000380: 21f8 003e f28f 863d 6a16 cfb9 5015 49bf
00000390: 6612 303d 0537 123c 1701 053e 58ab db3e
000003a0: 8e72 ea3d f655 d53e 505d 283e c521 0b3e
000003b0: 0f0c cc3e 2296 e93c e824 9d3e c4de 2abe
000003c0: 30f8 7cbe 1a08 073d 0fc9 bcbd 5a2a 5e3d
000003d0: eb2f 293e a2f3 14bf 0a33 413e 5a11 e7be
000003e0: 545c 123d b698 1dbd f434 80bc 9c88 debc
000003f0: 3adf 823e a66f 0e3e 30d6 dcbb 3760 09be

decoder.2.bias f4 [32]
0.67864937 0.050303858 0.11114149 0.03405364 0.0756768 0.23887736 0.12211178 0.5874191
0.015742026 0.77114564 0.35897946 -0.23263974 -0.33146706 0.57933414 0.055625428 0.3867866
-0.13079828 0.3851711 0.34739605 0.10964874 -0.015309604 0.24897341 0.14784516 0.12637635
0.07820755 -0.07172788 0.37020206 -0.1648975 0.0072166896 -0.15840678 0.31326595 0.012582036
00000000: f7bb 2d3f 6b0b 4e3d 269e e33d d47b 0b3d
00000010: 70fc 9a3d 449c 743e be15 fa3d 1961 163f
00000020: 6cf5 803c cd69 453f 28cc b73e 1d39 6ebe
00000030: 0db6 a9be 3e4f 143f 7dd7 633d e508 c63e
00000040: fcef 05be 2535 c53e e5dd b13e 858f e03d
00000050: 22d5 7abc e3f2 7e3e b964 173e cd68 013e
00000060: 482b a03d 11e6 92bd 208b bd3e e4da 28be
00000070: fb79 ec3b 6335 22be 6564 a03e e224 4e3c

decoder.4.weight f4 [32, 32]
0.32341212 0.2190376 0.4980435 0.08474284 0.19996083 -0.32871443 0.25700557 0.44991666
0.021427222 0.23231275 0.18291414 0.081398584 0.004173894 -0.05632278 -0.4222312 0.19295393
0.14588183 -0.692572 -0.87209684 0.010274186 -0.103967585 -0.031942416 -0.08117514 0.25892788
0.33262962 -0.32394272 -0.10967451 -0.01833539 -0.08950189 -0.011478484 0.061121825 -0.013445042
-0.13638791 -0.18332788 -0.16643924 -0.054342426 -0.061742786 -0.1189926 -0.116873056 0.016107712
0.06646538 0.02433075 -0.19107755 -0.047634296 -0.11475439 0.06751027 -0.16029121 0.10447521
-0.13027222 0.06413252 0.11848585 -0.044336386 0.061328527 -0.10244428 -0.0073782755 -0.11443545
0.12486842 0.080729716 0.034719314 -0.06904811 -0.1586938 -0.07884154 0.1285783 0.063165694
0.1228579 0.21835384 0.3498915 -0.12680453 -0.024588343 -0.14538875 0.2766498 0.21743445
0.06738807 0.22362837 0.11407536 0.13567528 -0.041247793 0.079841375 -0.25989535 0.024371214
-0.16321322 -0.5935562 -0.98771715 0.22919148 -0.08813589 0.0004334133 -0.108021185 0.19879913
0.29374254 -0.11916512 0.0889335 -0.019371372 -0.15950572 0.04678161 0.011430006 -0.025601007
-0.053974602 0.123398624 0.2769042 -0.0039777895 0.14151451 -0.26664177 0.10885389 0.118894316
-0.112903 0.44221982 -0.012646708 -0.050941233 0.017007759 0.18053614 -0.4761287 -0.0575663
-0.07665531 0.34365413 -0.55786043 0.21532865 -0.12251848 0.15337883 0.1278313 0.026440233
0.19496392 0.22393022 -0.047952667 0.14398992 -0.072834715 0.025832836 -0.2422574 0.031700943
0.33587527 0.11466153 0.41680396 0.092663586 0.10015336 -0.3024385 0.3466871 0.34804592
-0.12794171 0.26822633 0.25677392 0.41149023 -0.20652547 0.050597314 -0.4639658 0.25783533
-0.007810127 -0.7782541 -0.50257844 0.2510038 -0.14360817 0.18883389 -0.07749481 0.023937374
0.30281523 -0.24833997 -0.1147556 0.1155657 -0.18847579 0.009983303 -0.04443987 0.15094994
0.44832146 0.4001848 0.10404192 -0.63935465 -0.5235204 0.34423023 0.106500216 0.1362314
-0.55850947 0.25916085 -0.22584972 0.2726153 0.1074822 -0.64897007 0.111276835 0.31189874
-0.13358471 -0.9643971 0.49787974 -0.8416307 -0.06747402 -0.663359 -0.4942125 0.23393033
0.15296164 -0.10074755 -0.83702564 -0.0887209 0.06596022 -0.076831914 0.3301526 0.07667323
0.29294664 0.41313562 0.5009186 0.04546794 -0.5236291 -1.2852968 -0.12846893 -0.069566995
-0.49887493 0.5644258 -0.3752058 0.36568576 0.4050618 0.028049123 -0.29261884 -0.2544638
-0.1703984 -0.10890088 -0.16196746 -0.22228032 0.09431944 -0.06372473 -0.24122433 0.41860002
0.11711593 0.14160277 -0.03632974 -0.172453 0.17992194 0.12628077 -0.9297673 -0.12536968
-0.17156601 0.09947061 -0.11590355 -0.00070005865 -0.012585095 -0.046098683 -0.07086829 0.05108977
-0.05465678 -0.15078396 0.013505838 -0.1578531 0.13662653 -0.04489079 -0.2112086 -0.1573055
-0.047047053 -0.123747975 -0.042137258 0.10132531 0.13846523 0.016119482 0.06597135 -0.11095775
-0.017717935 0.055541687 -0.05812515 -0.05838859 -0.04518652 0.1353189 -0.09548472 -0.10485899
00000000: 4696 a53e 654b 603e 8fff fe3e a78d ad3d
00000010: 88c2 4c3e 424d a8be 3c96 833e 7a5b e63e
00000020: 2488 af3c 65e3 6d3e d84d 3b3e 4db4 a63d
00000030: 29c5 883b b7b2 66bd b02e d8be b795 453e
00000040: 0c62 153e 664c 31bf bd41 5fbf 0f55 283c
00000050: f5ec d4bd 0dd6 02bd 273f a6bd 3292 843e
00000060: 6e4e aa3e d2db a5be 089d e0bd 1a34 96bc
00000070: c44c b7bd 4010 3cbc e15a 7a3d 9848 5cbc
00000080: 46a9 0bbe 4eba 3bbe 0c6f 2abe 2a96 5ebd
00000090: 01e6 7cbd 64b2 f3bd 245b efbd 52f4 833c
000000a0: 001f 883d 4851 c73c d5a9 43be 2e1c 43bd
000000b0: 5a04 ebbd d342 8a3d 6123 24be 19f7 d53d
000000c0: 1566 05be e957 833d b6a8 f23d 129a 35bd
000000d0: 9f33 7b3d 4fce d1bd 76c5 f1bb 225d eabd
000000e0: 04bb ff3d 9f55 a53d d735 0e3d 1869 8dbd
000000f0: a180 22be ac77 a1bd 08aa 033e 045d 813d
00000100: ec9c fb3d 2698 5f3e fb24 b33e 0cd9 01be
00000110: 7e6d c9bc cae0 14be 0ba5 8d3e 23a7 5e3e
00000120: c202 8a3d d6fe 643e 58a0 e93d 76ee 0a3e
00000130: 72f3 28bd e083 a33d 0111 85be 24a6 c73c
00000140: 5e21 27be 4df3 17bf 08db 7cbf 2cb1 6a3e
00000150: 9780 b4bd c03b e339 363a ddbd 0092 4b3e
00000160: 6c65 963e d80c f4bd c422 b63d b6b0 9ebc
00000170: 7855 23be 139e 3f3d eb44 3b3c 34b9 d1bc
00000180: 7914 5dbd 6bb8 fc3d 63c6 8d3e 1e58 82bb
00000190: 2ee9 103e 4585 88be caee de3d dd7e f33d
000001a0: b039 e7bd a36a e23e 2334 4fbc c1a7 50bd
000001b0: db53 8b3c 77de 383e 24c7 f3be a4ca 6bbd
000001c0: 76fd 9cbd 6ff3 af3e f1cf 0ebf 1d7f 5c3e
000001d0: f8ea fabd 570f 1d3e 35e6 023e 3099 d83c
000001e0: 9fa4 473e f74d 653e 046a 44bd 1872 133e
000001f0: 5e2a 95bd 629f d33c 5312 78be d9d8 013d
00000200: d8f7 ab3e aad3 ea3d 5467 d53e 68c6 bd3d
00000210: 341d cd3d 38d9 9abe f980 b13e 1333 b23e
00000220: 2703 03be f654 893e df77 833e d9ae d23e
00000230: 6a7b 53be 213f 4f3d ed8c edbe fe02 843e
00000240: 18ec ffbb a93b 47bf fba8 00bf 9283 803e
00000250: 050e 13be ac5d 413e 99b5 9ebd 5018 c43c
00000260: 990a 9b3e d54c 7ebe fc04 ebbd b6ad ec3d
00000270: ccff 40be 0291 233c 9506 36bd 9f92 1a3e
00000280: 648a e53e 06e5 cc3e ee13 d53d bfac 23bf
00000290: 6f05 06bf f23e b03e c91c da3d 3e80 0b3e
000002a0: 7afa 0ebf bbb0 843e 2645 67be 3c94 8b3e
000002b0: a11f dc3d e722 26bf 1ce5 e33d 31b1 9f3e
000002c0: 6eca 08be bae2 76bf 18ea fe3e 1c75 57bf
000002d0: d22f 8abd e5d1 29bf 6c09 fdbe 6f8b 6f3e
000002e0: faa1 1c3e bb54 cebd 5047 56bf 4eb3 b5bd
000002f0: 2716 873d 0d5a 9dbd c309 a93e db06 9d3d
00000300: 1afd 953e 8386 d33e 343c 003f 973c 3a3d
00000310: 8f0c 06bf 9b84 a4bf 5c8d 03be 2479 8ebd
00000320: 896c ffbe 367e 103f fa1a c0be 2a3b bb3e
00000330: 4364 cf3e 46c7 e53c 23d2 95be 1449 82be
00000340: eb7c 2ebe 6d07 dfbd ccda 25be 749d 63be
00000350: 8d2a c13d 1c82 82bd 8303 77be be52 d63e
00000360: 7ada ef3d 5100 113e 7ece 14bd 8597 30be
00000370: 753d 383e bf4f 013e 3b05 6ebf e960 00be
00000380: 00af 2fbe 3fb7 cb3d d75e edbd 2484 37ba
00000390: b731 4ebc f9d1 3cbd 6523 91bd 8243 513d
000003a0: cadf 5fbd 1c67 1abe 9747 5d3c 3ea4 21be
000003b0: d3e7 0b3e 68df 37bd 1147 58be b114 21be
000003c0: 69b4 40bd 946f fdbd 1e98 2cbd a583 cf3d
000003d0: d4c9 0d3e 010d 843c fd1b 873d d13d e3bd
000003e0: 3425 91bc ae7f 633d a314 6ebd e028 6fbd
000003f0: 8015 39bd 0a91 0a3e 7e8d c3bd 4fc0 d6bd

decoder.4.bias f4 [32]
0.2735087 0.12894246 0.13448633 0.19857709 0.025272874 0.035013616 0.16475566 -0.048913706
-0.16047628 0.3287334 0.121729665 0.17051086 0.06297168 -0.1669518 -0.35861447 -0.0059448434
0.009442751 0.43849742 0.11386798 0.20220353 0.19768175 0.11729237 0.123767756 0.21413028
0.30663168 -0.0049777073 -0.1904381 0.18537907 0.2277061 0.16848062 0.2032364 0.08279144
00000000: 5509 8c3e 7e09 043e c9b6 093e cb57 4b3e
00000010: 0f09 cf3c 706a 0f3d b5b5 283e bd59 48bd
00000020: e553 24be bf4f a83e 674d f93d 669a 2e3e
00000030: 4cf7 803d 6af5 2abe 519c b7be f6cc c2bb
00000040: c5b5 1a3c bc82 e03e 9e33 e93d 710e 4f3e
00000050: 166d 4a3e fb36 f03d f379 fd3d f844 5b3e
00000060: d4fe 9c3e 091c a3bb 3502 43be 03d4 3d3e
00000070: ca2b 693e 2f86 2c3e 341d 503e 8f8e a93d

decoder.6.weight f4 [3, 32]
0.34301183 -0.12980668 0.2746835 0.13858218 0.19945613 -0.8867397 0.41400167 0.02608122
0.063364916 0.09622472 -0.083645895 -0.12143601 0.025892148 0.0076911515 -0.28080004 0.28053942
0.28567332 0.13880028 0.16626467 -0.08570408 0.079594605 0.2761312 -0.099802196 0.14569123
0.14714539 0.22011293 -0.20910986 0.033503436 0.17891127 -0.16358063 -0.23055124 0.11924947
-0.13292785 -0.077619076 -0.024898022 0.024488017 -0.15373272 -0.21417816 -0.4794186 -0.063293375
0.0118982205 0.18947251 0.056863897 -0.25948402 -0.053459644 -0.008460009 0.12023017 -0.13589095
-0.15148701 0.2062237 0.17795327 0.36649045 0.22383785 0.20583649 0.033325646 0.15580752
0.1744533 -0.015369796 0.3380305 0.23362751 0.09854755 0.33588848 -0.28814834 -0.08023491
0.109778725 -0.113844834 0.009432961 0.12719573 0.1435522 -0.31724688 0.52411044 0.028795237
-0.12664984 -0.21148503 0.03963894 -0.12644728 0.07083924 0.13020135 0.3425448 0.10617914
0.17395166 -0.25461814 0.09982326 -0.029774709 -0.2984691 -0.4008724 0.08520343 0.25764623
-0.17724264 0.160503 -0.020368434 0.17507055 0.07656373 0.3657538 0.35298473 -0.06304833
00000000: 3f9f af3e 0bec 04be 51a3 8c3e 7de8 0d3e
00000010: 3a3e 4c3e 5f01 63bf 07f8 d33e 48a8 d53c
00000020: 77c5 813d 7711 c53d 8a4e abbd 71b3 f8bd
00000030: c51b d43c 0e06 fc3b 06c5 8fbe dda2 8f3e
00000040: c643 923e a921 0e3e 4941 2a3e 9f85 afbd
00000050: 7f02 a33d 1261 8d3e 1865 ccbd 1530 153e
00000060: 48ad 163e 4965 613e e520 56be e63a 093d
00000070: 8434 373e ae81 27be a015 6cbe 1139 f43d
00000080: 3d1e 08be c0f6 9ebd f0f6 cbbc 189b c83c
00000090: 1c6c 1dbe 8551 5bbe 5b76 f5be f59f 81bd
000000a0: c1f0 423c 1505 423e 1eea 683d 17db 84be
000000b0: 80f8 5abd d99b 0abc 3c3b f63d ff26 0bbe
000000c0: 691f 1bbe 4e2c 533e 6239 363e a3a4 bb3e
000000d0: c035 653e cdc6 523e 7980 083d 028c 1f3e
000000e0: e3a3 323e 99d1 7bbc 5512 ad3e 0d3c 6f3e
000000f0: 4cd3 c93d 93f9 ab3e 2e88 93be 3352 a4bd
00000100: abd3 e03d 7b27 e9bd b58c 1a3c 993f 023e
00000110: 59ff 123e 2f6e a2be 1a2c 063f fde3 eb3c
00000120: 7fb0 01be 888f 58be 715c 223d 657b 01be
00000130: 2a14 913d 8153 053e 0862 af3e 7374 d93d
00000140: 6220 323e 4f5d 82be 2370 cc3d 17ea f3bc
00000150: f1d0 98be 263f cdbe 237f ae3d 35ea 833e
00000160: 187f 35be e65a 243e b4db a6bc b245 333e
00000170: 72cd 9c3d 1544 bb3e 6aba b43e 7c1f 81bd

decoder.6.bias f4 [3]
0.016536523 -0.043979228 -0.00029225595
00000000: 9a77 873c 9023 34bd ee39 99b9
