examples/multiple_run_001/tanh_activation/run_tanh_activation_005/models/latent_dynamics.pt (torch, 12925 bytes, 8 tensors)

dynamics.0.weight f4 [32, 2]
0.2702138 0.2354923 0.14658597 -0.25279087 0.055881344 -0.24462053 0.21975978 0.22380826
-0.10410576 0.16190068 0.8029737 -0.43891814 0.06885387 -0.055927012 0.23990127 0.60533494
0.27632946 0.49807468 0.30737394 -0.60851604 0.63951826 0.19165277 -0.42003962 0.23021725
-0.44203588 0.3344046 0.60528606 0.2174927 -0.6190206 -0.4246087 0.623014 -0.36340192
-0.27292496 -0.2181289 -0.5732671 -0.43376788 0.38989738 0.19518584 -0.07974226 -0.0020219116
-0.018313937 0.6888267 -0.20479569 -0.21071634 -0.68815243 -0.16944197 0.23563951 -0.0774649
0.05629908 -0.028214088 0.06489975 0.058225844 -0.12940189 0.0020051019 -0.43433836 0.25725815
0.072570294 -0.3562466 -0.24964674 0.045022987 0.073414065 -0.3775063 -0.28851208 -0.60884255
00000000: 7759 8a3e e524 713e a21a 163e ce6d 81be
00000010: d6e3 643d ce7d 7abe b508 613e fe2d 653e
00000020: 6735 d5bd 4bc9 253e af8f 4d3f e1b9 e0be
00000030: 4203 8d3d b913 65bd aea8 753e 3bf7 1a3f
00000040: 0e7b 8d3e a503 ff3e 1e60 9d3e b5c7 1bbf
00000050: 78b7 233f a040 443e 6f0f d7be 12be 6b3e
00000060: 8752 e2be 1437 ab3e 07f4 1a3f 68b6 5e3e
00000070: 2278 1ebf 5066 d9be d87d 1f3f d10f babe
00000080: d2bc 8bbe 2f5d 5fbe a2c1 12bf d316 debe
00000090: a1a0 c73e ccde 473e e94f a3bd 0c82 04bb
000000a0: 1c07 96bc f256 303f f6b5 51be 06c6 57be
000000b0: c22a 30bf 3282 2dbe 7c4b 713e eba5 9ebd
000000c0: dd99 663d 3b21 e7bc 29ea 843d 397e 6e3d
000000d0: ee81 04be 0768 033b 9961 debe 57b7 833e
000000e0: bc9f 943d f465 b6be 65a3 7fbe 066a 383d
000000f0: 1d5a 963d 8148 c1be dbb7 93be 1bdd 1bbf

dynamics.0.bias f4 [32]
-0.66604865 0.41206953 0.078336954 -0.09786098 0.6837819 0.57187164 -0.26494494 -0.5725621
-0.27693388 0.48408002 0.6256363 0.36578527 -0.44925183 0.08250528 0.6636707 -0.67066866
0.6736346 -0.021052342 -0.465862 0.27361766 0.22611316 0.20117787 0.49064192 0.20382166
0.447858 0.47864017 0.45050743 0.3548604 0.07388413 -0.2449367 0.17515899 -0.38488597
00000000: 2a82 2abf c7fa d23e 206f a03d 566b c8bd
00000010: 550c 2f3f 2e66 123f dda6 87be 6e93 12bf
00000020: 47ca 8dbe 56d9 f73e b329 203f 3548 bb3e
00000030: 5604 e6be 87f8 a83d 53e6 293f f1b0 2bbf
00000040: 5173 2c3f f675 acbc 7785 eebe 9d17 8c3e
00000050: 358a 673e 9201 4e3e 6b35 fb3e a0b6 503e
00000060: a54d e53e 5310 f53e e9a8 e63e 43b0 b53e
00000070: 9050 973d b0d0 7abe e15c 333e c60f c5be

dynamics.2.weight f4 [32, 32]
0.070463695 -0.12375848 0.0965744 0.022199556 0.073217824 -0.022718081 0.048502106 0.064871445
0.031732395 -0.11975086 0.07149041 0.12330204 -0.08596953 0.14422967 -0.07830768 -0.17844655
0.10077057 -0.016220445 -0.029724423 -0.088372044 0.047042586 0.13162178 -0.07260095 -0.16873032
-0.10128796 0.013879957 0.13393892 -0.019488584 0.07907597 0.16007163 -0.045044873 -0.16594718
0.10445106 -0.041962072 0.053663824 0.15483905 -0.11856086 -0.001718121 -0.049697984 0.05766494
0.110901676 0.02181423 0.027827939 0.06335057 0.14772654 0.08369904 -0.002463868 0.03353773
-0.08630265 -0.075850405 0.1361983 -0.0280882 -0.06665917 0.06162898 -0.07108367 0.054923985
0.018017339 -0.0975085 -0.16555782 0.038948722 0.08615762 -0.020314265 -0.05051215 0.0585082
-0.16895932 0.11089994 -0.15710303 0.08458023 0.16308844 -0.021577839 0.002198253 -0.068883106
-0.032802448 -0.16693236 -0.14132844 0.15325601 -0.08299512 0.05042973 -0.1422475 0.0652786
0.1605484 -0.11605765 -0.07533444 -0.0977871 0.1730152 0.12992783 0.010475789 0.10911896
-0.048246227 -0.01315753 -0.15762399 -0.02960483 0.016756408 -0.15219927 0.11308835 0.02141768
-0.072616614 0.13171892 -0.11049948 0.046624985 0.06821933 -0.1436023 -0.042109486 -0.13250796
-0.103104815 -0.014003777 0.04916396 -0.029652052 -0.05843648 -0.01875377 0.02519431 0.12964925
0.012831392 -0.13437237 0.17396301 0.02887145 -0.026961071 -0.09693522 -0.11325616 -0.1385666
0.0986179 -0.11455221 -0.113806464 -0.14066008 0.028411128 -0.1653708 -0.15505043 0.047779836
-0.063659675 -0.010433488 0.06768719 -0.092333026 -0.16006082 0.12179568 -0.09353768 -0.15029764
0.16256961 -0.093626134 -0.08851105 0.099282645 0.017139386 0.12589419 -0.18860944 0.08769179
0.1094282 -0.17805667 0.13245264 -0.14461395 -0.09259696 -0.026096221 0.0120473085 0.1245359
0.097319975 -0.018741703 0.0148540875 -0.026271053 -0.2018005 -0.1032064 0.124560125 0.13452952
0.07923911 -0.027071055 -0.02379348 0.07600233 0.18486498 0.21382302 0.0859209 -0.15969817
0.026650852 0.057870463 0.023606045 0.119611844 -0.0003370654 0.30735397 0.022899399 -0.00027200472
-0.08433989 0.08068025 0.09763221 0.15072952 -0.1348786 0.08736113 0.07775376 0.047710605
-0.10296184 0.10406682 0.006484666 -0.09295151 0.007867772 -0.080031745 -0.082911104 0.21964009
-0.080412075 -0.028522275 -0.15351291 -0.01320192 0.04227277 -0.088961445 0.116186425 -0.024836212
0.059230994 -0.07994139 0.14585012 0.12188528 -0.050104715 0.06604559 -0.16678861 0.14704496
-0.07867876 -0.10824847 0.04761028 -0.17014249 0.0057392595 0.07884512 0.03099267 -0.06261447
-0.10322199 0.121058285 -0.046313558 0.09303329 0.046948288 -0.022988545 -0.001074909 0.06231597
0.027736882 0.10268734 0.018162565 -0.038433343 -0.10849649 -0.077381305 -0.107953504 -0.0068439315
0.13556267 0.15796523 0.14333983 0.008247071 -0.08021197 -0.01929371 0.05169893 0.09450738
-0.06643076 -0.23168378 0.1389692 0.07418929 -0.050092317 -0.043117575 -0.06886749 0.19869268
0.0071409056 -0.049440175 0.13796861 -0.026533373 0.13789383 -0.051444154 0.04604239 -0.19591643
00000000: 454f 903d 1675 fdbd cdc8 c53d d8db b53c
00000010: 3af3 953d 451b babc 25aa 463d 52db 843d
00000020: d4f9 013d f03f f5bd 9069 923d c885 fc3d
00000030: cb10 b0bd f1b0 133e c75f a0bd b1ba 36be
00000040: cd60 ce3d bde0 84bc a280 f3bc 67fc b4bd
00000050: baaf 403d dcc7 063e cfaf 94bd a4c7 2cbe
00000060: 1070 cfbd c268 633c 4927 093e 86a6 9fbc
00000070: 95f2 a13d d1e9 233e f980 38bd 0fee 29be
00000080: 70ea d53d 6ce0 2bbd 99ce 5b3d 218e 1e3e
00000090: 09d0 f2bd 9332 e1ba 1d90 4bbd 1232 6c3d
000000a0: 6b20 e33d c2b3 b23c 6bf7 e33c f2bd 813d
000000b0: a045 173e 676a ab3d d878 21bb dc5e 093d
000000c0: 72bf b0bd 7557 9bbd 9177 0b3e 3a19 e6bc
000000d0: 9a84 88bd ab6e 7c3d 5194 91bd f9f7 603d
000000e0: 1999 933c 89b2 c7bd fd87 29be b288 1f3d
000000f0: 6873 b03d 1a6a a6bc d4e5 4ebd 4ba6 6f3d
00000100: ac03 2dbe 821f e33d 9edf 20be 6638 ad3d
00000110: a800 273e 02c4 b0bc 9110 103b 9612 8dbd
00000120: dc5b 06bd 51f0 2abe 67b8 10be 25ef 1c3e
00000130: 58f9 a9bd 688f 4e3d 54a9 11be c9b0 853d
00000140: cd66 243e a2af edbd f148 9abd 9a44 c8bd
00000150: e62a 313e cd0b 053e a5a2 2b3c c379 df3d
00000160: d69d 45bd ae92 57bc 2f68 21be d485 f2bc
00000170: bc44 893c 20da 1bbe dd9a e73d 2174 af3c
00000180: 05b8 94bd 53e1 063e 8d4d e2bd d7f9 3e3d
00000190: 93b6 8b3d 7b0c 13be ff7a 2cbd 2bb0 07be
000001a0: 9e28 d3bd 1970 65bc 2660 493d dce8 f2bc
000001b0: 175b 6fbd 82a1 99bc 4c64 ce3c c6c2 043e
000001c0: c23a 523c e998 09be 5c23 323e d283 ec3c
000001d0: 77dd dcbc f985 c6bd d8f2 e7bd 67e4 0dbe
000001e0: 2ef8 c93d 599a eabd 5d13 e9bd 3209 10be
000001f0: 74be e83c f756 29be 8ac5 1ebe cab4 433d
00000200: 0160 82bd 38f1 2abc 959f 8a3d 1919 bdbd
00000210: fce6 23be 0370 f93d af90 bfbd a0e7 19be
00000220: a678 263e 0fbf bfbd 4845 b5bd b354 cb3d
00000230: e667 8c3c 68ea 003e d522 41be c197 b33d
00000240: e41b e03d 7d54 36be aaa1 073e ae15 14be
00000250: 7aa3 bdbd bec7 d5bc 1362 453c ae0c ff3d
00000260: b24f c73d 3388 99bc 8f5e 733c 6436 d7bc
00000270: caa4 4ebe e15d d3bd 6119 ff3d 1bc2 093e
00000280: 1d48 a23d 1ec4 ddbc 8bea c2bc 1ca7 9b3d
00000290: 3f4d 3d3e 6cf4 5a3e 4cf7 af3d eb87 23be
000002a0: e352 da3c 9409 6d3d 7761 c13c 0ef7 f43d
000002b0: 27b8 b0b9 805d 9d3e 8597 bb3c db9b 8eb9
000002c0: 64ba acbd b03b a53d 65f3 c73d d758 1a3e
000002d0: 9e1d 0abe 64ea b23d 5d3d 9f3d 326c 433d
000002e0: a8dd d2bd fc20 d53d 527d d43b 5c5d bebd
000002f0: d4e7 003c afe7 a3bd 4ccd a9bd 55e9 603e
00000300: 16af a4bd 8ca7 e9bc 7d32 1dbe de4c 58bc
00000310: 3626 2d3d 6b31 b6bd 26f3 ed3d 5075 cbbc
00000320: 339c 723d 50b8 a3bd bc59 153e fd9e f93d
00000330: 9a3a 4dbd e942 873d a2ca 2abe f492 163e
00000340: 5422 a1bd 60b1 ddbd ff02 433d d539 2ebe
00000350: 6610 bc3b 8d79 a13d 57e4 fd3c 043c 80bd
00000360: 0d66 d3bd 68ed f73d 49b3 3dbd 3d88 be3d
00000370: d94c 403d 7952 bcbc f6e3 8cba 083f 7f3d
00000380: 7538 e33c bd4d d23d a9c9 943c 486c 1dbd
00000390: 6833 debd 177a 9ebd ba16 ddbd 0f43 e0bb
000003a0: f1d0 0a3e a3c1 213e adc7 123e b91e 073c
000003b0: 2c46 a4bd d80d 9ebc 42c2 533d 168d c13d
000003c0: da0c 88bd 833e 6dbe f14d 0e3e 8ef0 973d
000003d0: 9a2d 4dbd 0e9c 30bd 660a 8dbd 1876 4b3e
000003e0: 42fe e93b c881 4abd a547 0d3e 845c d9bc
000003f0: 0a34 0d3e 1bb7 52bd f296 3c3d 519e 48be

dynamics.2.bias f4 [32]
-0.023673147 -0.03767078 -0.018464908 0.057010684 -0.065868676 0.22358817 0.13137132 0.16472316
0.105845325 -0.16645382 0.15083855 0.1249607 -0.023634743 0.17002778 -0.09441419 -0.045522273
0.21092075 -0.055456918 -0.14138265 0.12596925 0.15102434 0.012209162 0.074519254 0.060194798
-0.13772753 -0.07610047 -0.020739134 0.0042736926 0.24189694 0.20679934 0.12018115 -0.055700447
00000000: 30ee c1bc ad4c 1abd b843 97bc 0984 693d
00000010: 28e6 86bd 4cf4 643e 3486 063e 30ad 283e
00000020: 6fc5 d83d df72 2abe 6c75 1a3e 65eb ff3d
00000030: a69d c1bc c31b 2e3e 3a5c c1bd 9075 3abd
00000040: 9cfb 573e cb26 63bd 9dc6 10be 15fe 003e
00000050: 20a6 1a3e f008 483c 8d9d 983d d28e 763d
00000060: 7208 0dbe 90da 9bbd 1ee5 a9bc 550a 8c3b
00000070: d5b3 773e 35c3 533e 8921 f63d 2726 64bd

dynamics.4.weight f4 [32, 32]
-0.10799198 -0.12736838 -0.14473142 0.14807917 -0.069223076 0.12792985 0.027542152 0.08041392
0.16609582 0.14251491 0.21094212 0.10334239 0.022850282 0.16967198 0.14816651 0.09884893
0.19237073 0.09031524 0.15747866 -0.107588276 0.06429756 0.012870152 0.25326264 0.23653524
-0.15274127 -0.13405517 0.023792516 -0.04914305 0.0848618 0.20609073 0.17451876 0.04677957
-0.1290084 0.06093437 -0.17540485 0.00029238348 0.15753943 0.10811956 0.13714957 0.18262655
0.025414232 0.12851037 -0.114009574 0.13708922 0.09235385 -0.082432576 0.09548546 0.22462763
-0.015361241 -0.10112375 -0.15494403 -0.073413424 -0.030281033 0.1651562 0.26788554 0.24216989
0.054706454 0.07861502 -0.07981725 0.08185581 0.21643706 0.06619349 -0.070032924 -0.14705351
0.16563705 0.15822092 -0.036683396 0.058857903 -0.1694794 0.104838274 -0.014266185 -0.115640536
0.2712441 -0.012321923 0.008332867 0.23552845 -0.1079842 0.25499922 0.057633307 0.23111863
0.2338328 -0.1365904 -0.12510261 -0.040122006 -0.0046506333 0.11513769 0.21032208 0.19255161
0.18049084 -0.09081417 0.002997157 0.0620668 0.17948382 -0.0069616023 0.10264964 -0.13953196
0.005821983 0.17663121 -0.06181927 0.11548473 -0.08501881 0.013693993 -0.011512096 0.042301837
0.0022989982 -0.14419009 0.0755313 0.10653389 0.13872264 0.119917184 -0.0145978555 0.06537113
-0.14123875 0.19205678 0.11540683 -0.116226 0.1552529 -0.16067778 -0.08877105 0.16322635
-0.17702083 0.031190822 0.13176876 -0.20842013 0.1311253 -0.13343348 0.07440094 -0.1402223
-0.04101285 -0.08412399 0.11274142 0.008999848 0.04654819 0.09462191 0.05637702 -0.0068537183
0.01851402 0.0033326356 -0.13367203 0.21192305 -0.05480663 0.07666961 -0.06558134 0.010446811
0.18023576 0.005923613 0.11497321 0.100375846 -0.17983836 -0.07738176 0.3208325 0.0488571
0.06680972 -0.088488765 0.05298038 0.18378836 -0.05846232 0.07826425 0.08893012 0.07514372
-0.1678864 -0.03155282 0.10747438 -0.01026615 0.123903275 0.110367745 -0.12995982 -0.08782282
-0.12686855 0.15443823 0.00075208675 0.09741605 0.04834739 -0.117235854 0.110468216 0.13562024
0.11984852 0.05006685 -0.10924254 -0.0086816 -0.15188222 0.12695077 -0.16611326 0.013359407
-0.08722512 -0.107367285 -0.15332665 -0.13519453 0.09279641 0.02702031 0.07858333 -0.13342282
-0.14016931 -0.1203461 0.10239442 0.0152399 -0.15183683 -0.027529525 0.015835414 0.09728196
-0.029186422 -0.16586807 -0.053385634 0.14511363 -0.13181792 0.19829747 -0.040489696 0.19477221
0.1992365 -0.059253506 0.14309676 0.26767236 0.010902989 -0.041951917 0.21937634 0.15475133
0.11130999 -0.041080814 -0.083700165 0.13031188 0.14913763 -0.041533843 0.14613622 -0.14403175
-0.1763993 0.13921365 0.121354535 0.079130836 -0.016239392 -0.15339573 -0.13658668 -0.09908973
-0.06843668 -0.12673718 -0.17443942 -0.16606449 0.014637663 -0.09613388 -0.12788287 -0.010826851
-0.012994232 0.13388747 -0.17263097 0.007864729 -0.1729368 0.057685085 -0.15814137 0.07714369
0.03468753 0.09610067 -0.06119286 0.006983227 -0.12668473 0.04503983 -0.039054535 -0.17642215
00000000: e62a ddbd db6c 02be 7934 14be 11a2 173e
00000010: d4c4 8dbd 0b00 033e 14a0 e13c 0eb0 a43d
00000020: 0615 2a3e 6eef 113e 3601 583e 2da5 d33d
00000030: 8430 bb3c 7ebe 2d3e f6b8 173e 4f71 ca3d
00000040: d5fc 443e 32f7 b83d 1642 213e 3e57 dcbd
00000050: 70ae 833d 54dd 523c a4ab 813e 4b36 723e
00000060: 3568 1cbe c245 09be 86e8 c23c 394a 49bd
00000070: 06cc ad3d 7309 533e 0cb5 323e ef9b 3f3d
00000080: c71a 04be 5196 793d 549d 33be 0c4b 9939
00000090: 0452 213e ca6d dd3d f070 0c3e 7402 3b3e
000000a0: 8231 d03c 3998 033e da7d e9bd 1e61 0c3e
000000b0: 0424 bd3d 69d2 a8bd e18d c33d c904 663e
000000c0: b7ad 7bbc f819 cfbd a6a9 1ebe c759 96bd
000000d0: ee0f f8bc b51e 293e 4b28 893e 62fb 773e
000000e0: e013 603d e900 a13d 3a77 a3bd 05a4 a73d
000000f0: ada1 5d3e 7490 873d 6c6d 8fbd 3295 16be
00000100: c29c 293e aa04 223e 5441 16bd fc14 713d
00000110: 028c 2dbe 73b5 d63d b8bc 69bc f2d4 ecbd
00000120: 82e0 8a3e e4e1 49bc 9486 083c 5f2e 713e
00000130: d226 ddbd 428f 823e e710 6c3d 5daa 6c3e
00000140: de71 6f3e 5bde 0bbe e61a 00be f956 24bd
00000150: 5764 98bb 4fcd eb3d ac5e 573e 402c 453e
00000160: 97d2 383e c8fc b9bd f36b 443b c239 7e3d
00000170: 9bca 373e 271e e4bb f939 d23d 77e1 0ebe
00000180: 55c6 be3b d0de 343e 3436 7dbd 4283 ec3d
00000190: 581e aebd c55c 603c 3b9d 3cbc b144 2d3d
000001a0: caaa 163b 91a6 13be 27b0 9a3d 712e da3d
000001b0: 4f0d 0e3e 2497 f53d d82b 6fbc 4de1 853d
000001c0: e4a0 10be 88aa 443e 6b5a ec3d e607 eebd
000001d0: 9efa 1e3e b788 24be 99cd b5bd cf24 273e
000001e0: f344 35be e583 ff3c 64ee 063e 166c 55be
000001f0: b645 063e c9a2 08be 855f 983d 6f96 0fbe
00000200: 17fd 27bd 3349 acbd f9e4 e63d 1974 133c
00000210: 51a9 3e3d 22c9 c13d 97eb 663d 2895 e0bb
00000220: b7aa 973c 5968 5a3b 52e1 08be 5b02 593e
00000230: eb7c 60bd f504 9d3d 824f 86bd 1a29 2b3c
00000240: b98f 383e de1a c23b 1377 eb3d da91 cd3d
00000250: 8c27 38be 547a 9ebd 2844 a43e 621e 483d
00000260: 89d3 883d 9939 b5bd f401 593d 0433 3c3e
00000270: 3076 6fbd 0249 a03d ff20 b63d f3e4 993d
00000280: 6aea 2bbe 883d 01bd 871b dc3d 5b33 28bc
00000290: 00c1 fd3d 7c08 e23d 3014 05be 73dc b3bd
000002a0: d4e9 01be 0e25 1e3e b027 453a 1182 c73d
000002b0: ea07 463d 5a19 f0bd 293d e23d 08e0 0a3e
000002c0: 2473 f53d e612 4d3d 8eba dfbd 453d 0ebc
000002d0: 0387 1bbe 62ff 013e 9819 2abe 6ae1 5a3c
000002e0: 15a3 b2bd 61e3 dbbd a901 1dbe 6f70 0abe
000002f0: 0b0c be3d b259 dd3c 4cf0 a03d fe9f 08be
00000300: 8b88 0fbe 0478 f6bd 2ab4 d13d c6b0 793c
00000310: 1d7b 1bbe 9985 e1bc 45b9 813c c43b c73d
00000320: 5d18 efbc 52d9 29be e5aa 5abd ab98 143e
00000330: 47fb 06be 7e0e 4b3e 86d8 25bd 5e72 473e
00000340: a704 4c3e ceb3 72bd f587 123e 5a0c 893e
00000350: 73a2 323c c6d5 2bbd 31a4 603e 2277 1e3e
00000360: 7ef6 e33d 5b44 28bd fe6a abbd 7a70 053e
00000370: 89b7 183e 641f 2abd bca4 153e 0f7d 13be
00000380: 05a2 34be 068e 0e3e ba88 f83d 590f a23d
00000390: 7908 85bc c513 1dbe 61dd 0bbe 8eef cabd
000003a0: 8828 8cbd 64c7 01be 3fa0 32be cf0c 2abe
000003b0: cfd2 6f3c d7e1 c4bd baf3 02be 1b63 31bc
000003c0: c2e5 54bc cc19 093e 2cc6 30be 10db 003c
000003d0: 5816 31be 3247 6c3d d0ef 21be 83fd 9d3d
000003e0: 8314 0e3d 6ed0 c43d 5da5 7abd 8ed3 e43b
000003f0: a4b9 01be af7b 383d a6f7 1fbd 02a8 34be

dynamics.4.bias f4 [32]
0.09107741 0.22947955 0.074905865 -0.14221798 -0.10142962 -0.13848999 -0.07657536 -0.002181015
-0.17248139 0.061401557 0.22299267 0.01792134 0.07638533 0.16296014 0.10365591 0.094811864
-0.17652403 0.094265394 -0.06699833 -0.025656054 -0.117325015 -0.16235271 0.0933416 0.041649174
0.080377705 -0.10368786 0.08536701 0.092944935 -0.100070484 0.015689483 -0.13225044 0.017954085
00000000: cb86 ba3d b0fc 6a3e 3f68 993d 97a1 11be
00000010: 55ba cfbd 52d0 0dbe 8bd3 9cbd 5cef 0ebb
00000020: f69e 30be 3380 7b3d 3158 643e c6cf 923c
00000030: e96f 9c3d 06df 263e 8d49 d43d b92c c23d
00000040: b7c2 34be 370e c13d 6c36 89bd a52c d2bc
00000050: 1948 f0bd ca3f 26be e129 bf3d 5398 2a3d
00000060: 119d a43d 4d5a d4bd e6d4 ae3d ea59 be3d
00000070: c1f1 ccbd 3b87 803c a96c 07be 7214 933c

dynamics.6.weight f4 [2, 32]
0.10628343 0.17702894 0.12137106 -0.1431356 0.2132862 -0.15414049 0.19923653 0.08196772
0.033605788 -0.10946646 0.072422974 0.3362891 0.18773232 -0.041099817 -0.16305992 0.156192
-0.08428061 0.007277662 -0.12902778 0.2748992 0.119383015 0.1540762 -0.064239554 -0.09635675
0.07805425 0.07711837 0.19779612 0.12983182 -0.039906763 0.20390227 -0.056608327 -0.023967428
-0.12862006 -0.2097158 -0.07196606 0.011516776 -0.15165925 0.006262059 -0.04606748 0.095824696
0.003751019 0.1492199 -0.11848084 -0.3431227 -0.034867965 -0.14149618 -0.018348273 -0.15252279
0.068743676 0.03595599 -0.05658655 -0.34523976 0.13278826 -0.011677775 0.07041231 -0.14922354
0.07655763 0.1766544 -0.20071675 -0.083628036 -0.056335565 -0.06915247 0.09161526 0.11397515
00000000: 20ab d93d 1347 353e 6491 f83d 2492 12be
00000010: b367 5a3e 01d7 1dbe a904 4c3e b1de a73d
00000020: 39a6 093d f42f e0bd 7f52 943d 162e ac3e
00000030: e73c 403e 4858 28bd 2ef9 26be ccf0 1f3e
00000040: 509b acbd 7479 ee3b dc1f 04be 97bf 8c3e
00000050: 157f f43d 27c6 1d3e 0790 83bd b056 c5bd
00000060: e8da 9f3d 3cf0 9d3d 118b 4a3e a2f2 043e
00000070: 4675 23bd c2cb 503e 22de 67bd 5757 c4bc
00000080: fab4 03be bdbf 56be f162 93bd dcb0 3c3c
00000090: 904c 1bbe f531 cd3b 41b1 3cbd bd3f c43d
000000a0: a8d3 753b 1acd 183e 15a6 f2bd c7ad afbe
000000b0: b6d1 0ebd 60e4 10be 1e4f 96bc ef2e 1cbe
000000c0: 7cc9 8c3d 9746 133d 4cc7 67bd 44c3 b0be
000000d0: a5f9 073e 2354 3fbc 5434 903d 0ece 18be
000000e0: 3fca 9c3d e4e4 343e b188 4dbe 2d45 abbd
000000f0: 1fc0 66bd cf9f 8dbd c8a0 bb3d ce6b e93d

dynamics.6.bias f4 [2]
-0.019799115 -0.014143173
00000000: c131 a2bc c4b8 67bc
