examples/single_runs/run_020/models/encoder.pt (torch, 12429 bytes, 8 tensors)

encoder.0.weight f4 [32, 3]
0	0x3de3acf3	0.11116972
1	0x3e09399f	0.13400887
2	0xbe2e1f7f	-0.17004202
3	0xbe648cc0	-0.22319317
4	0x3ee623cd	0.4494919
5	0xbc178d39	-0.009249979
6	0xbea2b3b3	-0.31777725
7	0xbec61c27	-0.38693354
8	0xbdb47aa3	-0.088124536
9	0x3ec70faf	0.38879153
10	0xbf0fea6a	-0.5621706
11	0xbebeaebe	-0.37242693
12	0xbf5522df	-0.83256334
13	0x3eea3e75	0.45750776
14	0x3e33f5e8	0.17574275
15	0xbed359b3	-0.41279373
16	0x3ea2f048	0.31823945
17	0xbe72913f	-0.2368822
18	0xbf2454f8	-0.6419215
19	0x3ef1863c	0.47172725
20	0xbea8018a	-0.32813674
21	0xbf489f31	-0.78367907
22	0x3e863b66	0.26217192
23	0x3eb3aa3d	0.3509082
24	0x3f19709d	0.5993746
25	0x3e98b46c	0.2982515
26	0xbed3a3f8	-0.41336036
27	0x3e065505	0.1311837
28	0x3ed44142	0.41456038
29	0xbe7261c5	-0.23670109
30	0xbec1e59e	-0.37870497
31	0xbd0782ab	-0.0330836
32	0xbf107c5f	-0.56439775
33	0x3bacdd8d	0.0052754343
34	0x3d825d85	0.06365494
35	0x3edac86e	0.4273104
36	0x3ebab1ae	0.36463684
37	0x3dd72044	0.10504201
38	0xbf4c3ea2	-0.7978307
39	0xbe094779	-0.13406171
40	0xbe2b8b56	-0.16752371
41	0xbd12910e	-0.035782866
42	0x3e92542f	0.28579852
43	0xbc642af2	-0.013926255
44	0x3e19465a	0.14968243
45	0x3f0555d0	0.52084064
46	0x3e8dc970	0.27692747
47	0xbe851ab0	-0.25996923
48	0x3e762e19	0.24041022
49	0xbee3550f	-0.44400832
50	0x3f1626ab	0.5865275
51	0xbe42ef10	-0.19036508
52	0x3f03f667	0.51547855
53	0x3e8b449e	0.27200788
54	0xbf7b794e	-0.9823197
55	0x3dd81edc	0.10552761
56	0x3ee71da7	0.4513981
57	0x3ed4c007	0.41552755
58	0xbe2f630e	-0.1712763
59	0x3e578d8f	0.21050094
60	0x3f0a6a10	0.5406809
61	0xbe08dcaa	-0.13365427
62	0xbda3bbd4	-0.0799481
63	0x3f17aaf8	0.5924525
64	0xbc20b459	-0.009808623
65	0xbe49a324	-0.1969114
66	0x3ee1fcbc	0.44138134
67	0xbe2dfe2d	-0.16991492
68	0x3eb791c2	0.35853392
69	0x3eac4ed1	0.33653882
70	0xbc185156	-0.009296736
71	0x3eec8db6	0.46201867
72	0xbe9add98	-0.30247188
73	0x3eb530a2	0.35388666
74	0xbe93e6b9	-0.28886965
75	0x3d88bc3a	0.06676526
76	0x3f038f71	0.5139075
77	0xbeb99a3c	-0.36250484
78	0xbedce95c	-0.4314679
79	0xbec6c21f	-0.38819978
80	0xbce9bfe7	-0.028533889
81	0xbe9b8a49	-0.3037894
82	0xbeda6b4c	-0.42659986
83	0x3bdd00fd	0.0067445026
84	0x3d98a29e	0.07452892
85	0xbc3e5716	-0.011617443
86	0xbe381bad	-0.17979307
87	0x3de85250	0.11343825
88	0xbea40f48	-0.3204291
89	0x3f2e5fd0	0.6811495
90	0xbd1d80cd	-0.038452912
91	0xbf043d34	-0.5165589
92	0x3ebdef24	0.37096512
93	0xbe057678	-0.13033473
94	0xbe0f1dbd	-0.13976188
95	0x3f289ef4	0.65867543

encoder.0.bias f4 [32]
0	0xbfb62985	-1.4231421
1	0xbe9588fc	-0.29206073
2	0x3f03ccc7	0.5148434
3	0x3dfbeeaa	0.12301381
4	0xbe549a15	-0.20761903
5	0xbe2bd671	-0.16781022
6	0xbec2e55b	-0.3806561
7	0x3eef50bd	0.46741286
8	0xbe2ec66e	-0.17067882
9	0xbf83055d	-1.0236012
10	0x3e9a2698	0.3010757
11	0x3e93b1d8	0.28846622
12	0xbdd6926a	-0.10477145
13	0x3dabd4e5	0.08390216
14	0xbf1bbbef	-0.6083364
15	0xbf2a8f0a	-0.6662451
16	0x3f03f121	0.5153981
17	0xbdf82b36	-0.12117617
18	0x3f6bb06f	0.9206609
19	0x3ea0415c	0.31299865
20	0xbeec5ea2	-0.4616595
21	0xbc7b588a	-0.015340934
22	0xbe2f2c33	-0.17106704
23	0xbe2699e3	-0.1626964
24	0x3f18d29b	0.5969636
25	0xbf6d3bc3	-0.92669314
26	0xbeeb7b14	-0.4599234
27	0xbe97a065	-0.2961456
28	0xbf3951ad	-0.7239025
29	0x3f92f672	1.1481459
30	0x3ddb8021	0.10717798
31	0x3f276581	0.6538926

encoder.2.weight f4 [32, 32]
0	0xbd55b86e	-0.05217784
1	0xbe1e4a77	-0.15458094
2	0xbdcfd8d8	-0.101487815
3	0xbd158f94	-0.03651388
4	0xbc2fda92	-0.010733264
5	0xbdc8f3c9	-0.09812123
6	0x3cb6acaf	0.022299139
7	0xbd3ae9e5	-0.045633215
8	0xbe100837	-0.14065634
9	0x3d6ff258	0.058580726
10	0xbdcef9e3	-0.10106256
11	0xbd31fbdc	-0.043453082
12	0xbd8d6792	-0.0690452
13	0x3e08e0a3	0.13366942
14	0xbd19a3e3	-0.03750981
15	0xbd5fcea1	-0.054640416
16	0xbe0f8979	-0.14017285
17	0xbd14efa4	-0.03636135
18	0xbd20ad43	-0.039227735
19	0xbe289afc	-0.16465372
20	0x3d88e803	0.06684878
21	0xbd89eb6c	-0.06734356
22	0x3d3be5cd	0.045873452
23	0xbb259439	-0.002526535
24	0xbd901dc2	-0.07036926
25	0x3d2e60c7	0.042572763
26	0xbe11ced0	-0.14239049
27	0xbc4487e2	-0.011995288
28	0xbd93a7c3	-0.072097324
29	0xbdec5e03	-0.11541369
30	0xbdc620e1	-0.0967424
31	0x3e073ff9	0.13207997
32	0x3e724ff8	0.23663318
33	0x3b974128	0.0046159215
34	0x3e257674	0.16158468
35	0xbd65da69	-0.056116495
36	0xbf10dcb6	-0.5658678
37	0x3c9afa11	0.01891807
38	0xbdd8b90e	-0.105821714
39	0xbe584a30	-0.2112205
40	0x3e89afc9	0.26891926
41	0x3e5e0ea6	0.21685275
42	0x3c6f1455	0.01459225
43	0x3e866af5	0.26253477
44	0x3c14f4bb	0.009091551
45	0xbcf2f6f8	-0.02965878
46	0x3e4dd6f2	0.20101526
47	0x3e0b82c5	0.13624103
48	0xbcbd0f61	-0.023078622
49	0x3b85f0a0	0.0040875226
50	0xbe91e4cd	-0.28494874
51	0xbd6be76d	-0.05759375
52	0x3d2d8e84	0.04237224
53	0x3dc58c72	0.096459284
54	0xbd0db1a3	-0.034593236
55	0xbd58bcfb	-0.0529146
56	0x3d4d49a0	0.050119042
57	0xbc91ed08	-0.01781322
58	0x3df01616	0.117229626
59	0xbe04a5b1	-0.12953831
60	0x3ca6a278	0.020341143
61	0xbe41cc23	-0.18925528
62	0xbf01c233	-0.5068695
63	0x3e2cc100	0.16870499
64	0xbe00b960	-0.12570715
65	0x3e26fbfd	0.16307063
66	0x3d4cfafd	0.05004405
67	0xbcf0f92f	-0.029415695
68	0x3db8d51d	0.09025023
69	0xbdbe11ba	-0.09280725
70	0xbda877de	-0.08225988
71	0xbe1c2752	-0.15249375
72	0x3d263ed4	0.04058726
73	0xbd39f73f	-0.045401808
74	0xbdc99931	-0.09843672
75	0xbe0d9632	-0.13826826
76	0x3d337a35	0.043817718
77	0x3e139ca6	0.14415225
78	0x3dbb31fa	0.09140392
79	0xbb3fe224	-0.0029279077
80	0xbe29cfe1	-0.16583206
81	0xbe454bca	-0.19267192
82	0x3c8b73f7	0.01702307
83	0xbd582942	-0.05277372
84	0xbe26f729	-0.16305222
85	0xbda2747f	-0.07932376
86	0x3d0b790d	0.03405099
87	0x3d211256	0.039324127
88	0xbda06d60	-0.078333616
89	0xbdfbcb04	-0.122945815
90	0xbdc7e9bf	-0.097613804
91	0xbd9317c1	-0.07182265
92	0xbdfd875f	-0.123793356
93	0x3dcd4be6	0.10024242
94	0xbe26ef50	-0.16302228
95	0x3d8936ed	0.066999294
96	0x3e2f8909	0.17142119
97	0x3cb5744f	0.022150187
98	0xbe035a5e	-0.12827441
99	0xbf1739a6	-0.5907234
100	0x3e0578ee	0.13034412
101	0x3c229bef	0.009924873
102	0xbe675105	-0.225895
103	0xbd8505cd	-0.06495247
104	0x3e0867a6	0.13320789
105	0xbd325441	-0.043537382
106	0xbdb5222c	-0.088444084
107	0x3e8967d0	0.26837015
108	0x3bc56685	0.006024184
109	0x3ca1e694	0.019763269
110	0x3e56efe7	0.20989953
111	0x3e1d894f	0.1538441
112	0xbdd83375	-0.1055669
113	0xbc777272	-0.0151029695
114	0x3e0e6414	0.13905364
115	0x3c309c8e	0.010779513
116	0xbc29c848	-0.010362692
117	0x3abfcc66	0.0014633059
118	0x3ca1d7ad	0.019756163
119	0x3e1e9d90	0.15489793
120	0xbe9f1550	-0.31070948
121	0x3e047056	0.12933478
122	0xbe04f7fd	-0.12985225
123	0xbde1a097	-0.11016958
124	0x3e44a867	0.19204865
125	0xbe0d3c7d	-0.13792606
126	0xbe40f7b0	-0.18844485
127	0xbd9aa71c	-0.07551405
128	0xbc48d0f0	-0.012256846
129	0xbc7f19af	-0.015570088
130	0xbc3ebdb3	-0.0116419075
131	0xbe235642	-0.15950873
132	0x3bf0a0e1	0.007343397
133	0x3e1bb413	0.15205412
134	0xbe29dfcc	-0.16589278
135	0x3d556182	0.052094944
136	0x3c75e9d1	0.015009359
137	0x3d05a7ff	0.032630917
138	0xbdee6b7b	-0.11641594
139	0x3dfe8d78	0.12429327
140	0xbd43c8ea	-0.04779903
141	0x3c140ec7	0.009036726
142	0xbe240136	-0.16016087
143	0xbe0b149e	-0.13582084
144	0xbdbaa8a6	-0.091141984
145	0xbe32205c	-0.17395157
146	0xbd1d9775	-0.03847452
147	0xbcd22305	-0.025651464
148	0x3df2e796	0.11860578
149	0xbc8068a0	-0.01567489
150	0x3e0ef1f8	0.13959491
151	0xbc683eee	-0.01417516
152	0xbdd01f86	-0.101622626
153	0xbdfc652f	-0.12323987
154	0xbd591cbc	-0.05300592
155	0x3dab7d08	0.08373457
156	0x3d22925e	0.039690368
157	0x3c868db7	0.016424997
158	0xbd56d6da	-0.052450992
159	0xbcf7d833	-0.030254459
160	0x3e60b2cc	0.21943206
161	0x3e328f57	0.17437492
162	0xbdab86b6	-0.083753034
163	0xbe1dd4c9	-0.15413202
164	0x3e9599e5	0.29218975
165	0xbe98f5dd	-0.2987508
166	0x3e785289	0.24250235
167	0xbde9a59c	-0.114085406
168	0xbd13fddb	-0.036130767
169	0x3ea12875	0.3147618
170	0xbe288580	-0.16457176
171	0x3df06e6d	0.11739812
172	0x3e1f5efa	0.15563574
173	0xbe2b4c30	-0.16728282
174	0x3df07c8f	0.11742508
175	0x3e915218	0.28382945
176	0xbda74618	-0.08167666
177	0x3e9be804	0.3045045
178	0xbef9216c	-0.4865831
179	0xbe054d66	-0.13017806
180	0xbe3f1a5a	-0.18662396
181	0xbd1a79f8	-0.037713975
182	0xbdfeb2aa	-0.12436421
183	0x3e3b0759	0.18264522
184	0xbe6861ac	-0.22693509
185	0xbee8c6b5	-0.454641
186	0xbe1bacf2	-0.15202692
187	0xbe20e072	-0.15710619
188	0x3e225dcd	0.15856095
189	0xbd80d378	-0.062903345
190	0xbfc5633b	-1.5420908
191	0xbdcb4446	-0.099251315
192	0x3dc51e21	0.09624887
193	0x3d1b174b	0.03786401
194	0x3da1ce53	0.07900681
195	0xbd96495f	-0.07338213
196	0xbe76f444	-0.24116617
197	0xbd70b962	-0.058770545
198	0xbdd8f3f0	-0.105934024
199	0xbd9f6c01	-0.07784272
200	0xbca6d4d1	-0.02036515
201	0x3dad3c65	0.08458785
202	0x3e1009b2	0.14066198
203	0x3df75f14	0.120786816
204	0xbdb042a3	-0.0860646
205	0x3e346285	0.17615707
206	0xbcaf5613	-0.021403348
207	0x3d23e73c	0.040015444
208	0x3dc54140	0.09631586
209	0xbc069528	-0.008214273
210	0x3d72f9db	0.059320312
211	0xbdb9cdfe	-0.09072493
212	0x3d299383	0.041400444
213	0xbd053815	-0.032524187
214	0x3b305114	0.0026903795
215	0xbce3f71f	-0.027827797
216	0x3d527a45	0.051386137
217	0x3e6c255a	0.23061123
218	0xbce709ba	-0.02820288
219	0xbd835411	-0.06412519
220	0x3bbf1340	0.005831152
221	0x3e10757f	0.14107321
222	0x3cef0b7c	0.02918028
223	0x3d1d8596	0.038457476
224	0xbe2a9056	-0.16656622
225	0x3e120cfd	0.14262767
226	0x3daff242	0.08591129
227	0xbdd06b3e	-0.10176705
228	0xbe6c00ee	-0.2304723
229	0xbdb03b21	-0.08605028
230	0x3dd235ab	0.102641426
231	0xbe1d2a4c	-0.15348166
232	0xbc286cde	-0.010279862
233	0xbd8fc683	-0.07020285
234	0x3df28b1a	0.11842938
235	0xbd3bc539	-0.045842383
236	0x3bed8052	0.007247963
237	0x3da739a0	0.08165288
238	0x3d00a01b	0.03140269
239	0x3de5a913	0.11213889
240	0xbd873a37	-0.066029005
241	0x3dde54c9	0.10856015
242	0xbe9aefe9	-0.30261162
243	0xbe16e20d	-0.14734669
244	0x3e108285	0.14112289
245	0xbe018ff8	-0.12652576
246	0xbd8ee67b	-0.069775544
247	0x3dea6f9c	0.11447069
248	0x3d1958cd	0.037438203
249	0x3bea6d8e	0.007154173
250	0xbe2011dd	-0.15631814
251	0xbe22702b	-0.15863101
252	0xbe706fa5	-0.23480089
253	0x3df3bb7d	0.11900995
254	0x3dd4572d	0.1036819
255	0x3bcfb23d	0.0063383863

encoder.2.bias f4 [32]
0	0xbe1114e1	-0.14168121
1	0xbec2253f	-0.37919042
2	0xbe23422c	-0.15943211
3	0x3d145f9b	0.03622399
4	0xbdaabc77	-0.08336728
5	0xbea4f075	-0.32214704
6	0xbe2eb739	-0.17062081
7	0xbe0d8a63	-0.13822322
8	0xbdfd572a	-0.12370141
9	0x3e293d59	0.16527309
10	0xbe949bc8	-0.29025102
11	0xbd9206e6	-0.07130222
12	0x3d6f41b5	0.058412272
13	0xbd5432dc	-0.051806316
14	0xbe498f9f	-0.19683693
15	0xbf148b5c	-0.58025146
16	0xbe013455	-0.1261762
17	0x3e7ee556	0.24892172
18	0xbf2d752c	-0.67756915
19	0x3ca3ddba	0.020003188
20	0xbd56edc3	-0.05247284
21	0xb965ecc1	-0.0002192734
22	0xbdda4fe3	-0.106597684
23	0x3d3f94e0	0.046772838
24	0xbee68189	-0.45020702
25	0x3dd6fe13	0.104976796
26	0x3eccbe10	0.39988756
27	0xbeca4295	-0.39503923
28	0xbe5165ea	-0.20449033
29	0xbe84e832	-0.259584
30	0xbe2ab5e4	-0.16670948
31	0xbd37709f	-0.04478514

encoder.4.weight f4 [32, 32]
0	0xbd1710b5	-0.036881167
1	0xbf2e4f9e	-0.68090236
2	0xbd452caf	-0.048138317
3	0xbcd08735	-0.025455097
4	0xbc02485f	-0.007951825
5	0xbd9e36a5	-0.07725266
6	0xbd8c7128	-0.0685752
7	0xbdd353b2	-0.10318698
8	0xbdabbb43	-0.08385327
9	0xbd2bec0d	-0.041973162
10	0xbfafe2fe	-1.3741148
11	0x3e8a8483	0.27054223
12	0xbd60fd83	-0.054929268
13	0xbea9fe88	-0.33202004
14	0xbfa05f5f	-1.2529105
15	0xbfcfd9d3	-1.623835
16	0xbebde8af	-0.37091586
17	0x3d002dd7	0.031293716
18	0x3db693db	0.0891492
19	0x3cf2e56c	0.029650412
20	0xbe535a40	-0.20639896
21	0x3d919865	0.07109145
22	0x3d18c33d	0.03729557
23	0x3d0aaa1c	0.033853635
24	0x3e7dcea1	0.24785854
25	0xbd7047dc	-0.05866228
26	0x3e940dbf	0.28916737
27	0xbeadf170	-0.33973265
28	0xbf26b1d3	-0.6511509
29	0xbd38feb1	-0.045164768
30	0xbdfa184f	-0.12211668
31	0xbe82358f	-0.25431487
32	0xbe1cba06	-0.15305337
33	0xbc67692b	-0.014124195
34	0xbd8e6d21	-0.069544084
35	0xbdab9c3c	-0.08379409
36	0x3c9a5540	0.018839478
37	0x3ea26b5c	0.31722534
38	0x3e361ba2	0.17783979
39	0xbb90e481	-0.004421771
40	0xbe045577	-0.12923227
41	0xbe16f4db	-0.14741842
42	0xbdc6ffcb	-0.097167574
43	0x3e729fae	0.23693725
44	0xbdacd2d3	-0.08438649
45	0x3e152345	0.14564236
46	0x3cbf3cb7	0.02334438
47	0xbdc74e86	-0.09731774
48	0xbdd1d951	-0.10246528
49	0x3d06d438	0.03291723
50	0xbd9fcbfc	-0.07802579
51	0xbe25bb8d	-0.16184826
52	0xbd95f435	-0.073219694
53	0x3da70d74	0.08156863
54	0xbd8af184	-0.06784347
55	0x3dde9f1f	0.10870194
56	0x3d233b44	0.039851442
57	0x3e028848	0.127473
58	0xbdd10199	-0.10205383
59	0x3eb3a211	0.35084584
60	0x3dd28778	0.10279745
61	0xbd19bc42	-0.037533052
62	0x3d75052c	0.059819385
63	0x3e393782	0.18087581
64	0x3e028fff	0.12750243
65	0x3d664d17	0.056225862
66	0x3c528cce	0.012850953
67	0xbdb47711	-0.088117726
68	0xbe0242e0	-0.12720823
69	0xbd2b5ae7	-0.041834738
70	0xbe6da38f	-0.23206924
71	0xbe23ced6	-0.1599687
72	0xbbff57f4	-0.0077924673
73	0xbc48d58e	-0.012257947
74	0xbe008094	-0.12549049
75	0xbdbebba3	-0.093131326
76	0x3d16f237	0.036852088
77	0xbe750cee	-0.23930714
78	0xbe0d7eb3	-0.13817863
79	0xbc021b7d	-0.007941124
80	0xbb88cb1c	-0.004174603
81	0x3bd8a4cb	0.0066114417
82	0xbe070ebd	-0.13189216
83	0xbdf94f86	-0.12173371
84	0x3e16b00b	0.14715593
85	0x3c824848	0.015903607
86	0xbd61eecb	-0.05515937
87	0x3db7000e	0.08935557
88	0xbdf56751	-0.11982597
89	0xbe253447	-0.16133223
90	0x3dfd72df	0.123754255
91	0xbd1e32e6	-0.03862276
92	0xbc904098	-0.017608926
93	0x3d39a08f	0.045319136
94	0x3d77c084	0.06048633
95	0xbd80b44d	-0.0628439
96	0xbbeae730	-0.007168673
97	0x3dad2907	0.08455091
98	0x3d586b24	0.052836552
99	0xbdaac5c1	-0.083385
100	0xbde29c11	-0.110649236
101	0xbd321cc9	-0.043484483
102	0xbe000841	-0.12503149
103	0x3d87675f	0.06611513
104	0x3d4f3b8c	0.050593898
105	0x3e1aea3e	0.15128419
106	0xbe66e55e	-0.22548434
107	0xbd8d5e21	-0.06902719
108	0xbe04de46	-0.12975416
109	0x3d8e142f	0.069374435
110	0xbd6eaaa7	-0.058268216
111	0xbdab3cc7	-0.08361202
112	0xbe0a73ae	-0.13520691
113	0xbe187a25	-0.14890344
114	0xbd34d735	-0.04415055
115	0x3caf3f24	0.021392412
116	0xbd6f7d2f	-0.058468994
117	0xbe11e876	-0.14248833
118	0x3e304f8f	0.17217849
119	0xbdf9b8af	-0.12193429
120	0xbd2e6609	-0.042577777
121	0xbe191d71	-0.14952637
122	0xbcc34201	-0.023835184
123	0xbe39467f	-0.18093298
124	0xbda241cf	-0.07922708
125	0xbe0d7115	-0.13812669
126	0x3a2dd679	0.0006631385
127	0xbe4b256c	-0.19838494
128	0xbe00c540	-0.12575245
129	0x3d8d3770	0.068953395
130	0x3d348b10	0.044077933
131	0xbcb49ace	-0.022046473
132	0xbe162ff8	-0.14666736
133	0x3df74644	0.12073949
134	0xbd7f11af	-0.062272724
135	0xbc4ee3d9	-0.012627565
136	0xbc910471	-0.017702313
137	0xbdadbbb9	-0.08483071
138	0x3da1b30e	0.0789548
139	0xbcee227a	-0.029069174
140	0xbdb7f763	-0.08982732
141	0xbc41a42f	-0.01181893
142	0x3daccae2	0.08437134
143	0xc027b8d9	-2.6206572
144	0x3d7b9cad	0.061428715
145	0xbe15b238	-0.14618766
146	0xbe92040a	-0.28518707
147	0xbcc5fab8	-0.024167404
148	0x3c2ee469	0.010674574
149	0xbe638e68	-0.22222292
150	0xba86056d	-0.0010225006
151	0x3e2e785f	0.17038105
152	0xbd5782b0	-0.052614868
153	0xbde92241	-0.113834865
154	0xbd90fac4	-0.0707908
155	0x3e94cf50	0.29064417
156	0xbe1cec7e	-0.1532459
157	0x3bb824c7	0.0056196186
158	0x3d61cf29	0.055129204
159	0xbc84b22b	-0.016198238
160	0x3d241e51	0.040067974
161	0xbd9bbc2e	-0.07604252
162	0x3d127ce2	0.03576363
163	0x3ddb166f	0.10697638
164	0xbdbf4e8d	-0.09341154
165	0x3eba8bb9	0.36434725
166	0xbce3953f	-0.027781127
167	0xbd328347	-0.043582227
168	0x3e42e610	0.19033074
169	0xbe1324f1	-0.14369561
170	0xbdd9be25	-0.1063197
171	0xbb551b4e	-0.0032517496
172	0x3d8787e2	0.066177145
173	0x3e21f170	0.15814757
174	0xbd342ca8	-0.0439879
175	0x3d478c7a	0.048717953
176	0x3b89fa91	0.004210778
177	0xbcd1cefe	-0.025611397
178	0x3e8ed422	0.2789622
179	0x3c63366d	0.013867957
180	0x3e1c2b8b	0.15250985
181	0x3e0c8867	0.13723908
182	0x3d997c55	0.074944176
183	0xbc9d06b9	-0.019168245
184	0x3e666a10	0.22501397
185	0x3c03c159	0.008041703
186	0xbd61d2bc	-0.055132613
187	0x3dc71cfa	0.09722324
188	0xbd9d9d37	-0.07696002
189	0x3e223982	0.1584225
190	0x3de867da	0.11347933
191	0x3db1b9a2	0.08677985
192	0xbdb753d3	-0.08951535
193	0x3db3f87b	0.08787628
194	0xbe13b41f	-0.1442418
195	0xbba23fcf	-0.0049514542
196	0xbd62d651	-0.05538017
197	0x3dcacb08	0.099020064
198	0x3e294d00	0.1653328
199	0x3da71443	0.081581615
200	0xbc0f2ebf	-0.0087391725
201	0xbd5acd4f	-0.053418454
202	0x3c39612c	0.0113146715
203	0x3e8bd285	0.2730905
204	0x3e065ae9	0.13120617
205	0x3d4e1685	0.050314445
206	0x3e261725	0.16219766
207	0xbd825cf3	-0.06365385
208	0xbd9614b0	-0.073281646
209	0xbdaee0f3	-0.085389994
210	0x3d830787	0.0639792
211	0xbda57f76	-0.08080952
212	0xbd9eebc6	-0.07759814
213	0x3e22685c	0.15860122
214	0x3d96c046	0.07360892
215	0xbcca85e7	-0.024722053
216	0x3e066aca	0.13126674
217	0xbde50bf5	-0.11183921
218	0xbd5e92d8	-0.05433926
219	0x3eac8872	0.3369785
220	0xbdc6dc22	-0.09709956
221	0x3e098cea	0.1343266
222	0x3de4d520	0.11173463
223	0x3b8563d7	0.0040707397
224	0xbe1811e4	-0.14850575
225	0x3d75e271	0.060030404
226	0xbe0ddc6e	-0.13853619
227	0x3d265d12	0.040616103
228	0xbbf91d28	-0.0076023526
229	0x3d7ecd9a	0.062207796
230	0xbe0102d4	-0.12598735
231	0xbdc05493	-0.09391131
232	0xbe029416	-0.12751803
233	0x3dc5feac	0.096677154
234	0xbd86a251	-0.06573928
235	0x3ddd5eeb	0.1080912
236	0xbe2b595c	-0.16733307
237	0xbddb3bc6	-0.1070476
238	0xbd7c660e	-0.061620764
239	0x3c62dc7d	0.013846514
240	0xbe0b8461	-0.13624717
241	0xbd9dc198	-0.07702941
242	0xbe244171	-0.16040589
243	0xbd3075ea	-0.0430812
244	0xbdcb83f5	-0.09937278
245	0x3d72dc31	0.059292022
246	0xbe08d7db	-0.13363592
247	0xbd6539ed	-0.055963445
248	0xbcf1cd72	-0.02951691
249	0xbe0dc511	-0.13844706
250	0xbda3a67f	-0.07990741
251	0xbe1f0308	-0.155285
252	0xbe31a6b0	-0.17348742
253	0x3d6e3240	0.05815339
254	0xbce18f8a	-0.027534265
255	0x3d084fbe	0.033279173

encoder.4.bias f4 [32]
0	0x3f043fcd	0.5165985
1	0xbe884967	-0.26618502
2	0x3ea0aade	0.3138036
3	0xbe0f9b87	-0.14024173
4	0xbd59f14d	-0.053208638
5	0x3c0ddf98	0.008659266
6	0xbe9aefcb	-0.30261073
7	0xbd3e3f49	-0.046447072
8	0xbd92bed0	-0.07165301
9	0xbdbec27f	-0.09314441
10	0xbd0ff1da	-0.035142757
11	0xbeb7e87b	-0.35919556
12	0x3eb9c185	0.36280456
13	0xbe585092	-0.21124485
14	0x3dccd01c	0.10000631
15	0x3d8e574d	0.06950245
16	0xbe901a6c	-0.28145158
17	0x3e003870	0.12521529
18	0xbe4383e6	-0.19093284
19	0x3d9b903d	0.07595871
20	0xbd17562d	-0.036947418
21	0xbd8e1a53	-0.06938615
22	0xbd518505	-0.051152248
23	0xbba5128f	-0.0050376127
24	0xbe54c282	-0.20777324
25	0xbe0c7f9a	-0.13720551
26	0x3ecc40f4	0.39893305
27	0x3d85d1a0	0.065341234
28	0xbe16aa00	-0.14713287
29	0x3d4fda29	0.050745163
30	0xbe9e9148	-0.30970216
31	0xbc1ca0d4	-0.009559829

encoder.6.weight f4 [2, 32]
0	0x3e4334d1	0.19063117
1	0xbd75b8a7	-0.05999055
2	0x3eab9be8	0.33517385
3	0xbc1fdac7	-0.00975675
4	0xbfe0fa9c	-1.757648
5	0x3da64011	0.081176884
6	0xbdee6743	-0.11640789
7	0x3d408ef4	0.04701133
8	0xbe7ed359	-0.2488531
9	0x3d491adb	0.049097877
10	0xbe141d83	-0.14464383
11	0xbdcbcdca	-0.099513605
12	0xbe3e401e	-0.18579146
13	0xbb1a450b	-0.0023539688
14	0xbd08c449	-0.033390317
15	0x3c8dfd67	0.017332746
16	0x3e866507	0.26248953
17	0xbe9900a6	-0.29883307
18	0xbda8df33	-0.08245697
19	0x3e22ce26	0.15898952
20	0x3d46b7c2	0.04851509
21	0xbe33066a	-0.17482916
22	0xbe22f102	-0.1591225
23	0xbd07da22	-0.033167012
24	0xbe5c8705	-0.21535881
25	0xbe3a163e	-0.18172547
26	0x3e61ccbd	0.22050758
27	0xbdbaef8f	-0.091277234
28	0xbe4682ca	-0.1938583
29	0xbf0a3228	-0.5398278
30	0xbd8c667b	-0.06855484
31	0x3d321eba	0.043486334
32	0x3f39f9d8	0.72646856
33	0x3e11443a	0.14186183
34	0xbdf6eff6	-0.12057488
35	0xbc19fd4d	-0.0093987705
36	0xbf1f41c9	-0.62209755
37	0x3e296715	0.16543229
38	0x3e159d30	0.14610744
39	0x3acbf045	0.0015559277
40	0xbc654903	-0.013994458
41	0x3dd08c97	0.101830654
42	0x3e00d671	0.12581803
43	0xbcdcb00f	-0.02693942
44	0x3d8c0f9e	0.06838916
45	0x3b3cfddc	0.0028837835
46	0xbd6f47ca	-0.058418073
47	0x3d513d1b	0.051083665
48	0x3ae6d6bd	0.0017611604
49	0x3d86e755	0.06587092
50	0x3d0680a1	0.032837514
51	0x3cdb416d	0.026764596
52	0xbda31b1b	-0.07964154
53	0xbdaadb0c	-0.08342561
54	0xbfa9949d	-1.3248478
55	0xbc5c257e	-0.013436673
56	0x3dafaf1d	0.08578322
57	0xba8910d5	-0.0010457287
58	0xbe963d75	-0.29343763
59	0xbdb49cd6	-0.088189766
60	0x3cb44362	0.022004787
61	0xbe891006	-0.26770037
62	0xbc9cae20	-0.019125998
63	0x3cd6b802	0.026210789

encoder.6.bias f4 [2]
0	0x3eae843b	0.3408526
1	0xbdc0a2c0	-0.09406042
