examples/single_runs/run_014/models/latent_dynamics.pt (torch, 12925 bytes, 8 tensors)

dynamics.0.weight f4 [32, 2]
00000000: e960 b53d 95ce a6be 7259 41bd 4a43 523d
00000010: c85b 07be 7202 99be a063 37bf 2e12 b4be
00000020: 3be7 0b3f 334a e0be 1004 a3bf 6b5d 9c3f
00000030: ba71 82bf 8baa 06bf 4fa8 423c 3b6e a13d
00000040: 3b72 d0be fd38 673d f7a0 13bf c3dd 223e
00000050: c505 5fbe ca6f 623e bf15 d93e 9918 523f
00000060: a512 21bf 814e a03e ae54 acbe ffcf e73d
00000070: 5ac7 74bf e6d8 873e 5560 8dbd 7e6e 3ebf
00000080: b9ce c2bd 34f5 2bbf b31f a63d c5a3 53bd
00000090: 3dba 30bf f48c 243f 8ed7 f83d 95d1 38bf
000000a0: 061d 4d3e 6ae5 9dbd 36cb e03e 8c1e 103d
000000b0: 5bad a4bd 91f8 0d3e 9ec6 dc3e e66f 643f
000000c0: e0c5 953d 54dd d03d a2b6 d2bf ae81 52be
000000d0: abfc bf3e 8227 e3be cc3f 2bbf 6529 bdbe
000000e0: ebfd ec3e 47d6 55be 9935 1e3e 56c6 8e3d
000000f0: ac2e 97be 7814 cfbe 817d 283f 764e d6be
0.08856375 -0.32579485 -0.047204442 0.051333703 -0.13218606 -0.29884678 -0.7163639 -0.3517012
0.54649705 -0.4380661 -1.2735615 1.2216009 -1.0190957 -0.5260398 0.011880948 0.07882353
-0.4071215 0.056450833 -0.5766749 0.15904908 -0.21779545 0.22112957 0.42399403 0.82068783
-0.62919074 0.31309894 -0.33658355 0.11318969 -0.95616686 0.26532668 -0.069031395 -0.7438735
-0.095120855 -0.67171025 0.08111515 -0.051669855 -0.6903418 0.6427758 0.12150489 -0.72194797
0.20030603 -0.07709773 0.43905038 0.03518538 -0.080408774 0.13864352 0.43120283 0.89233243
0.07313132 0.10198465 -1.6461985 -0.20557281 0.37497458 -0.4436608 -0.6689422 -0.36945644
0.46287474 -0.20882522 0.15450133 0.06971423 -0.29527795 -0.40445304 0.65816504 -0.41856736

dynamics.0.bias f4 [32]
00000000: 8e9d 783e d350 e83e 34f3 5c3f 1b48 243f
00000010: 50e5 b2be 5d46 233d 2454 fc3d f18b 1b3f
00000020: 161a 6dbe b3ba 06bf a7b0 b8be a5c5 0abf
00000030: de4a 19bf 79d1 3e3f 403a 0e3f 3ae8 d2be
00000040: db89 88be 6cce 20bd d600 7fbe 54c2 3dbf
00000050: 97d4 f0be 05e8 223f 3e18 ee3e 1917 f6be
00000060: f4dc 693f 0f93 d53e 7690 66bf 7162 9cbe
00000070: cbf8 5abe ae75 bcbd 08f2 793f 5376 fbbe
0.24278852 0.45374164 0.863086 0.64172524 -0.34940577 0.039862026 0.12320736 0.6076041
-0.23154482 -0.5262863 -0.36072275 -0.5420783 -0.59879863 0.7453838 0.5555763 -0.411928
-0.26667675 -0.03925936 -0.24902663 -0.74124646 -0.47037193 0.63635284 0.4650287 -0.48064497
0.9135277 0.4171376 -0.9006418 -0.30543855 -0.2138397 -0.09202133 0.97634935 -0.49113712

dynamics.2.weight f4 [32, 32]
00000000: f277 19be 04d8 123e b571 61be 21bb 8ebf
00000010: ea9a 9f3d 14af 8b3f 50c4 8a3d 5a17 0c3e
00000020: 8f4e 743d aba5 cd3c bc6f 04be 0daa 353e
00000030: cdb0 adbb fa10 f33f e335 d1be 98d0 73bf
00000040: e983 96bf 49fe 003d 9f7d 123e c068 f5bd
00000050: 29aa 223e d430 edbc 9c4b b0be 3961 f13d
00000060: 0ef2 e9bc 0c09 4cbe f01b 753e 7c5f a73c
00000070: 0674 db3c 85ca 023e 4df3 94bf 6614 b1bc
00000080: cc23 033e 5ea3 0bbe c81a 12be d876 5e3d
00000090: 6b08 86bd a4a6 8bbd 58fb 0cbd 432d 163d
000000a0: 3a38 18be 9262 de3d 15ec 8b3d 7cc5 25be
000000b0: 4eec f43d 35de 7cbd 4140 793b bbe5 eabc
000000c0: 590d 63bd e08b 973d 3147 653d 6378 50bc
000000d0: c13b 9bbd a469 e83d c640 2c3d e392 37bd
000000e0: d921 b93d e4ea 0b3e 3af3 82bb 86d5 e83c
000000f0: 4378 83bd f6cd c3bd d57a 3ebe 2839 aebd
00000100: ba50 0bbe f7cf 103e 1bd1 22bd a44c 5dbe
00000110: 55f0 88be 82c0 38bf 04b0 74bd 49d6 753e
00000120: e828 1e3b a289 19be d13a 82bd 3147 04bf
00000130: 5880 273e 7b99 7c3e 0c01 413e 5eeb d7bd
00000140: 30e5 04bf de76 0fbe a277 37bd 2b25 dabe
00000150: e0d1 cdbd 32f7 e2b9 3fc4 a53e 6a35 15bf
00000160: b5f4 69bc 45d6 473d c902 69bf cdf0 363f
00000170: 8fbf 85bd 74c8 b2bd 5a74 2fbe adc1 75bd
00000180: 2b82 b4bc 7564 163e b46d 0a3e cdc9 b73e
00000190: f882 08bd 6098 e2be 657b 523d 3a13 4b3e
000001a0: 0bbc 07be 3cf6 433d 6ab7 f23d e2a7 71be
000001b0: 73f0 13bd 28d0 083f 9d55 703d 3b09 bebe
000001c0: 9130 92bd c922 dbbc 034a b5bd a7f4 28be
000001d0: 4cc9 883d 17dc ac3e ce39 223c 5fe1 51be
000001e0: e9a6 a93e 3eb9 6f3e c0c6 2abd 84c7 abbe
000001f0: ec28 11be 65bd 40bd 6e48 c33d 97b1 4bbe
00000200: 9a91 a1be 508f a73c d8dc 2dbf ef7b 54bf
00000210: f258 f03d 78c9 b33f bd0a 273d 7262 81bd
00000220: 1eb0 003e dd41 9c3c 85d3 d5bd e787 a03e
00000230: 785d 143e 38c7 0940 62fd 3a3c ea7a 44bf
00000240: b426 15bf c835 09be 98a4 febd 0fbb 50bf
00000250: 79c4 1d3d 95b3 263e 6bb4 693e 130d 453e
00000260: a34e 44bd 12ae 0fbf b31f c03d d689 403d
00000270: aa16 b6bc 557e 8a3c 0095 9bbf 25e2 9abd
00000280: 117d 4d3e 58c3 2c3e c897 963d 0bc9 d73e
00000290: 438a 8039 f1a8 41bf 9884 6a3e d179 49be
000002a0: f144 a1bd 0202 da3d e4a8 6fbd bfdb c7be
000002b0: 2e6e e73d 2ab0 c83e 3811 95be ed16 053e
000002c0: ac96 fd3d bbec e33d c494 b1bd 3b39 8b3d
000002d0: bfec 923e 0b5b 59be 981f 95be 24c1 d9be
000002e0: 2e0c e93c 5997 1bbf 135c 663b c79e e7bd
000002f0: 6e77 d1bd 466b 603d b5b8 d4bd 120a 223e
00000300: 76bd 3cbd 14d8 83be ed6e 31be 1dae 373d
00000310: b3f8 0f3e ff90 d2be c89a d23e 32be 803e
00000320: 6eb8 d9bd 800a 8ebd d41d 6e3d d1cf 853e
00000330: 7ecb dd3d 1c6d 4dc0 530a f7bd 2d8b 8fbd
00000340: 5c82 d2bd c510 e63d e300 edbd 9d65 59bc
00000350: 5b53 333e 011c 003e cb27 8fbd d864 a63e
00000360: db02 c4bb 9214 3bbf e852 56bd f50b ad3e
00000370: 52e0 bf3d e23d 483e 44c9 fb3d 1dc0 5f3c
00000380: a672 abbb e3e9 e5bc e1e2 29be 4bc0 20be
00000390: 274b 32be 4547 133e 9f4c 0cbe d645 a2bd
000003a0: 791d bc3d 9d66 4fbd 764e a53d 93e7 2dbd
000003b0: e54f aebd 9ffd c13d 974f 05be a945 33be
000003c0: ef97 ba3c 292b b439 169e 3d3c ad96 26be
000003d0: 67ca cd3d b550 adbd fb5c 25be bc71 1ebe
000003e0: c239 143e 6e95 8b3d 9c22 da3d 0b6f b6bd
000003f0: 70b4 8cbd 28c8 003e 1232 fd3d 67e3 a43d
-0.14987162 0.14340216 -0.22016032 -1.1150857 0.077932194 1.0912805 0.06775725 0.13680783
0.05964523 0.02510341 -0.12933248 0.1774065 -0.0053006173 1.8989556 -0.40861425 -0.95240164
-1.1759006 0.031492505 0.14305733 -0.1198287 0.15885223 -0.028953947 -0.34432685 0.11786122
-0.028557803 -0.19925326 0.23936439 0.020431273 0.026788723 0.12772568 -1.163675 -0.021616172
0.12806624 -0.13636538 -0.14268029 0.054312557 -0.06544574 -0.068188936 -0.034419388 0.03666426
-0.14865199 0.108586445 0.068321384 -0.16188616 0.11959134 -0.06173535 0.0038032683 -0.028673997
-0.05543265 0.07399726 0.055976097 -0.012724015 -0.075797565 0.11348274 0.04205396 -0.044817816
0.09039659 0.13663822 -0.00399628 0.028422128 -0.064194225 -0.09560768 -0.18601544 -0.085069954
-0.13605013 0.14141832 -0.0397502 -0.21611267 -0.2674586 -0.72168744 -0.059738174 0.24007525
0.0024133269 -0.14993909 -0.063588746 -0.5167113 0.16357553 0.24667923 0.18848056 -0.105429396
-0.5191221 -0.14010188 -0.044791825 -0.42606482 -0.10049796 -0.00043290254 0.32376286 -0.5828463
-0.014279534 0.048788328 -0.91019875 0.7146118 -0.065306775 -0.0872964 -0.17134228 -0.059999157
-0.022034725 0.14686759 0.13518411 0.3589615 -0.033328027 -0.44256878 0.05138721 0.19831553
-0.13255326 0.04784225 0.1185139 -0.23599198 -0.036117982 0.5344262 0.058675397 -0.37116417
-0.071381696 -0.026749985 -0.08852007 -0.16499577 0.06679019 0.33761665 0.009901477 -0.20496128
0.33135155 0.23410508 -0.04169345 -0.33550656 -0.14175767 -0.04705562 0.09535299 -0.19891964
-0.31556398 0.020454079 -0.67915106 -0.8300161 0.11735715 1.4045858 0.040781725 -0.06317605
0.12567183 0.019074375 -0.10440735 0.31353685 0.1448878 2.1527843 0.01141295 -0.7675005
-0.5826218 -0.13399422 -0.124337375 -0.8153543 0.03851745 0.16279443 0.2282273 0.19243269
-0.047926556 -0.56124985 0.09381046 0.04700645 -0.022227604 0.016905943 -1.2154846 -0.07562665
0.2006724 0.16871393 0.07353169 0.4214557 0.00024517076 -0.7564841 0.22902143 -0.19675376
-0.07874478 0.10644914 -0.058510676 -0.3903484 0.11300312 0.39196903 -0.291147 0.12997027
0.12382254 0.11129137 -0.08670953 0.06798025 0.28696248 -0.21226136 -0.29125667 -0.42530167
0.02844819 -0.60777813 0.0035150095 -0.11309581 -0.102278575 0.054789804 -0.103867926 0.15824154
-0.04607912 -0.25750792 -0.17327471 0.04484378 0.14059715 -0.41126248 0.41133714 0.25145108
-0.1063088 -0.069355965 0.058133915 0.26135114 0.10829829 -3.2097845 -0.12062516 -0.070089675
-0.1027877 0.11233667 -0.11572435 -0.013268855 0.17512266 0.12510683 -0.06990012 0.32498813
-0.0059817857 -0.7307826 -0.05232516 0.33798185 0.093689576 0.19554856 0.12294248 0.013656643
-0.005232173 -0.028065627 -0.16590454 -0.15698354 -0.17411481 0.14382656 -0.13701104 -0.079234764
0.09185309 -0.05063497 0.08071606 -0.042457175 -0.085113324 0.094722025 -0.13018642 -0.17507042
0.022777526 0.00034364432 0.011573335 -0.16268416 0.10048371 -0.08462659 -0.1614875 -0.15473074
0.14475158 0.06815611 0.106511325 -0.089078985 -0.06870353 0.12576354 0.12363066 0.08051186

dynamics.2.bias f4 [32]
00000000: 405f 093e bd75 c5bc 0e07 523e cc9a ae3e
00000010: adad c4bd c5f5 e6bd 3299 21be 029b 25be
00000020: f785 a83e e448 f43d 2441 a8bd 8b97 313c
00000030: 2e42 cabe eece e63c 0787 a33e decc ae3d
00000040: e606 923e 4699 e13e 7d01 96bd 29b0 c13e
00000050: 418a 703d 15f9 0bbe 9ccb 853e 101c d43d
00000060: 69ca 8f3e f84b 383e 3a5c 173f 70f7 a93e
00000070: 5f79 e0bd 945c d63e cbe8 043e 596c eebd
0.13415241 -0.024103994 0.20510504 0.34102476 -0.096034385 -0.112773456 -0.15781096 -0.16172412
0.32914707 0.11927965 -0.082155496 0.010839353 -0.39503616 0.028174844 0.31938955 0.08535169
0.28520888 0.4406225 -0.073245026 0.37829712 0.0587256 -0.13669236 0.26131904 0.10356915
0.28084114 0.1799773 0.591251 0.33196592 -0.1096065 0.41867507 0.12979428 -0.116417594

dynamics.4.weight f4 [32, 32]
00000000: eba5 9e3d 47b5 92bc 65c2 07be c9a6 963e
00000010: c7f7 00be 8205 4ebf 2e7f 593e 0dcf 5fbd
00000020: 991e 5f3d c669 3f3e 93fc 67bc 6b34 0ebf
00000030: 3cd1 843e 1876 40be c444 753e c1df bebd
00000040: 5aa0 8bbf 8c6b 8ec0 4a9b 1d3e 96b3 16be
00000050: e877 193e 37c5 adbd eccb 57be f2b2 683e
00000060: 844b 093f b144 f5bc 83ae a2c0 9949 c0be
00000070: d9de 823d 5f34 01be b221 f43e d040 26be
00000080: f087 a33d 8fe0 783c f0f0 dd3e e321 0a3d
00000090: c938 123e 20cc a1bc ab18 a5bd dbcb 31be
000000a0: c496 893e 2337 da3d 2fe1 a8be 3d2b d93a
000000b0: 9cc3 51be 99ed c0bc 447a 363c cac9 c33d
000000c0: b436 bfbb 3bd0 483e 7f08 27bd 5796 c93e
000000d0: 4817 00be f8f2 f4bd d473 c13d 2048 2a3e
000000e0: 02ea 5a3e bc86 66be 234e 843d 1649 d8bc
000000f0: f262 a5bd e35e 7e3e 4d9b b93d 422e 46bd
00000100: 03e9 0a3d 8eb3 92bd 9b5b b33e 2ae7 863e
00000110: 5f42 b53e 1f72 203e a49d 4abe c74e c13c
00000120: 79fa 6b3e 852e 4c3e 23d9 78be 8810 cbbd
00000130: 7c22 80ba 79d0 8dbd 9c2a 863d 4817 633d
00000140: 8be0 f5bc e4e6 013f 5871 debd cf4f a23e
00000150: 57b8 ee3d d40b 273e 537c 8b3e b0bb a9ba
00000160: 1a95 183e 43cb b0bd bf1a e93e ce71 8b3e
00000170: 97c8 e03d 27b8 0c3e e1b7 483e c6ad d0ba
00000180: 735e 8b3e 9bcd edbc 7bbf 0b3e 8139 803e
00000190: 538c e03d 8670 183d c08a 823e 46fd 94bd
000001a0: fa8e 843d 5104 643e 1b5d 7cbe d92c 33bd
000001b0: b085 8d3e 6958 08be e80c 81bd 1b18 0cbd
000001c0: 2da4 433e 20e6 633e eade 1abe b602 a53e
000001d0: ca87 203d 17a4 033e 1ed0 6b3e 9476 e13c
000001e0: 25af 3d3e 3a08 9b3c a2b7 c63e 153c 2e3e
000001f0: d557 ab3d 4006 673e d66c d63d d420 423d
00000200: 2302 afbd 924f b5bd cd79 d83e bc62 173e
00000210: b223 56be ec0c e7bd 2d47 b5be eaa5 7f3d
00000220: 0d44 663e b472 0f3e d6f3 803b 2147 7d3e
00000230: 29d3 20bf c7af f13c a364 913e 7ad0 f3bd
00000240: da7d 273e aa89 763e 8fc6 283e 68aa 8e3e
00000250: 5ee2 573e 50a7 84bd 89ca 593e 666c e4bd
00000260: c587 cd3c a787 5d3e 90fd ba3e 5348 7f3e
00000270: 8c63 053e b46f a13d 25ea b43d 3541 6cbc
00000280: 0dfd fb3d 7ec5 923d d65a 803e 404e 483e
00000290: 124a ac3e 8a4b 0d3e e195 f1be 3ffe 1e3e
000002a0: 95bf 813e d418 6a3d 47f0 4abc 8629 0b3a
000002b0: f7ad 81be 318d d43d ab63 4d3e b4a5 a63d
000002c0: 9e3b f1bd 2b12 cd3e c0e0 b73d afc1 a43e
000002d0: 0e5a 263d 0e0e 74bd be12 c73e 7af8 4e3e
000002e0: ea0c 403e 0787 22bd 9c90 a33e fe38 0a3e
000002f0: 8245 d7bd 9097 873e 338e 713e 478f f03d
00000300: dd96 58bd 1153 ff3d 7df3 6f3e 1954 8f3d
00000310: d012 b33d 4825 213e 23ee 16be 0f1f 29be
00000320: 9b9c 0bbd 9649 aa3d 019a 25be abfc 7b3e
00000330: aa2f 34be 44f2 b13d 9d49 443e 61a2 143d
00000340: beb1 a4bd 351d f83e 4336 e9bd 83e2 243e
00000350: 3f10 c7bc 28a8 eebd a714 813e e14c df3d
00000360: bf43 25bd be03 513d 9ce2 e33e 547a ffbc
00000370: ae59 0d3d ccf2 603e 4412 783e 509e cebd
00000380: 39f8 633d 268d bfbc b0e3 31bd 7ad8 ef3c
00000390: 720f 18bd c463 163e 2646 28bd a3dd 2cbe
000003a0: b591 27be 797b 2ebe db47 c4bd 0161 25be
000003b0: 3dee c43d 0e19 2ebe e5a1 0d3c 0b99 e13d
000003c0: ba99 01be a3d7 9c3d 499f 9a3d 0faa 49bd
000003d0: 327d 10bc 46a3 2dbd 3d7a 82bd f644 e53d
000003e0: aeb4 0e3e 8c03 febd afb6 42bd 52ca 963b
000003f0: 6ecf 0f3e 84e4 21bd 3497 883d 2e51 fdbd
0.0774649 -0.017908705 -0.1325775 0.29424122 -0.1259452 -0.80477154 0.21239921 -0.05464082
0.05447254 0.18692693 -0.0141593395 -0.55548733 0.25940883 -0.18795049 0.23952013 -0.093200214
-1.090831 -4.4506283 0.1539127 -0.14716944 0.14987147 -0.08484881 -0.21073884 0.22724512
0.5363085 -0.029939981 -5.0838027 -0.3755615 0.06390161 -0.12617634 0.47681957 -0.16235662
0.079849124 0.015190258 0.43347883 0.033723723 0.14279474 -0.019750655 -0.08061346 -0.17362921
0.26872838 0.10655048 -0.329843 0.0016568672 -0.20484775 -0.023550795 0.011137549 0.095599726
-0.0058353785 0.19610684 -0.040779587 0.39372513 -0.12508881 -0.11960405 0.094459206 0.16629076
0.2137833 -0.22512335 0.06460216 -0.026402038 -0.08075513 0.24840884 0.090628244 -0.04838396
0.033913624 -0.071631536 0.35030827 0.2634824 0.354022 0.15668534 -0.19786698 0.023597134
0.23044766 0.19939621 -0.24301581 -0.099152625 -0.0009775902 -0.06924529 0.06551096 0.055442125
-0.030014297 0.50742936 -0.10861462 0.31701514 0.11656254 0.16313106 0.2724329 -0.0012949612
0.14900628 -0.08632519 0.45528218 0.27235264 0.109757595 0.13742124 0.19601394 -0.0015920929
0.27220497 -0.029028704 0.13647263 0.25043872 0.10964265 0.037216686 0.25496483 -0.072748706
0.06472583 0.22267272 -0.24644892 -0.043743942 0.27641058 -0.13314976 -0.0630129 -0.034202676
0.19105597 0.22255754 -0.15124097 0.3222863 0.039192 0.12855564 0.23028609 0.027522363
0.18523844 0.018924821 0.38811976 0.17015107 0.08366362 0.22560978 0.104699776 0.04739459
-0.085453294 -0.088530675 0.42280427 0.14783758 -0.20912054 -0.112817615 -0.35405865 0.062414087
0.22486897 0.140086 0.0039353175 0.24734165 -0.62822205 0.029502762 0.28397092 -0.11904998
0.16356602 0.24075952 0.16481994 0.27864385 0.21082446 -0.06477225 0.21268667 -0.11153488
0.025089154 0.21633779 0.36521578 0.24929933 0.13026255 0.07882634 0.08833722 -0.014419843
0.12304125 0.07166575 0.25069302 0.195611 0.3365026 0.13798347 -0.4718466 0.15526675
0.25341478 0.057152584 -0.012386388 0.00053086167 -0.25328037 0.103784926 0.20057552 0.08137074
-0.11778949 0.40052924 0.089784145 0.3217902 0.040613227 -0.059583716 0.38881487 0.20211974
0.18754926 -0.039679553 0.31946266 0.13498303 -0.105113044 0.2648282 0.23589401 0.11746078
-0.05287825 0.124670155 0.23432727 0.06998462 0.087438226 0.15736878 -0.1473928 -0.16515754
-0.034084897 0.08314817 -0.16172029 0.24608104 -0.17596307 0.086887866 0.19168706 0.03628767
-0.08041714 0.48459783 -0.11387303 0.16102032 -0.024299739 -0.11653167 0.2521107 0.10903335
-0.04034781 0.05102896 0.44508827 -0.03118626 0.034509353 0.2196762 0.24225718 -0.100887895
0.055656645 -0.023382735 -0.04343003 0.029278029 -0.037124105 0.14686495 -0.041082524 -0.16881423
-0.16364177 -0.17039289 -0.09584018 -0.16150285 0.09615753 -0.17001745 0.008644556 0.11015519
-0.12656298 0.07658317 0.075499125 -0.049234446 -0.008818911 -0.042392038 -0.06370971 0.11194794
0.13936111 -0.1240302 -0.047537502 0.004601755 0.14043972 -0.03952457 0.06669465 -0.123689994

dynamics.4.bias f4 [32]
00000000: 22a1 363d 6ece 413e 3c9b ce3e 282a b43d
00000010: 65c2 e83d 2d43 953e 33d9 723e 0e9f 06be
00000020: 0485 043e 98ea d03d b72e e73d 8a46 093c
00000030: b55e 2b3e 897a 3b3e d251 843e 915f 74be
00000040: 73e6 a23d acd2 d0bd bf8a 733a 43ae c93e
00000050: 12ad 213e 7360 37be a943 283e 9717 e13c
00000060: 3d30 933e 5fe9 1b3d 173f 693d 3a40 3e3e
00000070: f95e 95be 1980 01be 6667 783e e6cd 3abe
0.044587262 0.18926403 0.4035281 0.08797103 0.11365203 0.29152814 0.23715667 -0.13146612
0.12941366 0.10200995 0.11288207 0.008378634 0.16735347 0.18308462 0.25843674 -0.2386458
0.07954111 -0.101964325 0.0009290389 0.39390764 0.15788677 -0.17907886 0.1643206 0.027477069
0.2874774 0.038064357 0.056944933 0.18579188 -0.2917402 -0.12646522 0.24258193 -0.18242607

dynamics.6.weight f4 [2, 32]
00000000: 33dd 0fbf cb2b 46be 7c43 95be d896 7bbe
00000010: 42e8 89be 4775 8abe 1a20 82bd a5b3 09be
00000020: 415a 7c3e 27b7 9b3e 9fe5 b23e 0efa 023e
00000030: d5fb 973c 8600 c73e 6b51 a3be a170 db3e
00000040: 9c2e 283e 2db2 2b3d e4f9 063e dca4 6c3f
00000050: d760 d53f c0f8 d5bd 357a 683e d23d a4be
00000060: fe30 963d bb84 a13d 5086 723e a304 473e
00000070: f62e 66bd 9428 7d3e 3cce 0e3e 988c 643c
00000080: 985d 8a3f 690f 56be e356 6abe bd29 84be
00000090: 14b0 90bd 7802 49be 9348 2dbe 811a 0b3e
000000a0: 0fb9 ba3d f7ce 3ebf 9343 e7bd cff6 c83d
000000b0: 5165 dbbe e098 df3e dabb 77be 8195 503e
000000c0: 8f1e 45be 3f36 3ebe a56f 1f3e 53b3 5cbd
000000d0: a0fe 913f 8c90 e83c 0bc4 fcbd e57a 7bbe
000000e0: 6d8a 68be 8e9b b4bc a20b d0bd d639 3fbe
000000f0: 9e9a 2d3f 2cc0 413e e4d0 59be 0ef3 be3c
-0.561969 -0.19352643 -0.2915305 -0.24569261 -0.2693501 -0.270426 -0.06353779 -0.13447435
0.24643804 0.30413172 0.34940812 0.12790701 0.0185527 0.38867587 -0.31898054 0.42859367
0.1642403 0.04191797 0.13181263 0.92439055 1.6670178 -0.10447836 0.22702868 -0.32078415
0.07333563 0.078866445 0.23684049 0.19435363 -0.05619713 0.2472251 0.1394586 0.013949536
1.0809813 -0.20904316 -0.22884707 -0.25813094 -0.07064834 -0.19629848 -0.16922216 0.13584329
0.091173284 -0.74534553 -0.11292186 0.098127 -0.42850736 0.43671322 -0.24192753 0.20369531
-0.19249938 -0.1857538 0.15569933 -0.053881954 1.140583 0.028389238 -0.1234208 -0.245586
-0.22709055 -0.02204683 -0.10158469 -0.18674406 0.6781405 0.18920964 -0.21271092 0.023309257

dynamics.6.bias f4 [2]
00000000: b0bf d53d 188c c8be
0.10436952 -0.39169383
