examples/single_runs/run_017/models/latent_dynamics.pt (torch, 12925 bytes, 8 tensors)

dynamics.0.weight f4 [32, 2]
00000000: d3c0 9d3e f491 3c3e 1f47 59be 32dc c9be
00000010: 3efb 80bf b90f 5a3e 8044 f73d be29 673f
00000020: b8e4 f9be be2a 2fbf dc92 213f 5e22 a03e
00000030: dfbc 223f 6e8a a43e 3c98 d5be a0c3 123f
00000040: 6fa8 c3ba e0e9 5abf 6c07 223e 16f8 c33e
00000050: 568f be3e 2bc6 733e b1e3 623c a50a 8fbf
00000060: 2264 15bf 66eb 06bf ab51 a43d 32e2 e43e
00000070: ffab 4cbf 4835 3bbe 602e a0be 1dac 303d
00000080: 0239 6bbf ff60 8cbe c5f6 b43d fdb9 64be
00000090: a8fd acbc 9b83 3ebf 9e3d 003d 2385 98bd
000000a0: 8ba8 b63e 3c57 c03e 3746 0fbf e7b1 7fbd
000000b0: 683e f9be cf2b 56bc d31a 8fbe 6682 3ebf
000000c0: 8053 b83c a4ed 39be d4c9 d73e 7256 d8bc
000000d0: d65e f9be 180d f73e 6003 d53e 8439 b3be
000000e0: a788 08bf 9779 54bf 94a1 7abe b3a8 afbe
000000f0: ec5a 9fbd cdea 7bbf 7be0 f33e 56fd 90bd
0.30811176 0.18415052 -0.21218537 -0.39425808 -1.0076673 0.2129506 0.12073612 0.9029807
-0.4880731 -0.68424594 0.63114715 0.3127622 0.63569444 0.32136863 -0.41717708 0.5732975
-0.0014927516 -0.85513115 0.15823144 0.38275212 0.37218732 0.23806064 0.013848231 -1.1175123
-0.58355916 -0.5270294 0.080233894 0.44703823 -0.79949945 -0.18282044 -0.3128538 0.04313289
-0.9188386 -0.27417752 0.0883613 -0.22336574 -0.021117046 -0.74419564 0.031308763 -0.07447269
0.35675463 0.37566555 -0.55966514 -0.06242552 -0.48680425 -0.013071968 -0.27950153 -0.7441772
0.022500753 -0.18157059 0.4214617 -0.026408408 -0.48705167 0.48252177 0.41604137 -0.35004818
-0.53333515 -0.8299803 -0.244757 -0.34308395 -0.07781014 -0.9840515 0.47632203 -0.0707957

dynamics.0.bias f4 [32]
00000000: f2b4 bbbe 52ba c43d 5425 243f 239c 2abe
00000010: 1a31 e4be e3e3 783d e8a1 263e eedb 573e
00000020: 7066 4cbd b0e8 963e cf32 303e ce87 dabd
00000030: 4e3f f1bd 1d53 85be 3dad 53bd 3b9e 073f
00000040: 6f3e 65bd c95c 6f3f 9f56 023f 3cda 323f
00000050: 98e5 2bbf 739c 263f 7403 123f 4d4c b43e
00000060: d4d3 253f 063b b73e 20eb 1bbf 1d1f 35bf
00000070: 010a 453e a3ab a93d d2bb cb3d 5694 573e
-0.36661488 0.0960585 0.6411946 -0.16661124 -0.44568712 0.060764205 0.162727 0.2107999
-0.04990238 0.294744 0.17206882 -0.10670434 -0.117796525 -0.26039973 -0.051678885 0.52975816
-0.055967744 0.93500954 0.50913423 0.6986425 -0.6714721 0.6508247 0.5703652 0.35214463
0.6477635 0.3578722 -0.6090565 -0.707506 0.19242097 0.0828469 0.09947933 0.2105268

dynamics.2.weight f4 [32, 32]
00000000: 6a79 723e bce2 973d 2552 d53d 1f50 163e
00000010: f606 b6be ef02 33bc 932a 573e 30a6 b43e
00000020: 6cd7 103d acde 203e 8508 5c3e 5888 753d
00000030: 6980 03bf 4285 7c3e 9c84 733e 1474 843e
00000040: e3c6 353f 1b1e d43d 7639 aebd 5789 c13b
00000050: 1e33 743e 07b3 9cba 4127 39be f0b2 e9bd
00000060: ab64 58bd 3db4 813d 79f4 273e 7a35 1e3e
00000070: f9d0 acba 9a15 69be 7825 2e3d f369 953c
00000080: 03b9 f4bd 3ccf f93d 3263 893e 12f4 cdbe
00000090: bdb3 f43d 5f64 7ebe 01af 04bd d6f1 9abb
000000a0: 0048 04bd c59d 86bd 8046 9bbd 58fd 73bd
000000b0: 3e70 50bd 0875 dcbe 9d7e 0dbf d72d 693e
000000c0: a830 39bf d94f 9f3d 5e44 503d 538a fc3d
000000d0: 514d 8fbe 32b3 ee3e 0717 ed3e 90a5 403e
000000e0: 1dee 2c3e 144f 1abe 6c70 903c cb22 5bbe
000000f0: 62bd c739 71c5 47bd f258 11be 7707 a43d
00000100: 7e20 d0be ad0e 14bd b0df 323e 18ae 00bf
00000110: db63 683c 47b5 92bb 67e6 4bbd 2eda a53d
00000120: 4c4e 863d c277 02be f6f6 ebbc 5a89 1ebd
00000130: 132d 1cbe 07ee 09be 289a 37bd b611 913e
00000140: 7831 a7be 67c4 643e 2dda dabc f550 26bc
00000150: d385 03bf a04a b73e 09b9 f53e 1efa ca3d
00000160: 3b81 af3e fdc2 0bbe 549e 35be f317 20bd
00000170: dcf8 9b3b 68be 663e 3469 9dbd fbee 2fbe
00000180: d666 a33d d539 f0bd 28a2 c2bd 2732 1abe
00000190: d60b 12be 44ea a3bc 88b1 003e 7e0b 10be
000001a0: b99e 05be 4954 e0bd aaed b43d 8958 413d
000001b0: 82a5 933b 7514 133e df41 5b3d 009d 173e
000001c0: 975d 33be 5d31 b73d 0e3c 863d aae5 babd
000001d0: 467a 34be c972 02be eb59 0b3e d02a f7bd
000001e0: 68bc 54bc 4865 36be f907 23be 1155 2a3d
000001f0: 445c a83d 38fe c3bd 43f0 013e 1b0b 2bbe
00000200: 88a5 073e e007 7bbd 3946 b53c c1d0 563b
00000210: 2e00 13be c429 f1bd 7afc 0cbe bb6a f63d
00000220: 0be5 0c3e bb50 ff3b 5b7e a93c 09c2 733d
00000230: 345b 16be 57b9 29be a1d6 123e bf83 dc3d
00000240: 652e ce3d 34bd 13bc a729 ce3c a120 dcbd
00000250: 46bc 26be 41f3 7f3c 8b3d 15be 10f3 4bbd
00000260: e9d0 fbbd 5d5f 0b3e 264a 3bbd a744 04be
00000270: 6be8 953d 8a00 2b3c e64f 34be 61be 043e
00000280: df48 62bd 3be1 263f 3d2d 363d 4dfa 46bf
00000290: 2d69 a8bd bac4 77be 81a2 72bd b161 203e
000002a0: 42cb 02bd fed3 b7bb 6db4 63bd edf3 dfbe
000002b0: 52c6 13be ebaa cb3e 4a45 16be e3d0 d5bd
000002c0: 2a77 cebe 83e2 083e 1dd8 423e 2b14 3bbd
000002d0: a547 12bf c193 403e 15f8 203e 7a22 17bf
000002e0: 3335 c73e faed 1ebe f0e1 0a3e 2d11 30be
000002f0: 1d7e ed3e 62da 2e3f 7e4c 10bf 9db1 443d
00000300: 8e3e 3cbe d386 1a3e 09ce 6f3e 8f70 8cbe
00000310: d1ee 49bd 884c c63d c14e 26be 256b 053d
00000320: 5fa9 43be 7580 a0bc a28a 8d3c 0a36 5ebe
00000330: f7ad 723d d71e d0bd acd5 f5bd 7853 a63e
00000340: dc93 29be 24de 383e 8839 023e 9575 003e
00000350: 8bda e0be fc35 cd3e 0ad5 093e a35e 71bd
00000360: 3f95 f53d 3d89 6f3d 1dab dc3d d4f7 173d
00000370: d619 033e 0a9d c33e 523e e8be e243 0a3c
00000380: f1c7 61be 8a6d 153d a17a 1b3e 57ae 51bf
00000390: b99a 283d b6de 8fbf 638c bfbe 7503 d3bd
000003a0: 4ed0 04be 8a55 fcbd e669 a5be 42e0 92be
000003b0: f9c9 463e 325e 0d3e d2d7 6c3d f664 353e
000003c0: 441a 963e d5a5 963e 18dc ca3e d435 22bd
000003d0: 2a05 6fbe bd73 9c3e 738b 913e 8cdf 5f3c
000003e0: f58c d23d 0d1a 5cbe be63 49be 9926 323d
000003f0: deec 44be b184 ff3d ca38 debe aee6 77be
0.23679128 0.07416293 0.104160585 0.14679001 -0.35552186 -0.010925992 0.21012335 0.3528304
0.035361692 0.15709943 0.21487625 0.05994448 -0.51367813 0.24660209 0.23781055 0.2586981
0.710066 0.10357305 -0.085070536 0.0059062648 0.23847625 -0.001195521 -0.1808138 -0.11411083
-0.05283038 0.06333206 0.16401853 0.15450087 -0.0013184837 -0.22762147 0.0425162 0.018238997
-0.11949351 0.1219773 0.26833493 -0.40225273 0.11948345 -0.24842976 -0.03239346 -0.004728536
-0.032295227 -0.06573061 -0.07581806 -0.05956778 -0.050888292 -0.43058038 -0.5527132 0.22771393
-0.7233987 0.077789016 0.05084645 0.12331071 -0.27988675 0.4662109 0.4630663 0.18813157
0.16887708 -0.15069228 0.017631732 -0.21399991 0.0003809734 -0.04877228 -0.14194086 0.08009236
-0.4064979 -0.03614681 0.17468143 -0.50265646 0.014183964 -0.0044771763 -0.049780276 0.08098255
0.06557903 -0.12740996 -0.028804284 -0.038705207 -0.1525157 -0.13469706 -0.04482475 0.28333825
-0.3265493 0.22340547 -0.026715362 -0.010151138 -0.51376075 0.35799122 0.47992733 0.09910987
0.34278283 -0.13648601 -0.17736179 -0.03908534 0.004759891 0.22533572 -0.076860815 -0.17181008
0.07978599 -0.117297806 -0.09503585 -0.15058194 -0.14262328 -0.020009167 0.12567723 -0.14066884
-0.13048829 -0.10953576 0.08834393 0.047203574 0.004505814 0.14363272 0.053529616 0.14805984
-0.1751617 0.08944962 0.06554423 -0.09125836 -0.17624769 -0.127391 0.1360852 -0.12068713
-0.012984373 -0.17812073 -0.1592101 0.041585032 0.08220723 -0.09569973 0.12689309 -0.16703455
0.13246739 -0.061286807 0.022128211 0.0032778236 -0.14355537 -0.11775544 -0.13768187 0.12032076
0.13759248 0.0077916062 0.020690134 0.05951122 -0.14683229 -0.16574608 0.14339687 0.10767316
0.10067443 -0.0090172775 0.025166346 -0.10748411 -0.16282758 0.015621961 -0.14574258 -0.04979235
-0.12295706 0.13610597 -0.04572501 -0.12916814 0.07319721 0.01043714 -0.17608604 0.12963249
-0.055245277 0.65187424 0.044476736 -0.7772568 -0.08223186 -0.24196139 -0.059237007 0.15662266
-0.031932123 -0.0056099882 -0.05559199 -0.43740788 -0.14431122 0.39778838 -0.14674869 -0.104402326
-0.4032529 0.13367657 0.19027753 -0.04567353 -0.5714057 0.18806364 0.15719636 -0.5903698
0.38907775 -0.15520468 0.13562751 -0.17194052 0.4638528 0.68301976 -0.5636672 0.048020948
-0.18383238 0.15090494 0.2341844 -0.27429625 -0.04930002 0.09682566 -0.1624098 0.032572884
-0.19107579 -0.019592503 0.01727802 -0.21700302 0.059247937 -0.10162132 -0.12003645 0.32485557
-0.1656031 0.1805349 0.12717259 0.12544854 -0.43916735 0.4008025 0.13460174 -0.058928143
0.11991357 0.05848049 0.10774825 0.03710158 0.12802824 0.3820575 -0.45360047 0.008439036
-0.22048928 0.036481418 0.15183498 -0.81906646 0.04116318 -1.1239841 -0.37411794 -0.10303394
-0.12970087 -0.12321003 -0.32307357 -0.2868672 0.19412984 0.13805464 0.05782301 0.17714295
0.29316914 0.29423395 0.39621043 -0.039602116 -0.23341814 0.3055705 0.28426704 0.013664138
0.10280792 -0.21494313 -0.19666955 0.04349384 -0.19230983 0.12476481 -0.43402702 -0.24209091

dynamics.2.bias f4 [32]
00000000: c412 e1bd a693 bf3e 011c 863e e2de ef3c
00000010: 97a8 25be 705a 833e 3b94 b13e d832 923d
00000020: 7944 3c3e e97a b73d cf5c 98bd c9e1 e63e
00000030: 220c a43e 01fa dc3e 284f 43be f87c 323d
00000040: ab4e 8dbe 4595 a83e 5424 d3bd 98bd 85bd
00000050: 9546 4bbe 2c21 d93d de43 e13d 9b4f f03d
00000060: 50ec 40bc efbb 8cbc 2f0e f03b 0f26 3bbe
00000070: 3e1d 9cbd 6c2a 983e 8c99 ba3e 8677 e63e
-0.109899074 0.37417334 0.2619324 0.029281083 -0.16177593 0.25654936 0.34683403 0.07138604
0.18385495 0.0895899 -0.07439577 0.45094135 0.32040507 0.43159488 -0.19073164 0.04357621
-0.2759908 0.32926384 -0.103096634 -0.06530303 -0.19851144 0.1060203 0.10999273 0.117339335
-0.011775091 -0.017179457 0.0073259096 -0.18276237 -0.07622765 0.29719865 0.36445272 0.45013064

dynamics.4.weight f4 [32, 32]
00000000: 1ebf 5d3e 592d 60bd 64cb 903e 36d2 e83d
00000010: 431e bf3d b845 c63e d5d3 df3e 0b90 d33e
00000020: 07d1 7a3e 13d9 553e 2261 06be fa85 5cbe
00000030: bec6 13bf de53 75be 2335 0f3e 6a66 c6bd
00000040: 550f 9b3d 6b76 9e3d 1075 333d da07 f83d
00000050: 4bea 1b3e a9be 133e 589c ebbe 3e03 d3bc
00000060: e45b 0a3e 71b1 aebd 77f5 503d 3dae f9bc
00000070: 47df 013e 3e8f 0f3e 499a 0f3e b5e4 2bbe
00000080: 65dd 653d 425b 093e ecf9 7b3d e76c 233e
00000090: 8bd9 32be 70e6 09be e002 af3d 2984 d83d
000000a0: 5934 1bbe f3dc 3abe d9e6 ae3d 42f6 bf3c
000000b0: be2c 02be 2583 e7bd d399 29be 461b ce3d
000000c0: ea3f ec3d c996 d63d e281 98bd 7cd9 9d3d
000000d0: 3cbc 74bd d351 abbd 3d51 3bbe e8fd 053e
000000e0: c5e9 1dbe 8727 a13d debe 1abe 6482 22be
000000f0: 4d79 aebd b334 023d 0147 41bd 1901 81bd
00000100: a60b a7bd bb90 a2be 5288 b5be 1cf6 c73c
00000110: b32c 2e3e 07c7 9dbf 776f b4bd bd29 563f
00000120: 47f2 db3d 5ef8 8b3e 879f 0fbe 8baa 46be
00000130: 96d2 083f 65a8 cabe 963e d73d 473a 143e
00000140: 9df9 ccbc 293d a63e a0cc 393e c9df d03a
00000150: 78eb 033e ae11 423d 7dfb 0d3e 5ca2 e13c
00000160: e34a ca3d e3b7 013e aa68 173d 5874 2c3e
00000170: 6f23 f53c 3a8d 173e 5443 c0be 9f7f edbc
00000180: 2ddb fd3c a3ba c6bd c70d fabe 7bce 2dbc
00000190: 7e7d d6bc f757 cdbf fea6 99bb a928 31be
000001a0: 582c 48bd 1e36 4e3d c3ce 143d 2969 83be
000001b0: 5a16 e5bd a787 bfbf b4cb a43d b1a8 1fbe
000001c0: ad09 8bbf ce90 963c aa73 143e d153 8fbd
000001d0: 9430 1abd 24e7 e8bd 984e e53d a206 17be
000001e0: 9222 053d 0491 03be 76e3 f53d b13a 7c3e
000001f0: e07e 19bf a490 19be 8aeb 8d3b da87 b0be
00000200: 27fc 6a3e cf0e 8dbf e00a 80bf a78d 5dbd
00000210: 684d 27be 77bc c1bf d6a4 8b3e f2db 9e3d
00000220: c5f9 b93d 9547 353e dbd7 46be 4f57 12bf
00000230: 5f78 ccbf e394 1ec0 bb33 143e 42e4 64bc
00000240: 7174 c43e 3849 193e e77f 323d f88c 033e
00000250: 7aa9 063e c35e ff3d 713d 503e 44fe f1bd
00000260: 2ffd 03be 6ec1 953c 2c01 0d3e e18c 8b3e
00000270: 9472 a2bc 9f64 ba3e 187f 08bf d517 25c0
00000280: dfb7 f33b b196 07bd 499c 723e 8eda 26bd
00000290: acc5 bd3d 0e30 9c3e ec74 413e 6b45 babe
000002a0: ea22 fbbc 9c8d 3ebc 088e b5bd bbd6 093e
000002b0: 0b77 0f3d 6eed 063f 2f4a 353d e38f 19be
000002c0: c257 353d 7928 0a3e 978f 323e b703 06bc
000002d0: 3865 2ebd 1316 abbc 8ad4 c63d 5ec8 c33d
000002e0: b21c 253e 34f7 6dbd f4ae fbbd d1f3 353e
000002f0: cb99 7a3e e0bc 4dbd c1d8 c63e 0c02 c63e
00000300: 3fb0 2e3e 99bd 803d 9e07 533e 5efb 15be
00000310: d73c 973d 62a2 8c3d fd2d 5a3e de7c f9bf
00000320: d5fc a03e c901 2f3e e186 99be 7dd7 ddbd
00000330: 7061 e7bc f695 bfbe 8771 7e3d 9d43 bebd
00000340: 5b56 023c c169 3b3e cd1e 843d 22c7 33be
00000350: dca1 40be e65e 333e ead0 43be 015d 34be
00000360: ba31 1ebd 2a7d 73bb 7211 c13d d310 433d
00000370: d3f5 c5bc f7cc 393e f270 97bb c680 28be
00000380: df98 98bd e196 983e 0a2d bf3e 6c93 3abe
00000390: e24f 37be 74ed e43e 4c1f 50bc 427c eabe
000003a0: 31cf 71be b662 033d 6814 9b3d ba93 a23e
000003b0: f2eb 3f3d a191 8b3e 077e 1d3e a48a 453d
000003c0: 30e4 67bd 19ea cd3d d61c b7be 5540 1d3e
000003d0: 9cfd 213e 8278 b93d 0964 9e3e 663a 253e
000003e0: c0e3 dc3d 4235 1ebc 45bb a93c e721 6b3e
000003f0: 5faf 4cbc a421 f83c 279f 6e3e c11d 7d3e
0.21654937 -0.054730747 0.28280175 0.113682196 0.09331944 0.38725066 0.43716303 0.41320834
0.244938 0.20883588 -0.1312299 -0.21535483 -0.5772513 -0.23957774 0.13985114 -0.09687503
0.07571284 0.0773743 0.04381281 0.121108726 0.15226094 0.144282 -0.46017718 -0.025758382
0.13511616 -0.08529938 0.051015344 -0.030478591 0.1268283 0.14019486 0.14023699 -0.16786464
0.05611934 0.13413718 0.06151764 0.15959512 -0.17465799 -0.13466811 0.0854547 0.105720825
-0.15156688 -0.18248348 0.085401244 0.023432855 -0.1271238 -0.11304311 -0.16562586 0.10063796
0.11535628 0.10477979 -0.07446648 0.077074975 -0.059749827 -0.08365216 -0.18292709 0.13085139
-0.15421207 0.07868867 -0.15111873 -0.15870053 -0.0851923 0.03178854 -0.047186855 -0.062990375
-0.08156519 -0.31751046 -0.35455567 0.024409346 0.17009239 -1.2326363 -0.08810323 0.8365744
0.1073957 0.27337927 -0.14025699 -0.19400994 0.5344633 -0.395816 0.10509984 0.14475356
-0.025021369 0.32468536 0.18144464 0.0015935834 0.12882793 0.047380142 0.13865466 0.02754324
0.09877565 0.12667803 0.03696505 0.16841257 0.029924123 0.14799967 -0.37551367 -0.028991519
0.0309883 -0.09703567 -0.48838636 -0.010608311 -0.026182886 -1.604247 -0.0046890965 -0.17300667
-0.048870414 0.05034458 0.036329996 -0.25666168 -0.11185904 -1.4963273 0.08046666 -0.15591694
-1.0862328 0.018379595 0.14497247 -0.069984086 -0.037643984 -0.113722116 0.11196631 -0.14748624
0.032503672 -0.12848288 0.12006275 0.24631764 -0.5995922 -0.14996582 0.004331057 -0.34478647
0.22947751 -1.1020144 -1.0003319 -0.05409017 -0.16338122 -1.513564 0.27274197 0.07756795
0.09080843 0.17703088 -0.1941828 -0.5716447 -1.5974234 -2.4778373 0.14472859 -0.0139704365
0.38370088 0.14969337 0.04357901 0.12846744 0.13150588 0.12469246 0.20335938 -0.118160754
-0.1288955 0.018280711 0.13769978 0.2725592 -0.019830026 0.36404893 -0.5331893 -2.5795796
0.0074376906 -0.033102695 0.2369243 -0.040735774 0.092662185 0.30505413 0.18892258 -0.36381087
-0.030656297 -0.011630442 -0.08864981 0.1346082 0.035025638 0.5270604 0.0442602 -0.14996295
0.044273145 0.13492002 0.17437588 -0.008179597 -0.042577 -0.02088455 0.09708507 0.095597014
0.16124228 -0.05809708 -0.12289229 0.1776879 0.2447273 -0.050228953 0.38837245 0.38673437
0.1705942 0.06286163 0.20608374 -0.1464667 0.07384651 0.068669096 0.21306606 -1.9491231
0.31442896 0.17090525 -0.29985717 -0.10832117 -0.028244704 -0.374191 0.062119987 -0.0929024
0.007955159 0.1830206 0.06451187 -0.17556432 -0.18811744 0.1751667 -0.19122663 -0.17613603
-0.03862164 -0.003715346 0.094271556 0.047623467 -0.02416507 0.18144594 -0.0046216184 -0.16455373
-0.07451033 0.2980261 0.3733905 -0.182203 -0.17901567 0.44712412 -0.012702774 -0.45797926
-0.23614193 0.03207656 0.075722516 0.3175333 0.046855874 0.27259544 0.15380107 0.04822792
-0.0566141 0.10054416 -0.35764188 0.15356572 0.158194 0.09056188 0.30935696 0.16135558
0.10785627 -0.009656252 0.02071918 0.22962151 -0.012492984 0.030289479 0.233029 0.24718381

dynamics.4.bias f4 [32]
00000000: 0235 f33d 40e3 443d c316 7fbc c727 c33d
00000010: 6974 e1bd 36ca 0e3e 40da 123d da0c 6b3e
00000020: 6a2d 01be 0e5d 98bd 0700 8b3e a8a4 9d3e
00000030: f5f2 883e b9d6 31be 8041 863e e6cd f03c
00000040: 4990 993e 8e35 403e f275 de3d e2c2 f63d
00000050: e3f8 d6bc 307b 113e e1ef 31be 35eb ac3e
00000060: ca82 9a3d bc88 5c3e edd1 15be 3780 f5bc
00000070: 3e7f c73b bcc8 25bd 1626 313c 1e16 a63e
0.11875345 0.048068285 -0.015569392 0.09529071 -0.110085316 0.13944325 0.03585267 0.22954121
-0.1261498 -0.07439624 0.27148458 0.30789685 0.26747862 -0.17367066 0.26221848 0.029395055
0.29992893 0.1877043 0.1086234 0.1204889 -0.026241725 0.14207149 -0.17376663 0.337732
0.07544477 0.21536535 -0.14630862 -0.029968364 0.0060881665 -0.04047464 0.010812303 0.3243875

dynamics.6.weight f4 [2, 32]
00000000: b22c 863e ea0c f9bd 8f0f efbe dc49 90be
00000010: 72d4 ee3e 7702 dc3c 2fa1 8b3e 370d 383e
00000020: 7741 fc3d 7fee 943e 637e 3abd d76c ab3e
00000030: 64fe 883e ce7d 98bd 0a18 6d3e aa31 c23d
00000040: 7f87 633e 09e1 3bbd a9e3 56bc 2945 e93b
00000050: c8b6 a3be 378f d33c fc73 0a3f 10de 7b3e
00000060: 8eda bfbc ebc3 d53c 9767 4bbf 05b4 1ebe
00000070: dcbe a5bd fd3f e73c 8d55 cb3d 381b 313f
00000080: 5edf 9cbd fabd 02be aa7c ddbb 8a60 32bf
00000090: ff89 a3be 5ef4 533e edf3 91be 3fa7 a23e
000000a0: 0bd2 5a3e 8b5f 6e3e 7300 633e 6e11 5d3e
000000b0: ea2d ff3a 5580 50bf f4bd 263d 3a3b 563e
000000c0: 7412 213e 0bfd bb3e 798e 053e 9659 8f3e
000000d0: 31cd 73be d576 653e 20b4 22be cb83 9a3e
000000e0: 6743 e1bd 2613 3f3e a65e d9bd a2d1 853e
000000f0: fe61 a0bd 4f45 c5bc fca9 a1be 66c4 033e
0.26205975 -0.12160666 -0.46691558 -0.2818135 0.46646458 0.026856644 0.2727141 0.17973791
0.12317174 0.29088208 -0.045530688 0.33481476 0.26756585 -0.0744587 0.23153701 0.09482129
0.22219656 -0.045868907 -0.013115802 0.0071188402 -0.3197539 0.025825126 0.5408323 0.24596429
-0.023419645 0.026094398 -0.7945494 -0.1549836 -0.08093044 0.028228754 0.09928427 0.6918216
-0.076597914 -0.12767783 -0.006759246 -0.69678557 -0.3194122 0.20698687 -0.28506413 0.31768224
0.21369188 0.23278634 0.2216814 0.2158868 0.001946864 -0.8144582 0.040708497 0.2092103
0.15729696 0.36716494 0.1304263 0.27998036 -0.23808743 0.22408612 -0.15889025 0.30178675
-0.10999184 0.18659648 -0.10613756 0.261365 -0.078311905 -0.0240809 -0.31575 0.12867889

dynamics.6.bias f4 [2]
00000000: 1908 433e 3f3b c43d
0.19046058 0.09581613
