examples/multiple_run_001/no_activation/run_no_activation_014/models/latent_dynamics.pt (torch, 12925 bytes, 8 tensors)

dynamics.0.weight f4 [32, 2]
0	0x3e7faacf	0.24967502
1	0xbf0a92a8	-0.5413003
2	0xbee18753	-0.44048557
3	0x3eb43827	0.3519909
4	0xbf489a6f	-0.78360647
5	0xbe30f0e4	-0.17279392
6	0xbe280884	-0.16409498
7	0xbe343a0f	-0.17600273
8	0xbea7ddeb	-0.32786497
9	0xbf906324	-1.1280255
10	0xbf8370fd	-1.0268856
11	0xbe3fcf9a	-0.18731537
12	0x3d6b0e01	0.057386402
13	0xbf5d9dff	-0.8656921
14	0xbe63482c	-0.221955
15	0x3e0ee67c	0.1395511
16	0x3f0461af	0.51711553
17	0x3e0dd0fc	0.13849252
18	0x3f5f39d5	0.8719762
19	0x3f005cbe	0.50141513
20	0xbe50e5ab	-0.20400111
21	0x3f4c53ea	0.7981554
22	0xbe4baddd	-0.19890542
23	0x3efb726d	0.49110737
24	0xbf107d80	-0.564415
25	0x3c91bd21	0.017790379
26	0xbf531349	-0.824513
27	0xbf2ab438	-0.6668124
28	0xbde702e5	-0.11279849
29	0x3e41f6d8	0.1894182
30	0xbd5b51c8	-0.05354479
31	0x3ec6b265	0.3880798
32	0x3ea24551	0.3169351
33	0x3f23565e	0.6380366
34	0x3f0936fe	0.53599536
35	0x3e03e52a	0.12880388
36	0xbe68e8d4	-0.22745067
37	0xbe44b604	-0.19210058
38	0x3ef79a33	0.48359832
39	0xbec700ab	-0.38867697
40	0xbf2e5c48	-0.6810956
41	0x3dbd3741	0.092390545
42	0x3f2e30ec	0.680434
43	0xbf2b8a0b	-0.6700751
44	0xbf23e93f	-0.6402778
45	0xbe6faabc	-0.23404974
46	0x3df6fcb8	0.12059921
47	0xbed420eb	-0.41431364
48	0x3d28302c	0.041061565
49	0xbed7fa59	-0.42183188
50	0xbed0ab52	-0.40755707
51	0xbe911572	-0.28336674
52	0x3f249ba0	0.64299965
53	0xbd6bb920	-0.057549596
54	0x3b4d1dd8	0.0031298306
55	0xbcc8ac2e	-0.024496164
56	0x3dc7f3c1	0.09763289
57	0xbe6353ef	-0.22199987
58	0x3ef6a309	0.4817126
59	0x3e800b45	0.25008598
60	0x3f1ba0ad	0.60792047
61	0xbe31f649	-0.17379107
62	0x3eafcdf7	0.34336826
63	0x3ea3b682	0.3197518

dynamics.0.bias f4 [32]
0	0x3e92f57b	0.28702912
1	0xbf02afad	-0.5104931
2	0xbeb5af65	-0.35485378
3	0x3f4ba604	0.79550195
4	0x3f278a87	0.6544575
5	0xbf3ed414	-0.74542356
6	0xbe137ef1	-0.14403893
7	0x3f1286c9	0.57236916
8	0xbf1ce0a9	-0.61280304
9	0xbe35d2cd	-0.17756195
10	0xbf05a4f1	-0.52204806
11	0xbdaa2459	-0.08307714
12	0x3cab6b90	0.020925313
13	0x3ed9cb9e	0.4253816
14	0x3f3d421c	0.73929
15	0xbd737b18	-0.059443563
16	0xbf0816e2	-0.53159916
17	0x3f29c230	0.6631193
18	0xbe8e9619	-0.2784889
19	0xbed4faf5	-0.41597715
20	0x3e97ac62	0.29623705
21	0x3f4a0afa	0.78923
22	0xbe0953ef	-0.13410924
23	0x3f5da15a	0.8657433
24	0xbebe5d97	-0.37180778
25	0x3e190078	0.14941585
26	0xbf083a96	-0.53214395
27	0xbddc5241	-0.10757876
28	0x3f42afdb	0.76049584
29	0x3ecef5e2	0.4042197
30	0x3f0da442	0.5532876
31	0xbe79a6aa	-0.24379984

dynamics.2.weight f4 [32, 32]
0	0xbd7694d3	-0.060200524
1	0xbe163a92	-0.1467078
2	0xbe16a073	-0.14709644
3	0x3e1e53d2	0.15461662
4	0xbdb27101	-0.0871296
5	0xbc9333f9	-0.017969118
6	0xbe16b241	-0.14716436
7	0x3db0554b	0.08610018
8	0x3e27d8bc	0.16391271
9	0x3c62473d	0.01381093
10	0xbd1daf77	-0.038497414
11	0xbe261396	-0.16218409
12	0xbb31138e	-0.0027019712
13	0xbe028e34	-0.12749559
14	0xbe3cdd5a	-0.18443814
15	0x3d9bcc04	0.07607272
16	0xbdd5a5fe	-0.10432051
17	0xbd855779	-0.06510825
18	0xbe05f47e	-0.13081548
19	0xbe0b39b7	-0.13596235
20	0xbe2c7264	-0.16840512
21	0xbc7ced4d	-0.015437436
22	0xbd30f0cc	-0.04319839
23	0x3ceb448c	0.02871921
24	0x3e0ec874	0.13943654
25	0xbe1e562d	-0.15462561
26	0xbc86fde6	-0.01647849
27	0x3d904022	0.07043482
28	0xbcb9c354	-0.022676148
29	0xbe31a12f	-0.17346643
30	0xbd647c67	-0.0557827
31	0xbe240ef7	-0.16021334
32	0x3efb0e9f	0.49034593
33	0xbe42f465	-0.19038542
34	0xbf0f81cc	-0.5605743
35	0x3ebbc7d2	0.36675888
36	0x3ee4340a	0.44570953
37	0xbf648907	-0.8927159
38	0xbe56a4fd	-0.20961376
39	0xbbfd313c	-0.0077268165
40	0xbecb1538	-0.39664626
41	0xbe68fbb4	-0.22752267
42	0xbe4aa167	-0.19788133
43	0xbd8ea169	-0.0696438
44	0xbe5395a7	-0.20662557
45	0xbe5a9fc9	-0.21350016
46	0x3dad6eb8	0.084683836
47	0xbd405872	-0.046959348
48	0xbe98c8be	-0.29840654
49	0x3e23dc3d	0.16001983
50	0x3f2061b4	0.62649083
51	0xbe441f4a	-0.19152561
52	0x3e8f3742	0.27971846
53	0x3e8af794	0.27142012
54	0xbee0d165	-0.43909755
55	0x3ec33da6	0.38132972
56	0x3d5773a7	0.05260053
57	0xbe538862	-0.20657495
58	0xbea80f2a	-0.3282407
59	0xbcd98159	-0.026550936
60	0x3ee4ef50	0.4471383
61	0xbd5af581	-0.053456787
62	0x3e71b6d7	0.23604904
63	0xbf1d1ca4	-0.6137183
64	0x3d4a9374	0.04945703
65	0xbe2f5ac6	-0.17124471
66	0xbd2f92ab	-0.042864483
67	0xbd969c83	-0.07354071
68	0xbe299b39	-0.16563119
69	0x3e0d4337	0.13795172
70	0x3e23acdf	0.15983914
71	0xbda6862d	-0.08131061
72	0x3d9c36b3	0.076276205
73	0xbe283aff	-0.16428755
74	0x3d83144b	0.06400355
75	0xbd6d4a92	-0.057932444
76	0x3dce20b4	0.100648314
77	0xbdbbc5ac	-0.09168562
78	0xbd016b55	-0.0315965
79	0x3def0a64	0.11671904
80	0xbe0554bc	-0.13020605
81	0x3d556fee	0.052108698
82	0xbd0ed242	-0.034868486
83	0x3e00e10b	0.12585847
84	0xbdb11873	-0.086472414
85	0x3df7eb38	0.12105411
86	0x3d75e08c	0.060028598
87	0xbdd4751b	-0.103738986
88	0xbdc97483	-0.09836676
89	0x3dba2308	0.09088713
90	0xbda979c6	-0.082751796
91	0x3e061fef	0.13098119
92	0xbdd93eb6	-0.10607664
93	0x3dbbcb07	0.09169584
94	0xbe294fba	-0.1653432
95	0x3e2e953b	0.17049114
96	0x3f1a458e	0.6026238
97	0x3d256e80	0.040388584
98	0xbe11c496	-0.14235148
99	0x3e29f9ca	0.16599193
100	0xbcd7ca38	-0.026341543
101	0xbccd5bfd	-0.025068277
102	0xbe8527b6	-0.2600686
103	0x3e3a9ae3	0.18223147
104	0xbce54957	-0.027989073
105	0xbf85df14	-1.0458703
106	0xbe752b3d	-0.23942275
107	0x3c059180	0.008152366
108	0x3d1599fd	0.036523808
109	0xbd95e802	-0.073196426
110	0x3e6c8d91	0.23100878
111	0xbd3a9a1d	-0.04555713
112	0xbd34310d	-0.04399209
113	0xbe81ee0e	-0.25376934
114	0xbe942b14	-0.28939116
115	0xbdd85e44	-0.10564855
116	0x3e7ecf6f	0.24883817
117	0xbed7cf06	-0.42150134
118	0xbe0aa275	-0.13538535
119	0x3bd71be6	0.006564605
120	0xbd1e442e	-0.03863924
121	0x3c22a1e5	0.009926294
122	0xbe154bb4	-0.1457966
123	0x3d27805f	0.04089391
124	0x3e90e57b	0.2830008
125	0xbdd28dbd	-0.10280941
126	0xbf01d477	-0.5071482
127	0xbf7b089f	-0.9806003
128	0x3e1f858d	0.1557829
129	0x3e0dd62f	0.13851236
130	0x3e3d9509	0.18513884
131	0x3e99a86e	0.30011314
132	0xbeb4bb75	-0.35299268
133	0xbde04110	-0.1094991
134	0x3e006b07	0.12540828
135	0x3d94fe45	0.072750606
136	0x3e84a1d2	0.2590471
137	0x3c6359ed	0.01387642
138	0x3dc3511e	0.09536956
139	0x3d939441	0.072060116
140	0x3e934ec2	0.28771025
141	0xbdf42098	-0.11920279
142	0x3d2452c8	0.04011801
143	0x3d1244fc	0.03571032
144	0xbd428fef	-0.047500547
145	0xbd33ef63	-0.04392947
146	0x3d36a7d1	0.044593636
147	0x3e63046b	0.22169654
148	0xbe2cb984	-0.16867644
149	0xbe95245a	-0.29129297
150	0xbd8af4ca	-0.06784971
151	0xbe850d31	-0.25986627
152	0x3ca6c1fb	0.020356169
153	0xbde28c41	-0.110619076
154	0xbea34564	-0.31888878
155	0xbbc5f3b1	-0.006041013
156	0x3d962e99	0.073331065
157	0x3e1d9f6f	0.1539285
158	0x3dbb3d07	0.091424994
159	0xbddff185	-0.10934738
160	0x3e3d725c	0.18500656
161	0x3d9d15bc	0.07670161
162	0xbe9fd7e9	-0.31219414
163	0x3e97dea2	0.29662043
164	0xbf19424f	-0.59866804
165	0xbf081071	-0.5315009
166	0x3ce5af33	0.028037643
167	0xbe5134f0	-0.2043035
168	0xbc3c2e7a	-0.01148569
169	0x3d6a8c7b	0.05726288
170	0xbe33f1ca	-0.17572704
171	0xbddf1ec7	-0.10894542
172	0x3ede091e	0.4336633
173	0xbe3c185d	-0.18368669
174	0x3e256b09	0.16154112
175	0x3e247a32	0.16062239
176	0x3de87faa	0.11352475
177	0x3dab56e4	0.083661824
178	0xbedde92c	-0.4334196
179	0xbe42f10e	-0.19037268
180	0x3e6c81dc	0.23096412
181	0xbec28df8	-0.3799894
182	0x3e27a753	0.16372423
183	0xbcf3d4e2	-0.029764596
184	0xbd1c0a79	-0.038095925
185	0x3edf2d0f	0.43589064
186	0x3de667fb	0.112503015
187	0xbd7866ea	-0.06064502
188	0xbe785caf	-0.24254106
189	0x3c1bfb8a	0.009520421
190	0xbea110d7	-0.3145816
191	0xbe4146ec	-0.18874711
192	0x3e0f6f7d	0.14007373
193	0xbf0a6a5e	-0.54068553
194	0xbd8a063d	-0.06739471
195	0x3e0330a2	0.1281152
196	0x3efbb40b	0.491608
197	0xbd206b00	-0.039164543
198	0x3dc97214	0.09836212
199	0x3e4ac002	0.19799808
200	0xbd4a5c18	-0.049404234
201	0x3d019daf	0.03164452
202	0xbe8e20f9	-0.2775953
203	0xbc111ebf	-0.008857428
204	0xbf014768	-0.5049958
205	0x3e5259c0	0.2054205
206	0x3e1772b9	0.14789857
207	0x3c2641ab	0.010147492
208	0xbdacbd34	-0.08434525
209	0x3e76f52f	0.24116968
210	0xbd1d68f4	-0.03843017
211	0xbe934e07	-0.28770468
212	0x3e5b1eb3	0.2139843
213	0x3e213fd8	0.1574701
214	0xbe8f3169	-0.27967384
215	0x3ea8428f	0.3286328
216	0x3e087184	0.13324553
217	0x3d34baf0	0.04412359
218	0xbf15ce8a	-0.5851828
219	0x3e1b82eb	0.1518666
220	0x3ebe5f14	0.37181914
221	0x3c353c4e	0.011061741
222	0xbc8aed0d	-0.016958738
223	0xbe81e216	-0.25367802
224	0x3ebee69e	0.37285322
225	0xbf06ea91	-0.5270167
226	0xbe57273a	-0.21011057
227	0x3e029637	0.12752615
228	0x3dfa1b08	0.12212187
229	0x3d2e830c	0.042605445
230	0xbe113df3	-0.14183788
231	0xbd6bec0d	-0.057598162
232	0xbebf94db	-0.37418255
233	0x3dbad132	0.09121932
234	0xbebbc528	-0.36673856
235	0xbd0c9d1c	-0.03432952
236	0x3e0ac7fa	0.13552848
237	0xbe89459e	-0.26810926
238	0x3d98dbe2	0.07463814
239	0xbe4df44b	-0.20112722
240	0xbe81e831	-0.2537246
241	0x3cd34fda	0.025794912
242	0xbed2052b	-0.41019568
243	0xbe8c8188	-0.27442575
244	0x3e3d9739	0.18514718
245	0xbd2d3dce	-0.04229527
246	0xbd4263ab	-0.047458332
247	0x3e083543	0.13301568
248	0x3d9afe94	0.07568088
249	0xbe322d8f	-0.17400192
250	0xbf01eae0	-0.50749016
251	0xbdfdaa47	-0.123859935
252	0x3e89322b	0.26796088
253	0x3df958b8	0.12175125
254	0x3d9feb6f	0.07808577
255	0xbf15f5af	-0.5857801

dynamics.2.bias f4 [32]
0	0x3dffd942	0.124926105
1	0x3eada398	0.33913875
2	0xbdfd621e	-0.1237223
3	0x3e863a25	0.26216236
4	0x3e26ce84	0.16289717
5	0x3dc184a5	0.09449128
6	0x3dfbe384	0.122992545
7	0x3ecd69b4	0.40119708
8	0xbe3aa716	-0.182278
9	0xbdcef0c3	-0.101045154
10	0x3e46677c	0.19375414
11	0x3d9e523b	0.07730528
12	0x3ecb9994	0.39765608
13	0xbbe35b1c	-0.0069383513
14	0x3e9a263e	0.301073
15	0x3d9e92f1	0.077428706
16	0xbde6e521	-0.112741716
17	0x3e42c77b	0.19021408
18	0x3ccaacb6	0.024740558
19	0x3eb34385	0.3501245
20	0x3e219883	0.15780835
21	0x3e86e73e	0.263483
22	0xbe5e3e4d	-0.21703453
23	0x3e92d866	0.28680724
24	0xbe09e71a	-0.13467064
25	0x3e3c88eb	0.18411605
26	0x3e43d2b5	0.19123347
27	0x3e07b1b0	0.13251376
28	0xbd911cb7	-0.07085555
29	0x3ddc9fed	0.10772691
30	0x3e0b2ab6	0.13590512
31	0x3dfdbb13	0.12389197

dynamics.4.weight f4 [32, 32]
0	0x3d976872	0.07392968
1	0x3e376597	0.17909847
2	0x3d7020ba	0.05862496
3	0x3e98bcf2	0.29831654
4	0x3b73cbbd	0.0037200295
5	0xbe315f19	-0.17321433
6	0x3e5a9775	0.21346839
7	0x3dc22fbc	0.09481761
8	0xbe9da624	-0.30790818
9	0xbd9ee246	-0.07758002
10	0x3e12d11e	0.14337584
11	0x3e2f159a	0.17098084
12	0x3e46864b	0.19387166
13	0xbe61e54d	-0.22060128
14	0xbe25129a	-0.16120377
15	0x3ec58b80	0.38582993
16	0x3e51e579	0.20497693
17	0xbe4b79b4	-0.19870645
18	0x3e3f293a	0.1866807
19	0x3e849a9d	0.2589921
20	0x3d65e222	0.05612386
21	0x3e5dbca3	0.2165399
22	0x3cf79ee2	0.030227128
23	0x3c743e62	0.014907451
24	0xbe406dc6	-0.18791875
25	0x3e651d3c	0.22374433
26	0xbca8d0a9	-0.02060731
27	0xbcbe1539	-0.02320348
28	0xbdcae788	-0.09907442
29	0xbdce3f0e	-0.100706205
30	0x3de54dd3	0.111964844
31	0xbe3a3666	-0.18184814
32	0x3e0a96f7	0.13534151
33	0x3e11acd7	0.1422609
34	0xbda6d0f1	-0.08145321
35	0x3f44d21c	0.768831
36	0xbe6bec42	-0.23039344
37	0x3de037c5	0.10948137
38	0xbeb5b647	-0.3549063
39	0x3eb8c828	0.36090207
40	0x3eca6af2	0.39534718
41	0x3e18a80f	0.1490786
42	0xbe932453	-0.2873865
43	0x3d9f7a73	0.07787027
44	0x3f1a2814	0.60217404
45	0xbd39150d	-0.04518609
46	0x3f09ddde	0.5385417
47	0x3f1bd581	0.60872656
48	0xbd84c095	-0.064820446
49	0xbc62e111	-0.013847605
50	0xbce22753	-0.027606642
51	0x3f555311	0.83329874
52	0x3d024a7e	0.031809323
53	0xbeffad12	-0.4993673
54	0x3e378972	0.17923525
55	0x3e4f29d0	0.20230794
56	0xbd0ec6b5	-0.03485747
57	0xbcda1d4b	-0.026625296
58	0xbddcd887	-0.10783487
59	0xbdc86590	-0.097849965
60	0x3e1b7fef	0.15185522
61	0x3eadb867	0.3392975
62	0x3e0c18a9	0.13681282
63	0xbcd6c314	-0.026216067
64	0x3deafbcf	0.1147381
65	0x3edb0d92	0.4278379
66	0x3e137381	0.1439953
67	0x3e4f5aba	0.20249453
68	0x3df076b6	0.11741392
69	0x3d3343e7	0.04376593
70	0xbd915247	-0.07095771
71	0xbd00b342	-0.031420954
72	0x3dc397d6	0.09550445
73	0xbd9ec8aa	-0.077531174
74	0xbcbec328	-0.023286417
75	0xbce831e1	-0.028344097
76	0x3eb824cd	0.35965577
77	0xbd0d7da0	-0.034543633
78	0xbc490115	-0.012268324
79	0x3e58cfbf	0.21172999
80	0xbdf047cd	-0.11732445
81	0x3cecdd49	0.02891411
82	0x3d88c67f	0.06678485
83	0x3e9f3fed	0.3110346
84	0x3d7fdd93	0.06246717
85	0xbd45c5d9	-0.048284385
86	0xbddbf90d	-0.10740862
87	0xbe17955b	-0.14803068
88	0xbe0cb385	-0.13740356
89	0x3e5c8959	0.21536769
90	0x3d5ff40b	0.054676097
91	0x3d1986b1	0.037481967
92	0xbe079f9e	-0.13244483
93	0xbe3162e3	-0.17322879
94	0x3d6663fb	0.056247693
95	0x3dcb534b	0.09927996
96	0xbdf8be89	-0.12145717
97	0xc0491a87	-3.142244
98	0x3c1054e4	0.008809302
99	0x3e00e9b9	0.12589158
100	0x3d9a2ab0	0.07527673
101	0x3d70c2d0	0.058779538
102	0xbef9e348	-0.48806214
103	0xbdfd1317	-0.12357157
104	0xbdce71bc	-0.10080287
105	0xbdb51827	-0.08842497
106	0x3dd28535	0.102793135
107	0x3dd9b475	0.106301226
108	0xc0595c71	-3.3962672
109	0x3e2cb032	0.16864088
110	0xbd5a1173	-0.053239297
111	0x3eb54320	0.35402775
112	0xbd9f6156	-0.07782237
113	0xbdf29810	-0.1184541
114	0x3e7c9614	0.24666625
115	0xc057afd8	-3.3701077
116	0x3d0b59b1	0.034021083
117	0x3e107004	0.1410523
118	0xbe0209be	-0.12699029
119	0x3dd10fba	0.10208078
120	0x3dcd12c2	0.100133434
121	0xbdfc184c	-0.12309322
122	0x3ec13cdf	0.37741753
123	0x3de0a225	0.109684266
124	0xbe0efb7a	-0.13963118
125	0xbf2b9627	-0.6702599
126	0xbe84508e	-0.25842708
127	0xbe036b20	-0.12833834
128	0xbd706df4	-0.05869861
129	0xbe81dae7	-0.25362322
130	0x3e1ff5c8	0.15621102
131	0x3d0ae479	0.033909295
132	0xbdd1a285	-0.10236076
133	0xbe2663f5	-0.16249068
134	0xbdf8e14b	-0.12152346
135	0x3d31e529	0.043431435
136	0xbe1dfa6b	-0.15427558
137	0xbdf2fb36	-0.11864321
138	0x3d83d77e	0.06437586
139	0xbdf0dcb0	-0.11760843
140	0xbe7c0f3d	-0.24615188
141	0xbe3c1209	-0.18366255
142	0xbda81b50	-0.082083344
143	0xbe015a96	-0.12632212
144	0x3cf8aa0a	0.030354518
145	0xbbc92a3e	-0.006139069
146	0xbe004930	-0.12527919
147	0x3d3ddf6b	0.046355646
148	0x3d36c6c2	0.044623144
149	0x3dbc5e1a	0.09197636
150	0x3dd09a2e	0.101856574
151	0x3d980160	0.07422137
152	0xbc65f8cc	-0.014036369
153	0x3d913d61	0.07091785
154	0x3ce42d48	0.027853623
155	0xbe1e5393	-0.15461569
156	0x3d5e2998	0.054238886
157	0x3d93ceb1	0.07217158
158	0xbe7e81bc	-0.24854177
159	0x3e137d13	0.14403181
160	0x3dc6eb1d	0.09712813
161	0x3f13c8ad	0.5772808
162	0xbde349c8	-0.11098057
163	0xbdd12e90	-0.10213959
164	0x3d2116d0	0.039328396
165	0xbe10f00a	-0.14154068
166	0x3f38452e	0.7198056
167	0x3ce73ab5	0.028226236
168	0xbd0f92b8	-0.03505203
169	0x3e158c32	0.14604262
170	0xbe245477	-0.16047846
171	0xbb78c81d	-0.0037961074
172	0xbe98f788	-0.2987635
173	0xbe693000	-0.22772217
174	0xbf7a824f	-0.97855085
175	0x3f521b18	0.8207259
176	0x3d57698b	0.052590888
177	0xbf5df059	-0.86694866
178	0x3d2f66a5	0.0428225
179	0xbfdd3fe5	-1.7285124
180	0xbe34a13c	-0.17639631
181	0x3f0ef6a8	0.5584512
182	0x3deaf0cd	0.1147171
183	0x3ef5bf34	0.4799744
184	0x3e576a12	0.21036556
185	0xbe24f33c	-0.16108412
186	0x3e867740	0.26262856
187	0xbd401b61	-0.04690111
188	0xbc0859b5	-0.008322169
189	0xbe741d90	-0.23839402
190	0xbcc47d1b	-0.023985436
191	0x3d8a7d1e	0.067621455
192	0x3d4c0441	0.049808744
193	0xbd0ec665	-0.034857173
194	0x3d0e38dc	0.034722194
195	0xbd9bb827	-0.07603484
196	0xbe393126	-0.18085155
197	0x3c364ac0	0.01112622
198	0x3df4a483	0.119454406
199	0x3e0b9efa	0.13634863
200	0xbc23ba19	-0.0099931
201	0x3dfee1de	0.124454245
202	0xbe2cebe1	-0.16886856
203	0x3da03dc5	0.078242816
204	0xbdd34f8c	-0.10317907
205	0x3dbef3a9	0.09323818
206	0x3e09e80e	0.13467428
207	0x3d4fbff3	0.050720166
208	0xbcf5adb0	-0.029990047
209	0x3c952f57	0.01821105
210	0xbcb9cefc	-0.022681706
211	0xbe0276b1	-0.1274059
212	0xbccb387f	-0.024807213
213	0xbe498259	-0.1967863
214	0xbdbd2606	-0.09235768
215	0xbd86973c	-0.065718144
216	0xbdb5ffe5	-0.08886699
217	0x3ca51d8b	0.020155689
218	0xbe06edd8	-0.13176668
219	0xbdd6d3a7	-0.10489588
220	0xbdf6b149	-0.12045533
221	0x3cda8150	0.02667299
222	0x3db2eb79	0.08736319
223	0xbe015c35	-0.1263283
224	0x3de053d6	0.109534904
225	0x3ec9556b	0.3932298
226	0xbdd7a924	-0.10530308
227	0x3c0c8b70	0.008578166
228	0x3d026171	0.03183121
229	0x3e12ac4e	0.14323542
230	0xbe1e5c13	-0.15464811
231	0xbcdec7e5	-0.027194927
232	0x3ea4634b	0.32107005
233	0xbd8a2b3b	-0.06746527
234	0x3e872895	0.2639815
235	0x3da7416b	0.08166774
236	0x3e9961e8	0.2995751
237	0x3db285f8	0.08716959
238	0x3d485789	0.048911605
239	0x3e2515fb	0.16121666
240	0x3d0ce01b	0.03439341
241	0xbc796039	-0.015220695
242	0xbdf693bb	-0.12039896
243	0x3e4b07b8	0.19827163
244	0x3d21dcec	0.03951733
245	0xbdb125d2	-0.08649792
246	0xbdd6b9c6	-0.10484652
247	0x3dec0179	0.115237184
248	0xbdc01b56	-0.09380214
249	0xbdb1ec82	-0.086876884
250	0x3e5123e3	0.20423846
251	0x3ea1dbe3	0.31613073
252	0x3de5ebf7	0.11226647
253	0x3d84e45e	0.0648887
254	0xbd43e0cd	-0.04782181
255	0xbdf3c35a	-0.11902495

dynamics.4.bias f4 [32]
0	0x3e9bf53a	0.3046053
1	0xbeba4261	-0.36378768
2	0x3ea2e725	0.31816974
3	0x3ed9edc2	0.42564207
4	0x3c9bb29b	0.019006064
5	0x3e2694aa	0.16267648
6	0xbe097843	-0.13424782
7	0x3e5320a1	0.20617916
8	0x3e2c9d0a	0.1685678
9	0x3e282487	0.16420184
10	0x3da8f551	0.082499154
11	0x3d5c829e	0.053835504
12	0x3e0c3943	0.13693719
13	0x3e66c7fc	0.22537225
14	0xbd0bd220	-0.034135938
15	0x3e17e3ea	0.14833036
16	0x3eaef3e5	0.34170452
17	0x3e89edc4	0.26939213
18	0x3d84c08c	0.06482038
19	0x3e6410a6	0.22271976
20	0xbd9a2ea0	-0.07528424
21	0x3e89ed17	0.26938698
22	0x3e0eeff8	0.13958728
23	0x3ea55926	0.32294577
24	0xbc73d058	-0.014881216
25	0x3e0c547b	0.13704102
26	0xbe8f18fd	-0.27948752
27	0x3d0c74e3	0.03429116
28	0xbe13c8aa	-0.14432016
29	0x3e45853e	0.19289109
30	0xbe1c85da	-0.15285435
31	0x3db08717	0.08619516

dynamics.6.weight f4 [2, 32]
0	0x3e9460a5	0.28979984
1	0xbe80c84d	-0.25152817
2	0x3e5d83c4	0.21632296
3	0xbf1377dc	-0.57604766
4	0x3d12c26f	0.035829958
5	0x3ec11338	0.37709975
6	0xbcf4f283	-0.029900795
7	0x3e35cdb6	0.17754254
8	0xbead6c9d	-0.33871928
9	0x3dfaf0f7	0.12252992
10	0x3e3c2a9e	0.18375632
11	0x3d8894a6	0.066689774
12	0x3de7e70e	0.11323367
13	0xbf34f342	-0.7068368
14	0xbee2a5cd	-0.4426712
15	0xbe266c8b	-0.16252343
16	0x3e8922fc	0.26784503
17	0x3e875750	0.26433802
18	0x3bb0eece	0.0053995615
19	0x3e22c21d	0.15894361
20	0xbe95c2af	-0.29250094
21	0x3d044253	0.032289814
22	0x3e1fda0a	0.15610519
23	0x3d172661	0.036901835
24	0xbe3a77d7	-0.18209778
25	0x3e2ee85e	0.17080829
26	0x3d83eb73	0.06441393
27	0xbd657d75	-0.05602785
28	0x3d4d61dd	0.050142158
29	0xbe791f4b	-0.24328344
30	0x3d4e9b35	0.050440986
31	0xbe90d4b7	-0.2828729
32	0x3e0c85c3	0.13722901
33	0x3eca5c83	0.39523706
34	0x3dcb03d0	0.099128366
35	0xbf173095	-0.59058505
36	0xbcf91ce0	-0.030409276
37	0xbe6c22ce	-0.23060152
38	0xbc734056	-0.014846882
39	0x3df8db68	0.121512234
40	0x3dc330ce	0.09530793
41	0x3e6f2b93	0.23356466
42	0x3e825bd3	0.2546068
43	0xbecbaac5	-0.39778724
44	0xbe22734c	-0.15864295
45	0x3e2f1389	0.17097296
46	0xbe182807	-0.14859019
47	0x3ceb88ab	0.028751692
48	0x3e8d53e8	0.27603078
49	0xbc954182	-0.018219713
50	0xbca66990	-0.020314008
51	0x3da5e690	0.08100617
52	0xbe609176	-0.21930489
53	0x3e823785	0.25432983
54	0xbd01ab7a	-0.031657673
55	0x3e5f3b5d	0.21799989
56	0x3e942593	0.28934917
57	0xbe03b648	-0.12862504
58	0x3eb98e74	0.36241496
59	0x3e09b5f4	0.13448316
60	0xbcd07b27	-0.025449349
61	0x3e415aae	0.18882248
62	0x3c85ad22	0.016317908
63	0x3e2a879b	0.16653292

dynamics.6.bias f4 [2]
0	0x3e8a9175	0.270641
1	0x3ee1105b	0.4395779
