examples/multiple_run_001/tanh_activation/run_tanh_activation_007/models/latent_dynamics.pt (torch, 12925 bytes, 8 tensors)

dynamics.0.weight f4 [32, 2]
0.19981237 0.7005537 0.085927345 0.62195414 0.25358564 -0.74299383 -0.39179632 -0.42447665
-0.7165061 0.31902048 0.681554 0.32355863 0.6981723 -0.05677347 0.42778453 0.19475417
0.6084512 -0.29696846 -0.37850556 0.09222237 -0.26148215 0.036788803 -0.55856645 0.36549038
-0.09283151 0.63047916 -0.50791246 0.4861073 -0.031553797 0.34907374 -0.732264 0.45422694
0.5650484 0.28058857 -0.5266944 0.29225418 -0.45199597 -0.13389911 -0.63400537 0.40600273
-0.5232329 0.38512135 -0.59116447 0.09641137 -0.27222252 0.6335601 0.16532472 -0.48454747
-0.5419187 0.7133457 -0.64129627 -0.64414656 0.103377216 0.31184494 -0.3147717 -0.43959796
-0.029199252 0.21489902 -0.59250623 0.06734008 -0.39708006 0.3820864 -0.30375877 -0.6840778
00000000: 9d9b 4c3e 7d57 333f adfa af3d 6338 1f3f
00000010: fad5 813e d834 3ebf 8799 c8be 0155 d9be
00000020: f26c 37bf a756 a33e 537a 2e3f 7aa9 a53e
00000030: 6bbb 323f 4c8b 68bd 9306 db3e a36d 473e
00000040: 75c3 1b3f 400c 98be 7bcb c1be 15df bc3d
00000050: fde0 85be dbaf 163d 36fe 0ebf 8e21 bb3e
00000060: 721e bebd 1567 213f 8d06 02bf 0ee3 f83e
00000070: 8e3e 01bd cbb9 b23e a775 3bbf 6f90 e83e
00000080: 03a7 103f 4ea9 8f3e 72d5 06bf 57a2 953e
00000090: 046c e7be d91c 09be 2d4e 22bf 97df cf3e
000000a0: 97f2 05bf a02e c53e 8e56 17bf 5373 c53d
000000b0: c060 8bbe ff30 223f e24a 293e 9b16 f8be
000000c0: 2fbb 0abf d39d 363f fe2b 24bf cae6 24bf
000000d0: 6fb7 d33d 24aa 9f3e c229 a1be fc12 e1be
000000e0: 4533 efbc 7d0e 5c3e 7dae 17bf 99e9 893d
000000f0: 144e cbbe d4a0 c33e 4586 9bbe b91f 2fbf

dynamics.0.bias f4 [32]
0.42048687 0.5561377 0.21158566 -0.48937565 0.43614817 0.14742906 -0.2829933 -0.4439543
-0.014122637 0.10380604 -0.37923473 -0.23664732 -0.19101597 0.6874452 0.6001954 0.7870213
0.05075447 -0.46774268 -0.18855266 0.24586017 0.7808367 -0.04420083 -0.56147593 0.64371186
0.60040075 0.002371226 0.20072696 -0.24928409 -0.391898 0.34570646 0.40169072 0.73310673
00000000: 0e4a d73e 0a5f 0e3f e9a9 583e 728f fabe
00000010: d04e df3e a5f7 163e 7fe4 90be fa4d e3be
00000020: a262 67bc 4398 d43d 0e2b c2be ad53 72be
00000030: b199 43be 69fc 2f3f 68a6 193f 3a7a 493f
00000040: ebe3 4f3d f87b efbe f313 41be c5c2 7b3e
00000050: eae4 473f ee0b 35bd e3bc 0fbf 4dca 243f
00000060: ddb3 193f 9266 1b3b 5e8b 4d3e 5444 7fbe
00000070: dba6 c8be 7000 b13e 68aa cd3e e2ac 3b3f

dynamics.2.weight f4 [32, 32]
-0.026739396 0.1756539 -0.0065455735 0.24430048 0.06658088 0.13494883 0.1635475 0.12719443
0.19527899 0.097708754 -0.047231823 -0.04249571 -0.09418744 0.1857667 -0.021459324 0.17811847
0.108514905 -0.12741068 0.0826818 0.16628696 0.17550959 0.19774391 -0.1709104 0.06768876
0.01096374 0.21401782 -0.025451643 0.087123744 -0.081576064 -0.0016528621 0.2523892 0.16612756
-0.14994591 0.03411167 0.23015483 0.2695673 0.08504943 -0.14111443 0.182659 -0.014640298
-0.05286781 0.20212784 -0.11093261 -0.07273999 0.0003118867 -0.079530716 0.19609806 -0.09774859
-0.05235426 -0.12937118 0.13551736 0.17505889 -0.0551257 0.2361558 0.11289819 0.1403687
0.036797438 -0.0035255428 0.13120815 0.09400211 -0.032057777 -0.03380894 0.1802184 0.13953921
-0.12887958 0.18224475 -0.1342742 0.17257364 0.084670424 -0.15409411 -0.048089486 0.1395228
-0.009139137 0.09018808 0.073289916 -0.04818609 -0.12560456 0.007054662 0.0059484094 -0.15361218
0.06289434 -0.13928305 -0.03680802 0.0066779153 0.06443639 0.089583464 -0.12893115 0.12041597
-0.08606046 -0.022635395 0.018522823 -0.07651246 -0.16781285 -0.15479374 -0.11802875 0.156129
0.09194471 0.15671407 -0.062213838 -0.13517523 -0.09851155 -0.008119611 0.049389806 0.12421685
-0.009723541 0.052978273 -0.15853617 0.083037235 0.08929973 -0.1605075 0.13447136 -0.03414458
-0.16069071 -0.0680554 0.13889022 0.047044326 -0.028511021 0.14221281 -0.06632906 0.017717395
-0.16596454 -0.0065215486 0.005469748 -0.11002588 -0.1397709 -0.17095485 0.14384393 0.05876365
0.14244877 0.022601081 -0.10618773 0.12692071 -0.012821146 0.0060945535 0.016054777 -0.042615533
-0.104613364 -0.13248804 -0.038515624 0.017414214 -0.065967865 -0.017021284 0.13946003 -0.08535411
0.16610165 0.0036258511 0.074796334 -0.15840344 -0.15678509 -0.14523065 -0.01955559 0.058764994
0.12279482 0.02147273 -0.07425564 0.028245177 -0.028714795 -0.16006182 -0.055545956 0.12092978
-0.018651284 0.15365279 0.12115401 -0.007555858 0.18722077 0.06686363 -0.024672342 0.056790244
-0.10927356 0.045553926 -0.0045078793 0.043298587 -0.12055716 0.018039398 -0.0671905 0.17927325
-0.018620962 -0.0069087534 0.20117898 0.12782131 0.057503898 0.23136435 0.08031773 0.10673728
-0.046324544 0.13319223 0.05062327 0.08036747 0.008396474 0.16883072 0.23177995 0.103770256
0.17287415 0.09299548 -0.0916015 -0.020247325 0.07754076 -0.025526723 0.081155084 0.117335476
0.10455944 -0.11441434 0.121261455 0.04933725 -0.06740029 -0.10362515 -0.14939897 0.17197229
-0.1559919 -0.17641617 -0.05246425 0.10662219 -0.07453818 -0.1369167 -0.131184 -0.044204645
-0.11636349 0.004209037 -0.063589774 -0.0202233 -0.15293214 -0.13763422 -0.1209895 -0.12568259
-0.13246554 0.057947893 0.12695323 0.2492085 0.116495915 -0.053962678 -0.13957974 -0.058961608
0.0699866 0.15119575 0.07415202 0.0057543986 -0.1593119 0.016914293 -0.051543776 -0.05729463
-0.060089648 -0.106997505 0.12087696 0.020799544 0.18820801 0.0283753 0.032838188 0.15458359
-0.049252946 0.058719162 0.049761463 0.18690445 0.05138082 0.013414982 0.22980525 0.1637444
00000000: 940c dbbc 9ede 333e 407c d6bb e829 7a3e
00000010: 8e5b 883d 0730 0a3e ff78 273e 423f 023e
00000020: 37f7 473e 871b c83d 2876 41bd fb0f 2ebd
00000030: 58e5 c0bd a039 3e3e 77cb afbc b064 363e
00000040: 103d de3d f277 02be 1355 a93d 2147 2a3e
00000050: c9b8 333e 617d 4a3e 2303 2fbe 68a0 8a3d
00000060: 42a1 333c 7d27 5b3e f77f d0bc ef6d b23d
00000070: 5a11 a7bd d9a4 d8ba 2839 813e 581d 2a3e
00000080: 6c8b 19be aeb8 0b3d b5ad 6b3e ba04 8a3e
00000090: 652e ae3d 4d80 10be f60a 3b3e dcdd 6fbc
000000a0: eb8b 58bd 9afa 4e3e a330 e3bd b4f8 94bd
000000b0: b984 a339 00e1 a2bd eecd 483e 6a30 c8bd
000000c0: 6c71 56bd e179 04be 10c5 0a3e a342 333e
000000d0: 7ccb 61bd d3d2 713e 2b37 e73d d0bc 0f3e
000000e0: e9b8 163d cb0c 67bb 6e5b 063e 2e84 c03d
000000f0: 044f 03bd 3e7b 0abd 2c8b 383e 5ee3 0e3e
00000100: 02f9 03be 5e9e 3a3e 2d7f 09be 25b7 303e
00000110: b067 ad3d d9ca 1dbe 7bf9 44bd 11df 0e3e
00000120: 52bc 15bc 87b4 b83d 0619 963d c75e 45bd
00000130: 7b9e 00be cb2a e73b e0ea c23b 834c 1dbe
00000140: bfce 803d 37a0 0ebe 02c4 16bd 6ad2 da3b
00000150: 3af7 833d 8977 b73d 8706 04be a69c f63d
00000160: 7740 b0bd dd6d b9bc 2dbd 973c 91b2 9cbd
00000170: 22d7 2bbe 4082 1ebe 0fb9 f1bd 48e0 1f3e
00000180: 824d bc3d a779 203e f0d3 7ebd 606b 0abe
00000190: 6cc0 c9bd 1e08 05bc f74c 4a3d 6765 fe3d
000001a0: 7d4f 1fbc bfff 583d 4e57 22be 6d0f aa3d
000001b0: c7e2 b63d 145c 24be dcb2 093e 30db 0bbd
000001c0: 1b8c 24be a160 8bbd 3d39 0e3e 8db1 403d
000001d0: f28f e9bc 3ca0 113e 88d7 87bd 1224 913c
000001e0: 9cf2 29be b7b2 d5bb 923b b33b 4055 e1bd
000001f0: 1a20 0fbe ca0e 2fbe d34b 133e 27b2 703d
00000200: 17de 113e e725 b93c f478 d9bd 81f7 013e
00000210: c90f 52bc d2b4 c73b 4f85 833c a08d 2ebd
00000220: 883f d6bd f2aa 07be 8fc2 1dbd 41a8 8e3c
00000230: 291a 87bd 3870 8bbc 9cce 0e3e 23ce aebd
00000240: 8d16 2a3e b09f 6d3b d22e 993d 8334 22be
00000250: 458c 20be 58b7 14be 0b33 a0bc 90b3 703d
00000260: da7b fb3d 94e7 af3c 5713 98bd 6e62 e73c
00000270: 4a3b ebbc 3fe7 23be 2884 63bd 08aa f73d
00000280: 94ca 98bc 2857 1d3e 981f f83d 2297 f7bb
00000290: cdb6 3f3e cdef 883d a71d cabc e39c 683d
000002a0: d1ca dfbd c196 3a3d d5b6 93bb dc59 313d
000002b0: ace6 f6bd 5cc7 933c 2c9b 89bd 6893 373e
000002c0: fd8a 98bc d362 e2bb dd01 4e3e 97e3 023e
000002d0: 3589 6b3d c7ea 6c3e 9f7d a43d 1399 da3d
000002e0: cebe 3dbd 8b63 083e 595a 4f3d b397 a43d
000002f0: 5d91 093c f6e1 2c3e b957 6d3e 8085 d43d
00000300: ec05 313e 6a74 be3d 9199 bbbd b8dd a5bc
00000310: b1cd 9e3d 6b1d d1bc a334 a63d 954d f03d
00000320: 4223 d63d 1152 eabd ed57 f83d db15 4a3d
00000330: 2a09 8abd 6c39 d4bd 0bfc 18be 8119 303e
00000340: 57bc 1fbe 71a6 34be c1e4 56bd bc5c da3d
00000350: 79a7 98bd e433 0cbe 1955 06be ee0f 35bd
00000360: fb4f eebd f6eb 893b 5b3b 82bd 56ab a5bc
00000370: 3e9a 1cbe fcef 0cbe 58c9 f7bd f0b2 00be
00000380: 0ca5 07be c55a 6d3d 0700 023e 8330 7f3e
00000390: 6995 ee3d f807 5dbd feed 0ebe ba81 71bd
000003a0: 2255 8f3d 0fd3 1a3e 04dd 973d 658f bc3b
000003b0: a922 23be d88f 8a3c 911f 53bd c6ad 6abd
000003c0: 9020 76bd 8221 dbbd 578e f73d ce63 aa3c
000003d0: 9ab9 403e 5173 e83c 5681 063d 294b 1e3e
000003e0: 75bd 49bd 8183 703d add2 4b3d e163 3f3e
000003f0: b274 523d 83ca 5b3c 1152 6b3e 9dac 273e

dynamics.2.bias f4 [32]
0.06057608 0.045362968 -0.11328607 0.10613584 -0.087281 -0.07190248 -0.027671302 0.09655933
-0.028541112 0.1223492 0.04896434 -0.017248776 -0.1523456 0.19066778 0.2350855 -0.18853113
-0.17191699 -0.18816593 0.13963853 -0.13265182 0.24362218 -0.03718405 0.14739694 0.18606101
0.16544224 -0.084883414 -0.045711447 0.040880583 0.18348809 0.07446662 0.013478266 -0.039482355
00000000: a01e 783d 85ce 393d 8702 e8bd bf5d d93d
00000010: 62c0 b2bd 9c41 93bd edae e2bc e6c0 c53d
00000020: 0dcf e9bc 3892 fa3d d58e 483d 4e4d 8dbc
00000030: 7c00 1cbe 6a3e 433e 41ba 703e 4e0e 41be
00000040: 020b 30be 92ae 40be 67fd 0e3e e1d5 07be
00000050: 1878 793e 4d4e 18bd 39ef 163e c786 3e3e
00000060: b169 293e 5bd7 adbd ed3b 3bbd 6672 273d
00000070: 4de4 3b3e f581 983d f2d3 5c3c 40b8 21bd

dynamics.4.weight f4 [32, 32]
0.106314965 0.044473544 0.06661228 -0.041933417 0.0063598966 -0.02559143 0.016305035 0.12990966
0.0126677435 0.16371489 -0.046188865 0.01975594 -0.014030138 -0.065512165 0.21700582 0.034295827
0.10518742 0.13165584 0.1905778 -0.05979844 0.15285654 0.13180445 0.10065844 0.018270606
0.1412586 -0.15140311 0.12162936 -0.17268948 0.17995562 0.053058557 0.021696411 -0.072221
-0.13072479 -0.07196614 -0.11527898 -0.0034707186 0.15050524 -0.16277173 0.1272424 -0.03413408
-0.17386453 -0.10240013 0.006159591 0.027372586 -0.13053353 0.022228418 0.079954244 -0.16650335
-0.16375306 -0.17027166 -0.0791236 -0.17716031 0.09781626 -0.025302397 -0.15933438 0.0016105714
-0.022418743 0.052241903 0.12865172 0.06966168 0.1128233 -0.110556535 0.08978608 0.07024773
0.1354465 -0.002915508 0.11455924 -0.13549733 0.1410375 0.072274275 0.11570886 -0.13457924
0.14999299 -0.06988312 0.04576684 -0.022517186 -0.11164019 0.1258067 0.08910602 -0.04323917
0.06156464 0.106275365 -0.07584304 0.06583787 0.033216354 -0.17458227 -0.13116032 0.09138475
-0.17328316 0.13162713 -0.08383626 0.17479035 -0.059715994 -0.13402423 -0.054073226 0.010772186
0.2508167 0.115428 0.082330704 0.015818704 -0.08674223 -0.021368245 0.12899771 0.030913679
0.1715007 0.14662123 0.21606141 0.1382586 0.01915882 0.25022218 0.17328958 -0.1454237
-0.13185792 -0.08635954 0.13969216 0.06423508 0.03961561 0.16225205 0.25209257 0.054577105
0.17711799 -0.058746975 0.05872832 0.175898 0.26828396 -0.055263784 0.028981868 -0.0096946275
-0.10644499 -0.16674373 -0.12649165 0.13854131 -0.13002735 0.13404733 -0.03217971 0.017803349
3.68874e-05 -0.11343794 0.05350902 0.15574743 -0.17577393 0.09051747 -0.06009472 -0.15107507
0.09125785 0.1236612 0.04463434 -0.11009252 -0.08608845 -0.10503551 0.032313477 -0.03560144
-0.16320314 -0.16475652 -0.07188029 -0.100220144 -0.05586703 -0.0013363498 -0.023864578 0.11548671
-0.036214326 0.13179189 -0.07028851 0.072119586 -0.042664275 0.09024649 0.09830887 0.14240399
-0.14593714 -0.05743962 -0.16100511 -0.033807877 0.12695263 -0.034580458 0.03169498 -0.13285753
-0.06919728 0.031142956 0.123527445 0.0027486316 0.09969326 -0.017120637 0.07787981 -0.1422325
-0.03596332 0.022456873 0.12609038 -0.0019600638 -0.14010204 0.0014817846 -0.05821122 -0.16930982
-0.17528032 -0.16330487 -0.16968071 0.13440797 0.15022232 0.13113491 0.11127147 -0.028139248
-0.025357759 0.16427994 0.12643869 0.1329748 -0.014075678 -0.16009025 -0.12806435 -0.1222824
-0.08749359 0.043961965 -0.058459353 -0.13741839 -0.005190533 0.13534705 0.13500984 0.05919864
-0.18951531 0.12668724 -0.14932708 -0.080068186 -0.083972946 0.0048729116 -0.15161319 -0.09439946
-0.1393567 0.006286687 -0.09060188 0.16933103 0.13160823 0.013961418 0.13427126 -0.15581854
-0.08620655 -0.0098802745 0.14015484 0.01672762 -0.031000039 0.023718076 -0.019156206 -0.16452336
-0.13591796 -0.15909998 -0.17655991 -0.15082848 -0.16776724 0.0058293724 -0.11230717 0.09579382
-0.0641561 0.14735691 0.08296603 0.15526927 0.08165109 0.16116342 0.112093985 -0.05832576
00000000: a9bb d93d e429 363d 056c 883d 60c2 2bbd
00000010: ae66 d03b 1ea5 d1bc 2392 853c 0a07 053e
00000020: 5e8c 4f3c e0a4 273e 8930 3dbd 36d7 a13c
00000030: aade 65bc 3e2b 86bd c636 5e3e c879 0c3d
00000040: 816c d73d cad0 063e d426 433e 36ef 74bd
00000050: 6d86 1c3e bff7 063e 0326 ce3d 3dac 953c
00000060: 18a6 103e 6b09 1bbe d018 f93d 83d5 30be
00000070: 4946 383e ee53 593d acbc b13c 9be8 93bd
00000080: b8dc 05be fc62 93bd 6317 ecbd ff74 63bb
00000090: 0c1e 1a3e a2ad 26be d54b 023e 2dd0 0bbd
000000a0: 8b09 32be 29b7 d1bd 65d6 c93b 793c e03c
000000b0: 95aa 05be 5f18 b63c 0dbf a33d db7f 2abe
000000c0: e2ae 27be b25b 2ebe 8e0b a2bd 8369 35be
000000d0: e453 c83d f946 cfbc 8d28 23be cf19 d33a
000000e0: 83a7 b7bc 9bfb 553d 47bd 033e c8aa 8e3d
000000f0: e70f e73d 776b e2bd c4e1 b73d 0bde 8f3d
00000100: 7db2 0a3e 1c12 3fbb 099e ea3d d0bf 0abe
00000110: 226c 103e 8904 943d c4f8 ec3d 24cf 09be
00000120: c397 193e e21e 8fbd 0376 3b3d f675 b8bc
00000130: 9da3 e4bd 79d3 003e 387d b63d 8e1b 31bd
00000140: 342b 7c3d e6a6 d93d 9953 9bbd 01d6 863d
00000150: df0d 083d b2c5 32be e44e 06be ee27 bb3d
00000160: 2471 31be 43c9 063e 58b2 abbd 3efc 323e
00000170: c298 74bd a63d 09be e37b 5dbd d37d 303c
00000180: 0c6b 803e 8465 ec3d 009d a83d 3a96 813c
00000190: e9a5 b1bd 750c afbc fa17 043e af3e fd3c
000001a0: e19d 2f3e e023 163e 343f 5d3e aa93 0d3e
000001b0: f5f2 9c3c 1f1d 803e d372 313e f3e9 14be
000001c0: c305 07be 45dd b0bd 760b 0f3e ae8d 833d
000001d0: fa43 223d 6725 263e 4712 813e 3e8c 5f3d
000001e0: 6b5e 353e aba0 70bd 1b8d 703d 9b1e 343e
000001f0: 845c 893e 475c 62bd 626b ed3c 37d6 1ebc
00000200: d5ff d9bd debe 2abe 0787 01be c6dd 0d3e
00000210: e425 05be b443 093e dfce 03bd 54d8 913c
00000220: 8bb7 1a38 2752 e8bd 462c 5b3d 417c 1f3e
00000230: 15fe 33be 3961 b93d e225 76bd 6cb3 1abe
00000240: 65e5 ba3d 1542 fd3d 7fd2 363d 3078 e1bd
00000250: 244f b0bd dc1c d7bd 235b 043d d1d2 11bd
00000260: b91e 27be efb5 28be f935 93bd 3840 cdbd
00000270: d4d4 64bd 7528 afba a67f c3bc 4c84 ec3d
00000280: 7955 14bd 74f4 063e 6cf3 8fbd 6fb3 933d
00000290: bcc0 2ebd 27d3 b83d 2956 c93d 5ad2 113e
000002a0: 8c70 15be cf45 6bbd 86de 24be 217a 0abd
000002b0: dfff 013e 3da4 0dbd 98d2 013d ce0b 08be
000002c0: 4eb7 8dbd 831f ff3c f5fb fc3d 6322 343b
000002d0: fb2b cc3d 9440 8cbc 737f 9f3d 65a5 11be
000002e0: 464e 13bd 7af7 b73c d61d 013e 6a74 00bb
000002f0: e976 0fbe 7138 c23a e36e 6ebd 8e5f 2dbe
00000300: af7c 33be 6439 27be c8c0 2dbe 3ea2 093e
00000310: e1d3 193e 3b48 063e 4ce2 e33d 4884 e6bc
00000320: 13bb cfbc 0039 283e 2579 013e 8c2a 083e
00000330: ac9d 66bc b3ee 23be 4d23 03be 326f fabd
00000340: d72f b3bd 7611 343d 1373 6fbd 68b7 0cbe
00000350: 5915 aabb 6b98 0a3e 0540 0a3e 467a 723d
00000360: 4d10 42be 4dba 013e 33e9 18be cafa a3bd
00000370: 02fa abbd f2ac 9f3b 7d40 1bbe 8154 c1bd
00000380: 86b3 0ebe 8e00 ce3b 7a8d b9bd 1d65 2d3e
00000390: 4fc4 063e 6ebe 643c 687e 093e e58e 1fbe
000003a0: 0f8d b0bd e0e0 21bc c084 0f3e 5d08 893c
000003b0: cbf3 fdbc 694c c23c 7aed 9cbc d078 28be
000003c0: 142e 0bbe 1beb 22be 1fcc 34be c872 1abe
000003d0: 2dcb 2bbe 5204 bf3b 4d01 e6bd 8d2f c43d
000003e0: 4664 83bd bbe4 163e 18ea a93d e8fe 1e3e
000003f0: b038 a73d 0608 253e 8891 e53d fee6 6ebd

dynamics.4.bias f4 [32]
0.13772455 -0.0042335917 -0.09408928 0.042306907 -0.1204766 -0.12161493 0.017660074 -0.06460226
-0.01044825 -0.035408787 0.0709471 -0.018817315 0.020339279 -0.031160321 -0.061542597 -0.11267072
0.0552863 0.04858895 -0.114940934 0.14773545 -0.14427076 -0.08469787 0.04168348 0.11840046
-0.025287313 -0.024419716 0.06601326 0.035248835 0.24411859 -0.06507625 -0.12270492 0.1967692
00000000: aa07 0d3e f1b9 8abb e1b1 c0bd 024a 2d3d
00000010: 70bc f6bd 4011 f9bd dcab 903c 314e 84bd
00000020: 232f 2bbc ce08 11bd b74c 913d c526 9abc
00000030: 8f9e a63c ee43 ffbc 1714 7cbd e8bf e6bd
00000040: e373 623d 3505 473d 2766 ebbd f647 173e
00000050: b7bb 13be 1476 adbd 4cbc 2a3d f17b f23d
00000060: 5727 cfbc db0b c8bc f631 873d 1561 103d
00000070: 39fa 793e b246 85bd b84c fbbd dd7d 493e

dynamics.6.weight f4 [2, 32]
-0.22466443 -0.12123713 -0.15000029 -0.13566786 0.121640556 0.12907779 0.018919146 -0.123418175
-0.0873885 -0.020327382 0.07808679 0.11628588 -0.005800007 0.022313233 -0.13486122 -0.23695338
0.0698762 -0.020881137 -0.22874784 -0.20916352 -0.026879383 0.11064013 -0.24542561 -0.116621375
-0.090054154 0.17011681 0.11249311 0.13004638 -0.24677329 -0.05464518 0.017727891 -0.15141597
0.05318405 0.040462185 0.16660753 -0.2116727 -0.1554326 0.01848984 0.008209626 -0.04253818
-0.102728434 0.097952165 -0.036963906 -0.055102274 0.05046528 -0.25601467 -0.0640084 -0.09603916
-0.09835428 0.14789759 -0.11179416 -0.2673396 -0.069175854 0.091228224 -0.22061998 -0.2393081
0.085988134 0.058025334 -0.21093088 -0.1356963 -0.07247029 -0.12984723 -0.044507578 -0.1370014
00000000: 6f0e 66be 2c4b f8bd ad99 19be 84ec 0abe
00000010: af1e f93d f82c 043e 53fc 9a3c abc2 fcbd
00000020: bef8 b2bd 9c85 a6bc f8eb 9f3d 4b27 ee3d
00000030: fc0d bebb 3eca b63c 0f19 0abe e8a3 72be
00000040: 411b 8f3d eb0e abbc e03c 6abe f62e 56be
00000050: 2732 dcbc 4b97 e23d da50 7bbe 30d7 eebd
00000060: 506e b8bd 1a33 2e3e ca62 e63d e12a 053e
00000070: 23b2 7cbe a0d3 5fbd 153a 913c ca0c 1bbe
00000080: 85d7 593d adbb 253d 2a9b 2a3e bac0 58be
00000090: b929 1fbe 0178 973c ab81 063c 843c 2ebd
000000a0: 4963 d2bd 259b c83d 7767 17bd ecb2 61bd
000000b0: aeb4 4e3d 5b14 83be d616 83bd 2eb0 c4bd
000000c0: f86d c9bd 7772 173e 56f4 e4bd bce0 88be
000000d0: 12ac 8dbd ddd5 ba3d 34ea 61be 2f0d 75be
000000e0: 8c1a b03d f9ab 6d3d 44fe 57be f9f3 0abe
000000f0: 4e6b 94bd acf6 04be 944d 36bd 184a 0cbe

dynamics.6.bias f4 [2]
-0.039007008 -0.07621502
00000000: d0c5 1fbd 9f16 9cbd
