examples/single_runs/run_023/models/latent_dynamics.pt (torch, 12925 bytes, 8 tensors)

dynamics.0.weight f4 [32, 2]
-0.6174698 0.6632053 -0.15836032 -0.39018887 -0.5191251 0.7112698 -0.28182867 -0.4634329
0.6994985 -0.21934336 0.16665603 -0.35332376 0.5512918 -0.15299179 -0.12666754 0.43336043
0.7473586 -0.48140615 0.2940286 0.0639301 -0.5519253 0.26893762 0.525666 0.5818204
-0.78725815 0.09650522 -0.036857147 0.44003564 0.3419563 -0.4716263 0.33157286 -0.25120488
0.6513348 -0.10335457 -0.6621016 -0.3545713 -0.4534514 0.085556425 -0.25530633 0.62304246
-0.3142386 -0.6323216 0.07307857 0.023781324 -0.41824698 -0.066334546 -0.4530216 -0.7005916
-0.36317343 -0.6873367 0.02121873 -0.77716213 -0.35248572 0.67811257 -0.08349621 -0.6375365
0.56398827 -0.07622577 0.1723576 0.5146946 -0.32145903 -0.49511805 0.39158413 -0.03473834
00000000: 8012 1ebf d3c7 293f 3529 22be d6c6 c7be
00000010: 62e5 04bf c715 363f d94b 90be 1447 edbe
00000020: 5512 333f 8c9b 60be e1a7 2a3e dae6 b4be
00000030: 7621 0d3f e1a9 1cbe 23b5 01be 6be1 dd3e
00000040: e552 3f3f de7a f6be eb8a 963e c9ed 823d
00000050: fa4a 0dbf 31b2 893e 0c92 063f 2ff2 143f
00000060: c089 49bf 87a4 c53d 85f7 16bd 5a4c e13e
00000070: e514 af3e 0179 f1be ebc3 a93e ed9d 80be
00000080: e1bd 263f 90ab d3bd 7e7f 29bf 5f8a b5be
00000090: c82a e8be 3538 af3d 83b7 82be b67f 1f3f
000000a0: e2e3 a0be d4df 21bf 38aa 953d 0dd1 c23c
000000b0: 7824 d6be 68da 87bd 72f2 e7be f959 33bf
000000c0: def1 b9be 4cf5 2fbf e7d2 ad3c 19f4 46bf
000000d0: 0279 b4be c998 2d3f 1000 abbd 9835 23bf
000000e0: 8961 103f 421c 9cbd 837e 303e 06c3 033f
000000f0: 4796 a4be 1d80 fdbe b77d c83e ca49 0ebd

dynamics.0.bias f4 [32]
0.54820085 0.7188596 -0.4313524 0.38593897 -0.4016643 1.1384257 -0.49342135 -0.32213968
-0.07146946 -0.37251213 0.26407394 0.12320556 -0.11660653 0.13056265 0.074193776 -0.9900018
-0.51492304 0.7135145 -0.09384692 -0.20040534 0.48723418 0.23974036 0.85864997 -0.13338083
0.17175128 -0.33405676 0.2544328 -0.4121659 0.10866911 -0.260613 -0.100485034 0.07080523
00000000: e456 0c3f 2f07 383f 39da dcbe cb99 c53e
00000010: f1a6 cdbe efb7 913f b9a1 fcbe 7eef a4be
00000020: 955e 92bd e9b9 bebe b334 873e 3253 fc3d
00000030: 68cf eebd 37b2 053e e8f2 973d c270 7dbf
00000040: ffd1 03bf e3a8 363f d032 c0bd 0f37 4dbe
00000050: c276 f93e 7f7e 753e 7cd0 5b3f fc94 08be
00000060: 91df 2f3e 7d09 abbe 0445 823e 6907 d3be
00000070: e98d de3d 116f 85be 19cb cdbd 5502 913d

dynamics.2.weight f4 [32, 32]
0.28512397 0.29787797 0.30944273 -0.068905815 0.016600918 -0.1160152 -0.0959836 -0.04759184
-0.07050573 0.2522656 0.08137154 0.3208976 0.047131307 0.30159244 -0.10170817 -0.06243001
0.26940176 -0.10038903 0.27103484 0.0803167 -0.21195076 0.11454311 -0.08177564 -0.14800683
0.06043851 -0.08787677 0.29803807 -0.25366995 0.1385572 0.23335546 -0.14091024 0.015681941
0.09820376 0.4638223 0.1042635 0.33478478 -0.23687819 0.2876869 0.07151054 0.018570084
-0.14893384 -0.16688141 -0.22137491 -0.21039271 -0.30672038 0.15399504 0.19130132 0.010331155
0.016540285 0.1357474 -0.1820403 0.05947251 0.553876 -0.049390025 0.096558765 0.09892345
0.4713698 0.40084666 -0.056621283 0.22275598 -0.2440099 -0.043940783 0.15057828 -0.14378272
-0.08067544 -0.12674415 -0.038904194 0.1126416 -0.10893907 -0.06943377 0.06935215 0.05723359
0.01541797 -0.042411655 0.122023724 -0.13428763 -0.10540209 -0.0075529744 0.11491591 -0.08707861
0.04203948 0.025462687 0.12641752 0.08015041 0.02278545 0.053372804 -0.019504843 -0.17370965
0.087844044 -0.14207114 -0.13325694 -0.0765132 -0.024330659 -0.041430157 -0.14834377 0.064439245
0.21083592 0.41812608 0.14809982 0.030773139 -0.15830526 -0.13951527 -0.23293404 0.08718633
-0.6431614 0.31172583 -0.1058555 -0.10508337 -0.11300304 -0.047474373 0.6010541 0.046106126
0.07255681 -0.2373833 -0.022226535 0.08626765 0.34941968 0.07256739 -0.056495357 0.018269755
0.18314297 -0.3948691 0.1436297 -0.33019328 -0.014976363 0.028202055 0.047284603 0.16177152
-0.19204079 0.22927217 -0.51180744 -0.013873668 -0.229796 0.27251503 0.04550908 -0.57645744
-0.18700618 -0.25656748 -0.10431055 -0.22208263 0.13156334 -0.265645 0.18835637 -0.09089155
-0.23854941 0.2341316 0.112680584 0.07796909 -0.1773522 0.21948712 0.14462803 0.2924715
0.10539928 -0.016349766 -0.1314383 -0.48736054 0.17886718 -0.24697898 0.06643636 0.2398074
-0.09449281 0.14041065 -0.033761058 -0.19597273 -0.18512136 -0.08048351 0.123734236 0.11092867
-0.14551163 0.094328314 0.0843464 -0.16938642 -0.030859984 -0.03175697 0.05306018 0.07422362
0.050363865 -0.06895985 -0.13920777 -0.11653932 -0.11324888 0.011418766 -0.11835065 0.03810657
0.12818828 0.11501307 -0.121257894 -0.077588946 0.11907691 -0.11992398 -0.107553884 -0.011090726
-0.04684443 0.20575981 0.18730117 0.2885091 -0.36222157 0.31062514 0.19011833 0.20098163
-0.10674353 -0.3728809 0.16122821 -0.11565496 0.0630349 -0.098776035 0.17577833 0.06844888
-0.40455288 0.21427481 0.041661188 0.18277651 0.4350528 0.06511148 -0.09993283 -0.01916714
0.23940264 0.161567 -0.086944625 0.042662732 -0.31108418 0.069869034 0.12939157 -0.271567
0.13424763 -0.2942551 -0.057196792 -0.164978 -0.2790129 -0.032311596 -0.42899686 -0.046975505
-0.28095424 0.11232704 0.06997181 0.14460605 0.19666263 0.20684138 -0.2998544 0.20708938
-0.060021892 0.014113471 -0.07821295 0.17435567 -0.17758879 0.09108248 -0.106506474 0.16458377
0.39094856 -0.2350241 0.19097199 0.10943166 0.21875452 0.2813309 0.23586358 0.07876044
00000000: c5fb 913e 7683 983e 476f 9e3e 7e1e 8dbd
00000010: a6fe 873c 6199 edbd 0d93 c4bd a9ef 42bd
00000020: 4f65 90bd f528 813e 1fa6 a63d b14c a43e
00000030: c20c 413d 536a 9a3e 5f4c d0bd 9cb6 7fbd
00000040: 07ef 893e c498 cdbd 14c5 8a3e 157d a43d
00000050: 9f09 59be 9495 ea3d fd79 a7bd 1a8f 17be
00000060: 5f8e 773d bcf8 b3bd 7298 983e 07e1 81be
00000070: f0e1 0d3e bcf4 6e3e c64a 10be 6a77 803c
00000080: 0e1f c93d 1e7a ed3e 1a88 d53d e968 ab3e
00000090: 3290 72be b34b 933e 1e74 923d 4a20 983c
000000a0: 1d82 18be f6e2 2abe 1bb0 62be 3071 57be
000000b0: 740a 9dbe e0b0 1d3e 7ee4 433e 0144 293c
000000c0: 7e7f 873c 5e01 0b3e c668 3abe 7299 733d
000000d0: d1ca 0d3f 324d 4abd 9ac0 c53d 6198 ca3d
000000e0: 6257 f13e c63b cd3e b8eb 67bd 251a 643e
000000f0: bbdd 79be 40fb 33bd 3131 1a3e c73b 13be
00000100: 2a39 a5bd 38c9 01be 015a 1fbd a4b0 e63d
00000110: 721b dfbd 4b33 8ebd 8008 8e3d c56d 6a3d
00000120: a79b 7c3c d8b7 2dbd 93e7 f93d b282 09be
00000130: 0ddd d7bd f17e f7bb 0859 eb3d 4556 b2bd
00000140: 9731 2c3d 2097 d03c 9873 013e e625 a43d
00000150: 8da8 ba3c 719d 5a3d 9fc8 9fbc f1e0 31be
00000160: 94e7 b33d 197b 11be 8274 08be f4b2 9cbd
00000170: 1751 c7bc abb2 29bd 6ee7 17be b9f8 833d
00000180: 5fe5 573e 9f14 d63e 7ba7 173e f317 fc3c
00000190: c61a 22be 17dd 0ebe 4386 6ebe bf8e b23d
000001a0: 3aa6 24bf 879a 9f3e c5ca d8bd f335 d7bd
000001b0: 236e e7bd 7d74 42bd aede 193f c7d9 3c3d
000001c0: aa98 943d 9c14 73be 6c14 b6bc 18ad b03d
000001d0: 23e7 b23e 369e 943d ad67 67bd 74aa 953c
000001e0: d589 3b3e 482c cabe aa13 133e 180f a9be
000001f0: 6b5f 75bc ff07 e73c 80ad 413d 6fa7 253e
00000200: 57a6 44be 53c6 6a3e d005 03bf 624e 63bc
00000210: a54f 6bbe 1787 8b3e bb67 3a3d b792 13bf
00000220: 8c7e 3fbe d05c 83be c5a0 d5bd a169 63be
00000230: 8ab8 063e 9f02 88be 7ee0 403e 5925 babd
00000240: 4c46 74be 32c0 6f3e 14c5 e63d 42ae 9f3d
00000250: d19b 35be 3bc1 603e 5f19 143e d3be 953e
00000260: 94db d73d f2ef 85bc c397 06be 5287 f9be
00000270: f528 373e 0fe8 7cbe c90f 883d 1290 753e
00000280: 7285 c1bd cfc7 0f3e 0949 0abd 13ad 48be
00000290: 7490 3dbe 8ad4 a4bd 6068 fd3d 922e e33d
000002a0: 0001 15be 342f c13d cebd ac3d a273 2dbe
000002b0: 14ce fcbc 9913 02bd a255 593d 8e02 983d
000002c0: 574a 4e3d d23a 8dbd 7b8c 0ebe 2bac eebd
000002d0: 07ef e7bd c715 3b3c d361 f2bd a215 1c3d
000002e0: ca43 033e f98b eb3d 0f56 f8bd f4e6 9ebd
000002f0: 98de f33d b49a f5bd 3645 dcbd e0b5 35bc
00000300: f2df 3fbd b3b2 523e e1cb 3f3e 77b7 933e
00000310: 1b75 b9be 420a 9f3e 61ae 423e 21ce 4d3e
00000320: 5a9c dabd 3fea bebe 0219 253e 82dc ecbd
00000330: 7118 813d 174b cabd 3cff 333e ed2e 8c3d
00000340: 8e21 cfbe db6a 5b3e eca4 2a3d c429 3b3e
00000350: 3ebf de3e 2b59 853d 95a9 ccbd 6804 9dbc
00000360: f725 753e d271 253e 0610 b2bd 1ebf 2e3d
00000370: 6d46 9fbe 7f17 8f3d 397f 043e d40a 8bbe
00000380: 3678 093e 9ba8 96be 2f47 6abd feef 28be
00000390: c7da 8ebe 2a59 04bd 7aa5 dbbe 6369 40bd
000003a0: 3cd9 8fbe b80b e63d 614d 8f3d 9c13 143e
000003b0: ee61 493e 3ace 533e 8486 99be 3d0f 543e
000003c0: 84d9 75bd 303c 673c 1c2e a0bd 4b8a 323e
000003d0: d6d9 35be 7489 ba3d 1120 dabd a688 283e
000003e0: 692a c83e 28aa 70be 298e 433e b51d e03d
000003f0: 2f01 603e 9b0a 903e 3986 713e 274d a13d

dynamics.2.bias f4 [32]
-0.23323877 0.1449402 -0.18305272 -0.084979795 0.45945382 -0.09689656 0.3600706 -0.024182344
0.1471315 0.40456384 -0.06550318 0.26511046 -0.046272736 -0.03754439 0.32445198 0.07085391
-0.09443068 0.37080178 0.22245695 0.091211975 0.20659676 0.424412 -0.21563283 -0.07546174
0.3607921 0.08253389 0.23772529 0.15675448 0.13737796 0.4655018 -0.061473012 -0.0598178
00000000: 25d6 6ebe 346b 143e 2c72 3bbe e309 aebd
00000010: 883d eb3e b471 c6bd 2c5b b83e 0d1a c6bc
00000020: a4a9 163e fe22 cf3e 8826 86bd 8fbc 873e
00000030: 7b88 3dbd 25c8 19bd 921e a63e db1b 913d
00000040: df64 c1bd bbd9 bd3e c1cb 633e 58cd ba3d
00000050: 1a8e 533e 884c d93e dace 5cbe af8b 9abd
00000060: beb9 b83e 8707 a93d 426e 733e 3f84 203e
00000070: cfac 0c3e 4056 ee3e 20cb 7bbd 8203 75bd

dynamics.4.weight f4 [32, 32]
0.09003115 0.08102806 0.08524405 0.19631983 0.4280179 -0.14390709 0.010031428 0.08791075
0.083876856 0.17352211 -0.101173654 0.19289656 0.18365516 0.10925461 0.22127047 -0.024052192
-1.3716797 -0.25749254 0.12882338 -0.11117745 0.07792791 -0.17462438 0.09476009 0.08903918
0.22434995 -0.15344402 -0.11292048 -0.058131054 0.19469447 -0.28510574 0.17117533 -0.012134731
-0.04489823 -0.0107905185 -0.09358113 -0.038023584 -0.18772314 0.123031914 -0.11957359 0.12124323
-0.02064165 0.11811811 -0.18779549 -0.09985014 -0.19597946 0.05745025 -0.14268516 0.0013939465
-0.06657735 0.030143607 0.025318615 -0.16226608 -0.14659496 -0.018688055 -0.10308432 -0.094379626
0.007307396 -0.11803971 -0.06788413 -0.12776645 -0.009735227 -0.095087886 0.0907067 0.109368496
-0.08041585 -0.21320833 -0.09003707 -0.0033247422 -0.0057000103 -0.122703 0.06593327 -0.08224583
-0.1009701 -0.20390137 -0.13386706 -0.15006073 0.021659385 0.11497892 -0.22636387 -0.11801126
-0.09561388 0.112474695 -0.22947036 -0.0031776263 -0.07079984 0.0033751961 0.10095531 -0.04301594
-0.09694634 -0.05106965 -0.18781206 -0.07028281 -0.031862747 -0.021436485 0.07327702 -0.011050461
-0.36302495 0.08631136 0.1643489 0.01413423 0.31457955 0.05378293 -0.012893045 0.16640231
0.2813426 -0.05927878 0.010825257 -0.016170926 0.103941604 0.07483808 0.22990687 0.11460519
0.1221056 0.16589178 0.17283088 0.048974525 0.061663125 -0.10989224 -0.50200945 -0.03168394
0.17396581 -0.098150544 0.10507102 0.14848691 -0.4603277 0.13058531 0.016814485 -0.07993175
-0.012238191 -0.0632232 -0.04032668 0.07982499 0.38954264 -0.03438622 -0.10971727 0.062339924
0.2076868 0.11620713 0.09130663 0.07547833 -0.08145245 0.20040885 0.0006467556 0.041424047
-0.11270293 0.3564964 0.17071551 -0.06934757 -0.16546296 0.19346897 -0.059667997 -0.041064832
0.12382514 0.107138656 -0.045579858 -0.100587584 -0.59314644 0.3843701 -0.08033499 0.027889982
-0.10890163 0.14060111 -0.045333233 0.11244425 -0.02802993 -0.00836617 -0.1610236 0.0200605
0.020408008 0.08779223 0.14598535 -0.06168525 -0.17495392 -0.024930265 0.06462973 0.0061044022
-0.1688627 -0.17972244 -0.1157822 -0.0733241 0.020663816 -0.06814642 0.09883651 0.02739364
0.13644162 0.044662423 -0.1665519 -0.14126466 -0.008987057 -0.18245591 -0.17163189 -0.12763737
-0.118750036 -0.20115246 0.0810871 0.075310074 0.12722704 -0.07841718 -0.0053745843 0.13938889
-0.08761597 -0.14179753 0.14568545 -0.17952535 -0.079113066 0.060474575 -0.0104661165 0.04149203
0.09475782 -0.12757239 0.06444497 0.109080486 0.064260416 -0.20679277 -0.19710581 -0.046576943
-0.07046568 0.1567483 0.06307657 0.05413605 -0.07627483 -0.15094657 -0.01034448 -0.15463284
0.06577654 -0.110859774 0.117380194 -0.13736148 -0.54644316 0.03977027 -0.5473656 0.15977845
0.1461664 -2.7427568 -0.07458778 0.15299565 -0.26240015 -0.0016419785 -2.8466885 -0.33119944
0.025779964 -0.18781488 -0.412081 0.21441029 -0.59883326 -0.030856907 0.14264815 0.15122737
0.24536006 -0.12109906 -0.056508593 0.12694755 0.14257537 0.4232864 -0.02220629 0.17624684
00000000: 4062 b83d 0af2 a53d 6f94 ae3d 1108 493e
00000010: 2a25 db3e 615c 13be dc5a 243c 8d0a b43d
00000020: a1c7 ab3d c8af 313e 2234 cfbd ad86 453e
00000030: 1910 3c3e e2c0 df3d ba94 623e 1a09 c5bc
00000040: 3393 afbf 10d6 83be 47ea 033e 01b1 e3bd
00000050: ab98 9f3d bcd0 32be 9411 c23d 2c5a b63d
00000060: febb 653e 6e20 1dbe da42 e7bd d41a 6ebd
00000070: fd5d 473e 61f9 91be 9648 2f3e c0d0 46bc
00000080: 35e7 37bd b7ca 30bc 77a7 bfbd 9ebe 1bbd
00000090: 7f3a 40be 28f8 fb3d 00e3 f4bd 5f4e f83d
000000a0: ad18 a9bc e8e7 f13d 764d 40be 3b7e ccbd
000000b0: d7ae 48be f450 6b3d 0f1c 12be 15b5 b63a
000000c0: b559 88bd baef f63c fc68 cf3c 1429 26be
000000d0: fd1c 16be b117 99bc df1d d3bd 1b4a c1bd
000000e0: e172 ef3b cebe f1bd d606 8bbd 35d5 02be
000000f0: 8080 1fbc 70bd c2bd 6fc4 b93d 97fc df3d
00000100: 11b1 a4bd 4953 5abe 5b65 b8bd ebe3 59bb
00000110: 27c7 babb b64b fbbd 0608 873d 8070 a8bd
00000120: 69c9 cebd 85cb 50be 7214 09be 85a9 19be
00000130: 066f b13c 117a eb3d eecb 67be e3af f1bd
00000140: 36d1 c3bd 2259 e63d 47fa 6abe b93f 50bb
00000150: 82ff 90bd 6532 5d3b a8c1 ce3d 7b31 30bd
00000160: cd8b c6bd 692e 51bd ce51 40be 6ff0 8fbd
00000170: 8382 02bd 919b afbc 4312 963d fe0c 35bc
00000180: 68de b9be 03c4 b03d 144b 283e 4293 673c
00000190: 9210 a13e 7d4b 5c3d 5a3d 53bc 5e65 2a3e
000001a0: 230c 903e 4ece 72bd 6b5c 313c e478 84bc
000001b0: 56df d43d b544 993d b56c 6b3e 20b6 ea3d
000001c0: 8012 fa3d 89df 293e 94fa 303e 8399 483d
000001d0: 7992 7c3d 2f0f e1bd b183 00bf 05c7 01bd
000001e0: 1824 323e 2703 c9bd 7a2f d73d f40c 183e
000001f0: 13b0 ebbe 28b8 053e 88be 893c 42b3 a3bd
00000200: b282 48bc 2a7b 81bd 972d 25bd 497b a33d
00000210: 2272 c73e 91d8 0cbd 73b3 e0bd 2658 7f3d
00000220: d9ab 543e 01fe ed3d f8fe ba3d 6294 9a3d
00000230: 8bd0 a6bd fa37 4d3e 098b 293a 43ac 293d
00000240: cbd0 e6bd b286 b63e 0cd0 2e3e 1906 8ebd
00000250: 1f6f 29be bb1c 463e 6e66 74bd 9933 28bd
00000260: 0998 fd3d 836b db3d f2b1 3abd dd00 cebd
00000270: 72d8 17bf 28cc c43e ac86 a4bd 8879 e43c
00000280: d107 dfbd bdf9 0f3e 57af 39bd 2c49 e63d
00000290: 069f e5bc 4312 09bc 5fe3 24be eb55 a43c
000002a0: b22e a73c 6acc b33d 2f7d 153e aca9 7cbd
000002b0: 1f27 33be 8e3a ccbc 985c 843d 7007 c83b
000002c0: 58ea 2cbe 2909 38be 381f edbd f22a 96bd
000002d0: 2a47 a93c 5a90 8bbd cc6a ca3d a068 e03c
000002e0: 5ab7 0b3e f2ef 363d 958c 2abe afa7 10be
000002f0: 733e 13bc b9d5 3abe 45c0 2fbe 5fb3 02be
00000300: 3833 f3bd e9fa 4dbe fe10 a63d 2b3c 9a3d
00000310: ce47 023e 3099 a0bd 481d b0bb f6bb 0e3e
00000320: 0070 b3bd 5f33 11be 912e 153e 7ed5 37be
00000330: 0806 a2bd 30b4 773d 137a 2bbc 8cf3 293d
00000340: 6310 c23d 56a2 02be b9fb 833d 9765 df3d
00000350: f79a 833d 7cc1 53be 1bd6 49be 77c7 3ebd
00000360: 4f50 90bd a082 203e 4a2e 813d c3bd 5d3d
00000370: fa35 9cbd bd91 1abe e57b 29bc 1258 1ebe
00000380: dab5 863d 730a e3bd 0765 f03d 7da8 0cbe
00000390: b3e3 0bbf 27e6 223d 2720 0cbf f69c 233e
000003a0: a5ac 153e 5489 2fc0 7ac1 98bd e4aa 1c3e
000003b0: 5059 86be a837 d7ba 2530 36c0 f992 a9be
000003c0: 8130 d33c 8b52 40be 48fc d2be 5f8e 5b3e
000003d0: 234d 19bf a0c7 fcbc 5b12 123e 59db 1a3e
000003e0: ab3f 7b3e c902 f8bd 8e75 67bd 8afe 013e
000003f0: 47ff 113e ffb8 d83e f7e9 b5bc 0d7a 343e

dynamics.4.bias f4 [32]
-0.09401268 0.13841599 -0.23857671 0.23999758 0.23968992 -0.16665974 -0.010596641 0.15096846
0.44040987 0.4061399 -0.034372635 0.21815409 -0.032976728 -0.14873248 0.12428318 0.23836215
-0.047827106 0.10322071 0.1812194 0.14929783 0.11845371 0.37901047 0.25853685 -0.033065826
-0.1468357 0.09997309 0.18143502 0.007889218 0.29462987 0.08228885 -0.037192907 -0.097372934
00000000: b889 c0bd ecbc 0d3e 744d 74be edc1 753e
00000010: 4671 753e daa8 2abe 899d 2dbc 7a97 1a3e
00000020: 677d e13e 92f1 cf3e 52ca 0cbd c963 5f3e
00000030: 9b12 07bd 544d 18be 2e88 fe3d 3515 743e
00000040: 5be6 43bd 6165 d33d 9491 393e 88e1 183e
00000050: dc97 f23d a90d c23e f15e 843e 0870 07bd
00000060: 195c 16be b1be cc3d 1aca 393e c741 013c
00000070: bad9 963e 0e87 a83d 9757 18bd 766b c7bd

dynamics.6.weight f4 [2, 32]
0.13297334 0.1123423 -0.072736524 -0.105462134 -0.111470655 0.085499875 -0.02491959 0.79305375
-0.23437516 -0.1562492 0.3230059 -0.14629489 0.164333 0.006092092 0.301552 -0.03868115
0.13941474 -0.4446703 0.9197847 0.02703762 -0.13919139 -0.20816101 -0.71621716 0.082758814
0.16904588 0.087407134 -0.06425258 -0.072094224 0.14296696 0.20446683 -0.17455214 -0.15916118
-0.08274392 0.023755763 0.04676105 0.30986917 0.20665424 0.01783192 -0.09343452 -0.5873536
0.06245695 0.24211189 -0.1143008 -0.028316464 -0.18595594 0.08798561 0.2518099 -0.23438045
0.09088526 0.08810277 -0.75844043 0.3404918 -0.0073944493 0.2361275 -0.010010668 -0.10346241
0.110236034 0.3663712 0.27224308 -0.046052888 0.23989864 0.185404 0.19271147 0.09038921
00000000: 2a2a 083e b813 e63d e3f6 94bd 88fc d7bd
00000010: ba4a e4bd 8f1a af3d 2b24 ccbc 9205 4b3f
00000020: 0b00 70be caff 1fbe 0861 a53e 54ce 15be
00000030: e946 283e 2ca0 c73b 0665 9a3e 2070 1ebd
00000040: bdc2 0e3e d3ab e3be 0377 6b3f 007e dd3c
00000050: 3088 0ebe 2928 55be 025a 37bf 747d a93d
00000060: 5d1a 2d3e 8302 b33d db96 83bd 23a6 93bd
00000070: ee65 123e c15f 513e ccbd 32be 26fb 22be
00000080: a575 a9bd 729b c23c 8488 3f3d 2ca7 9e3e
00000090: 2b9d 533e 3f14 923c 995a bfbd ce5c 16bf
000000a0: dcd2 7f3d 2eec 773e 8a16 eabd eef7 e7bc
000000b0: 3c6b 3ebe cd31 b43d 3aed 803e 6e01 70be
000000c0: 0d22 ba3d 3a6f b43d 2729 42bf f154 ae3e
000000d0: 234d f2bb 68cb 713e c903 24bc 1ae4 d3bd
000000e0: 6ec3 e13d 0295 bb3e 7263 8b3e f4a1 3cbd
000000f0: fda7 753e 8cda 3d3e 2856 453e fa1d b93d

dynamics.6.bias f4 [2]
-0.19140002 0.29326946
00000000: 5efe 43be 6a27 963e
