ives_model/experiments/learning/single/run_002/models/decoder.pt (torch, 12429 bytes, 8 tensors)

decoder.0.weight f4 [32, 2]
00000000: 2f3d 29be 6bc0 4f3e 790c a2be 4721 45bf
00000010: 7bd8 733f c92e 36be c6f8 d03e 5f4b d53c
00000020: 0a83 a7be 0218 1cbf 1390 fd3d 66f0 b4be
00000030: 140b 933e 4170 9a3e 2cca 263f 7355 ad3e
00000040: b97e 383f e543 b03f 7abb da3e daad cebe
00000050: 8a74 5e3f 1f5a 243f 4639 d83c 879d ffbe
00000060: 407d 46be 8d7f 26bf 29fb b93e d3cd 15bf
00000070: 2d57 efbe 4716 dc3e f61b 2bbf 3dfd 23bf
00000080: 54a8 8f3f 76a9 2a3f f26d 413f 51e2 32bf
00000090: e2e9 adbd 4c98 27bf 4c1f 5a3f 0484 0abf
000000a0: 3b67 c2bc cbd3 9e3d 9cf1 92bf 94d5 193e
000000b0: 8717 c93e 7ffc f03e 6e54 bdbe d7ae f9be
000000c0: a96e 81bf dd38 0f3f 8cfb a3bf 1fac bfbe
000000d0: 2ee6 823f 39cd 203f 5862 8a3f 6cb5 013e
000000e0: 2e7a 5c3f 899e 25bf bee3 373e 07f5 2ebd
000000f0: 26da 583f 96d2 b43f cefd 853c 653f 173f
-0.16527246 0.20288245 -0.3165014 -0.770039 0.952522 -0.17791285 0.408148 0.026036916
-0.32717162 -0.60974133 0.123809956 -0.3533966 0.2871939 0.30163768 0.6515224 0.33854255
0.72068363 1.377072 0.42721158 -0.40367013 0.86896574 0.64200014 0.026394498 -0.4992487
-0.19383717 -0.6503838 0.36324432 -0.5851719 -0.46746197 0.42985746 -0.6683954 -0.64058286
1.1223245 0.66664827 0.7555839 -0.6987658 -0.08491875 -0.6546676 0.85204005 -0.5410769
-0.023730865 0.0775524 -1.1479983 0.1502288 0.39275762 0.4706764 -0.36978477 -0.48766205
-1.0111896 0.5594614 -1.2811141 -0.37436005 1.0226495 0.62813145 1.0811262 0.12666863
0.8612393 -0.6469503 0.1795797 -0.042714145 0.8470787 1.4126766 0.016356375 0.5908111

decoder.0.bias f4 [32]
00000000: a2ca 1ebf 0a35 123f 5de7 9cbc a5d6 493e
00000010: fd5a 08bf f175 573f 2b6a b13e 6cbd d33e
00000020: 0f81 913e dd3d 8c3d c688 023f e79c d23d
00000030: e357 2fbe de1d 1ebe d415 10bf f3f1 acbe
00000040: ebc8 443d e176 d23e 1b95 5f3d 5e6e 0a3f
00000050: 2bd9 373f 519a fa3e aff4 1e3f dc8a 33bc
00000060: 29a3 373f d195 163d 46a2 eb3e ca93 b3bd
00000070: 5cd3 083f 35ee dbbe b38b 2c3e 4f03 873e
-0.62027943 0.5711218 -0.019153291 0.19710787 -0.5326384 0.8416434 0.34651312 0.41355455
0.28418776 0.06847737 0.5098995 0.10283833 -0.1712337 -0.15441081 -0.5628331 -0.33778343
0.048043173 0.41106322 0.054585557 0.54074657 0.7181575 0.4894586 0.6209211 -0.0109584
0.7173334 0.03676397 0.46022242 -0.08768423 0.5344751 -0.42955175 0.16850166 0.26369712

decoder.2.weight f4 [32, 32]
00000000: 079f 60bd a5c8 363e 4a29 db3c ae13 10bd
00000010: e5f1 693e 1f10 0f3c 5736 b9bd 20f0 78be
00000020: 10ec 18be 9dad df3d 8caa 28be 2c61 1bbd
00000030: 33b5 b33c fee7 703e b7cd 153d 6d94 02bd
00000040: c05f f2bd b2bc 703d 85fc 733e 9680 8c3d
00000050: f734 3abd b1b3 813e f199 1a3d 81ad b03e
00000060: 9208 ad3e 315b 3b3e 409c 1dbe 62eb 463d
00000070: fb61 f13b e9dd 273e d959 58be a801 4e3d
00000080: 76eb a73d 06bc 38bd 84d2 333e 992d 813d
00000090: a58f 0cbf c114 793c 6fdc 513d d8e5 eb3d
000000a0: 54ec 49bd 6c1a 263d cd26 d43d 734f d53d
000000b0: 3d55 633d cf99 463e 61c7 273e 7167 2ac0
000000c0: d88c 833f d872 dabd eb49 b53d 5cff 283d
000000d0: f961 38be 4290 a63d e798 92bd 55f7 94be
000000e0: c0e2 993e bd0b 9fbf 9203 183e bf83 8d3e
000000f0: d1f2 383e 8ec7 3e3d d148 9ebc 4623 e9be
00000100: 7287 803d ddd4 283e 69fc 9c3e bc20 133e
00000110: 246f 633f 14a5 143e e8cc 42be 87ae 39bc
00000120: 2da4 5bbe eabf 143e a02b 1bbe 27c6 7b3e
00000130: 231b 05be 54d7 643e c0fb 07bd 0867 393e
00000140: c962 84be 6e95 1b3e d365 9d3d fde6 c93d
00000150: 8247 a13d 7cbe 44be 80a8 1abe fb78 b23d
00000160: bd5a 6abd da7d ab3e b4c5 793d a3f6 ee3e
00000170: 7ad9 b43d 78f7 0a3e 944b 723e 62db 0bbd
00000180: d795 083e 10b8 e4bd f08e af3e 317e 8d3e
00000190: 48b8 9abd 11b9 3a3d c650 123e 044c 8f3c
000001a0: 085d fb3e 4d83 303e 2ae6 903e 24a2 38bd
000001b0: cccf ffbd d2df fabd 3809 a3bd 8905 a2be
000001c0: 8803 f93e f045 743e d055 b2bd 30a8 613d
000001d0: 104a 95bc 8e5e 633e 193c d93d 8c22 d73c
000001e0: 23d8 d03e aafb a6be 8ed4 553e e128 c63c
000001f0: 9e1f 823d 2118 8b3d f469 2e3f e6bf 073e
00000200: 4537 77bd 162b 2e3d 2385 213e 756a 6d3e
00000210: d428 df3e 5fce 643d 29e6 fdbd 8e03 a33d
00000220: 55ff 87bd 6921 8a3e 4205 e13d 131e 6b3e
00000230: 8372 833c 2a49 513e 7100 063e fcc4 1dbe
00000240: 74a6 c53e e628 6e3e 2220 533e 8797 533e
00000250: ef07 2abe 9f20 6fbe 8001 26bc 8789 b7bc
00000260: 9534 0bbe 3137 e0bd 7ef9 ac3d 9bc4 283e
00000270: dcfa 0f3e 4881 1c3e de2b 00be 0d4b 23bd
00000280: b7f0 00bd ba13 04bc 5b31 e23d 9eda e1bc
00000290: edfa cd3e 2646 243e 4f4b e8bc 3b27 453c
000002a0: bbcf 24be ab84 013e 7d73 ac3d 590c 813e
000002b0: a28d 223d 624d 203e 06f6 9fbd ae67 a43e
000002c0: ce66 87be 13ca d8bc 93ef 9d3e 3e05 583e
000002d0: ac32 c93d 672a 8bbe b003 203e 38e9 0dbc
000002e0: 8f83 a6be d6ca 603e 8bdb 203e c964 04be
000002f0: e75f 833d 6652 b1bd 8d1a 3fbd 90ac 4abd
00000300: 01fa 1fbe d552 6cbd bbf5 463f 21d1 c73d
00000310: 7d04 6f3f b13f 66be be2a a1be bf83 82bd
00000320: 13d0 193f 3e64 0d3e 4025 7ebe e14a 583e
00000330: 74ee cc3e 8e24 a73e ae0d c1bd 4e52 8a3d
00000340: dea3 953f 6f02 813e 83cc 833d e181 ca3c
00000350: b1df b4be 34f0 9dbe 541f 2abe 340e 263e
00000360: bf3c f23e 6449 0dbf c4f3 89bd 1cd9 353f
00000370: 0a2d 343e 3d43 1e3e 5d9a 3f3f 4fed 283f
00000380: 1569 b53d 0e0a e13c 1714 843e 483c 3abe
00000390: 2e79 2ebe a871 f4bd 83b1 bb3d 5f7b d7ba
000003a0: e9fa ed3e e606 15bd f91f 35be 76c3 64bd
000003b0: 34a4 df3e 0f07 4ebe 88fe 903d 1337 453d
000003c0: 1eb9 443f 1ad8 3cbd 458c da3d aa4f 9bbe
000003d0: 0c84 1b3d 49b0 1e3e cacc 8cbc edca 843e
000003e0: 7813 803e 16f4 be3e 8a8a ccbd 867a 273f
000003f0: d171 8abe 6bae 3c3d 75b1 133f 20b7 d63d
-0.05483916 0.17849977 0.026753087 -0.035175018 0.22846182 0.008731871 -0.09043568 -0.2431035
-0.149338 0.10921786 -0.16471308 -0.037934467 0.021936988 0.23525998 0.036573138 -0.03187983
-0.11834669 0.058773704 0.23826797 0.06860463 -0.045460667 0.25332406 0.037744466 0.34507373
0.337956 0.18296506 -0.15391636 0.048564322 0.0073664165 0.16393246 -0.21128024 0.05029455
0.081992075 -0.045101188 0.17560774 0.06307525 -0.54906684 0.015202702 0.051235612 0.115184486
-0.049297646 0.04055254 0.10358963 0.10415544 0.05550121 0.19394611 0.16384651 -2.6625636
1.0277357 -0.10666436 0.08851989 0.041259155 -0.18006124 0.08132984 -0.0715807 -0.2909495
0.3005581 -1.2425457 0.14845112 0.27639577 0.18061377 0.04657703 -0.019321831 -0.45534724
0.06275834 0.16487451 0.30661324 0.14367956 0.8884146 0.14516097 -0.19023478 -0.0113331145
-0.21449347 0.14526334 -0.1515336 0.24587308 -0.12998633 0.22347766 -0.033199072 0.1810571
-0.25856617 0.15193722 0.07685437 0.09858511 0.07874967 -0.19213289 -0.1510334 0.087144814
-0.05721544 0.33494455 0.06097956 0.46672544 0.08830543 0.13570964 0.23661643 -0.034144767
0.1333841 -0.1116792 0.3428874 0.2763534 -0.0755468 0.04558665 0.14288625 0.017492302
0.49094415 0.17237587 0.283006 -0.045076504 -0.12490806 -0.122497216 -0.07960743 -0.31644848
0.48635507 0.23854804 -0.08707774 0.055092037 -0.018223792 0.22204039 0.10607166 0.02626159
0.407899 -0.3261388 0.20881864 0.024189414 0.06353687 0.067917116 0.6813042 0.13256797
-0.060355444 0.04252156 0.15773444 0.23185141 0.43585837 0.055860873 -0.12397415 0.079596624
-0.066404976 0.26978615 0.10987331 0.22960691 0.016045814 0.20438066 0.13086106 -0.15407175
0.38603556 0.23257789 0.20617726 0.20663272 -0.16604589 -0.23352288 -0.010132194 -0.022404445
-0.13594277 -0.10948027 0.08446024 0.16481249 0.14060539 0.15283692 -0.12516734 -0.039866496
-0.031479564 -0.008061344 0.1104457 -0.027570065 0.40230504 0.16042385 -0.028356222 0.012033279
-0.16094868 0.12648265 0.08420465 0.25204733 0.039685853 0.15654519 -0.07810597 0.3211035
-0.2644562 -0.026463544 0.30846843 0.2109575 0.09824118 -0.27180788 0.15626407 -0.008661561
-0.32522246 0.21952376 0.15708749 -0.12929071 0.06414776 -0.086582944 -0.04665618 -0.049480975
-0.15622713 -0.057696182 0.77718705 0.09756685 0.93366224 -0.22485234 -0.31477922 -0.06372785
0.6008312 0.1380777 -0.24818897 0.21122314 0.40025675 0.32645077 -0.09426437 0.067539796
1.1690633 0.2519717 0.06435492 0.024720134 -0.35326913 -0.30847323 -0.16613513 0.16216356
0.4731197 -0.5519011 -0.06735948 0.7103441 0.17595306 0.15455337 0.74844915 0.65987104
0.088579334 0.027470615 0.25796577 -0.18187058 -0.17038414 -0.11935741 0.09164717 -0.0016439966
0.46480492 -0.036383532 -0.17687978 -0.05585047 0.43679965 -0.2011988 0.07079798 0.048148226
0.76844966 -0.046104528 0.106712855 -0.30334216 0.037967727 0.15496935 -0.017187495 0.2593607
0.25014853 0.37295598 -0.09987362 0.6542133 -0.2703996 0.046064775 0.5769265 0.10484147

decoder.2.bias f4 [32]
00000000: a6ea dbbd 5431 f5bc 7a80 eabd e865 a3bd
00000010: eed9 dabc 0500 443e 65e7 89be 2bdc 15be
00000020: a21b 43be d82c 0abe 3008 b9bd 583e 7d3e
00000030: 70a5 13be 8898 303c eeb6 4d3e ed94 683e
00000040: ba4d 273e 996e 243e 1e6b 1dbc 2254 9a3d
00000050: 2f26 9d3d 38b0 8cbd 28ef b2bd 8b8d e4bd
00000060: ce0d 31be 4a6e 1bbe 722e 8b3d 378d edbc
00000070: e9c0 2f3e 5db7 2abd 882c 1a3e 14fa 673d
-0.10738115 -0.029930748 -0.11450286 -0.079784214 -0.026715245 0.19140632 -0.26934353 -0.14634769
-0.1905351 -0.13493669 -0.09034765 0.24730814 -0.14418578 0.010778554 0.20089313 0.2271306
0.16338244 0.16057815 -0.009608058 0.07535578 0.076732986 -0.068695486 -0.08737022 -0.1115981
-0.17290422 -0.1517879 0.06795968 -0.028998 0.17163433 -0.041678775 0.1505605 0.056634977

decoder.4.weight f4 [32, 32]
00000000: d480 10bf 11bf 373c 4e82 70bd cf0a 733e
00000010: e66c b53d 1f53 77bd 0caa 74be edd5 fe3e
00000020: 2f57 b9bd 2c54 593e edbb 9dbd c5a8 dbbd
00000030: 92b1 28be aa76 d7be f28c 5cbd a156 51be
00000040: 03b2 22be 5b84 fbbd a6c0 6e3d e786 67bf
00000050: 08b7 5a3e ec02 bb3d 90d0 a83e f14f f9bd
00000060: d010 a6be 40cd 463e 88b1 193d d64a 87be
00000070: 29ba b93e ea1f f73c e10e 293d 9123 013d
00000080: 5455 a4b9 6796 1abe 9044 f43c f251 d5bd
00000090: b9b8 203e d727 5f3e 77e5 a73e 2daf b7be
000000a0: 669a f53d 9d15 2b3e 060d f43a a6a9 6cbd
000000b0: d32c a3bc f9fe d4be 765f 7f3c 85e9 71be
000000c0: 5f82 913e 105d a53e 347d 823d 3853 313e
000000d0: b92e 653e 6638 9b3e 9890 df3d ff01 233e
000000e0: 9858 1dbe ff20 9cbc df72 e1ba 84d4 8a3e
000000f0: 56e5 863e 4f33 ee3c 586d 6d3d 91a6 e13c
00000100: e94b f0bd 3e01 08be 271c b8bd 0a2f 8cbd
00000110: 14dd 303e 4cf3 373e 4b18 75be 1cd1 0abd
00000120: 580c 27be 813b 793e 2812 0fbe 5665 b83d
00000130: 81e7 de3d c369 05c0 3204 a53d ebc1 53bd
00000140: fe27 f5bd 9c14 1ebe 2f23 cd3d 12c1 81be
00000150: 737e 903e 14fd 3b3b 1abc d03d 26af 953b
00000160: 8a25 c0bc 8ceb b83e c5b5 8f3d 2bfa 85bd
00000170: 13bd 8cbe 42d5 263e cffe 9b3d 13c0 02bc
00000180: 54db 7d3e 7076 9a3e 42db 913e 932a d53d
00000190: 3a5a 7d3e 31de 123e 41a6 de3e 681e fbbd
000001a0: f932 92bd 8f2e e53d 1d9e 3fbe 9be7 b5be
000001b0: fec7 bebd 0ae2 dbbd 5b88 88be f65d 7b3e
000001c0: fdcb c0bd 8591 b3be 203b f93d 015f d2bf
000001d0: eb7c 18be 03c5 c7bd 8cad d4bd 1d95 a93d
000001e0: 69fe b7be ae6c 47be f36c 9c3d a8e7 873d
000001f0: fab6 3cbe e618 09be 68de 273d fc8d 013e
00000200: 8c7d 303e bafc f63c c689 36bc c68b 8cbc
00000210: 4289 ba3d aa25 2b3e 2051 ec3e 9cdf aebe
00000220: c25f e1bd 7df9 4bbd fe5c 07bc 2efa 73bc
00000230: 9e25 31be 4632 38be cc7b 04bd 5c97 f3bd
00000240: b7a0 3b3e de94 973e 98e2 1ebd 3c7e 94bd
00000250: 8d02 45be 83ed 66be 8d46 d8bd 98de 063e
00000260: 9150 a5bd f7e5 9b3d 7fae 8ebe 9920 773e
00000270: d678 98bd a8ce f23d 6ec9 93bd 5d21 2a3e
00000280: 811e b63e 9962 013e 2d16 723e d552 18ba
00000290: 08df 8bbd 0fe8 553d 58d5 243f eec4 0cbf
000002a0: 830e 03be 6b2a 143e 1a81 913d d855 c0bd
000002b0: c2a9 5a3c 903f 4bbd 2afb 32be bfe8 863e
000002c0: fb54 d73d d103 513e 9413 0bbe e35e ba3d
000002d0: e1f5 88be ddec 40be d2ca c03c d9f4 143d
000002e0: ef5a bc3e 2280 573b 7be5 49be bfc8 9a3e
000002f0: 2441 15be efc0 593d 2057 dd3c ad53 74bd
00000300: 1a9b 053e d320 573e b731 ac3d 9a65 973d
00000310: 6b0a 393d 6452 5abd 9abf b43e c72f d03e
00000320: 3056 fbbd faaa c5bd e8c3 233d 2fdf 73bd
00000330: b5d0 163e df20 763e 046c 79bd a13e bd3d
00000340: 2aaa 36bd d6b2 673e a62d 1f3e 59d0 4f3e
00000350: 33b3 debe b00c 6f3c acc8 48be 6c93 af3c
00000360: e7c9 bc3e 63df edbe cab8 5bbf 9623 10be
00000370: a194 423e 1245 08be 2f4a 82be 617e e1bd
00000380: 4950 b0bd ce05 b13e 10dd ebbb b836 0a3e
00000390: fc60 743e b838 aa3d 99b9 813e 5a75 013f
000003a0: ecf0 083c 2adc 9c3c e604 9dbc 65ba 4d3d
000003b0: d704 01be f2da dc3e 2177 3a3e 6bde ed3b
000003c0: 4bed 27be 0ab4 8abe 4b77 ff3d 126e ae3c
000003d0: 166d 743e 0677 7a3e 282b d93d d09f 11bc
000003e0: e5cc 08bd ad3e 303e ec3c 5c3e d171 18be
000003f0: 63d3 48be 885b 553e 2ddf 1b3e 8022 4fbc
-0.56446576 0.011214987 -0.05871802 0.23734592 0.08858661 -0.060382005 -0.23892993 0.49772587
-0.09049832 0.21223515 -0.077018596 -0.107255496 -0.16473988 -0.4208272 -0.053845353 -0.20443203
-0.15888219 -0.12281104 0.058289193 -0.9044022 0.21358883 0.09131417 0.3297162 -0.12173451
-0.32434702 0.19414234 0.037522823 -0.26424283 0.3627484 0.030166585 0.041273955 0.03152806
-0.00031344092 -0.15096436 0.02981785 -0.104160205 0.15695466 0.21792541 0.32792255 -0.35875836
0.1199234 0.16707464 0.0018619604 -0.057778977 -0.019918835 -0.4160078 0.0155867245 -0.23624237
0.28419778 0.32297564 0.06371537 0.17316902 0.22381105 0.30316466 0.10916251 0.1591873
-0.15365827 -0.019058703 -0.0017200372 0.27115262 0.26346844 0.0290772 0.057965606 0.027545245
-0.11733229 -0.13281724 -0.08989745 -0.068449095 0.17271835 0.17963904 -0.23935048 -0.03389083
-0.16313303 0.24339105 -0.1397177 0.09003703 0.108839996 -2.0845802 0.08057441 -0.051698606
-0.119705185 -0.1543755 0.10016476 -0.25342613 0.28221473 0.0028684782 0.101921275 0.0045679985
-0.0234554 0.36117208 0.07017092 -0.065418564 -0.27488002 0.16292289 0.0761696 -0.007980364
0.24790698 0.30168486 0.28487593 0.10408511 0.2474145 0.14342572 0.43486217 -0.12261659
-0.071386285 0.11190521 -0.18712659 -0.35528263 -0.09315489 -0.10736473 -0.2666653 0.24547562
-0.09413908 -0.3507196 0.1216948 -1.6435243 -0.14891402 -0.09754374 -0.10384664 0.08280394
-0.35936287 -0.19475052 0.07637968 0.06635982 -0.18429175 -0.13388404 0.040983588 0.12651819
0.17235392 0.030149806 -0.011141246 -0.017156493 0.09108211 0.16713586 0.46155643 -0.34154975
-0.110045925 -0.049798477 -0.008261917 -0.01489119 -0.17299506 -0.17987928 -0.032344624 -0.11894104
0.18323027 0.29605764 -0.038790315 -0.0725064 -0.19239254 -0.22551541 -0.105603315 0.1317085
-0.080720074 0.07612222 -0.27867505 0.24133529 -0.074449226 0.11855823 -0.07216154 0.1661429
0.35570148 0.12635268 0.23641272 -0.0005810683 -0.06829649 0.05222326 0.64388037 -0.5498799
-0.12798505 0.14469306 0.07104702 -0.093913734 0.0133461375 -0.049621165 -0.17478624 0.26349446
0.105142556 0.20411612 -0.13581687 0.091001295 -0.2675009 -0.18840356 0.023534212 0.036366317
0.36788127 0.003288277 -0.19716446 0.30231282 -0.1457563 0.05316251 0.027019083 -0.059650112
0.13047448 0.21008615 0.0840792 0.07392426 0.04517595 -0.05330123 0.3530243 0.4066145
-0.12272298 -0.09651752 0.039981753 -0.059539016 0.14728053 0.24035977 -0.060894027 0.09240461
-0.044595875 0.22626814 0.15544757 0.20294322 -0.43496093 0.014590427 -0.196078 0.0214326
0.3687279 -0.46459493 -0.8582884 -0.14076075 0.1900201 -0.13307598 -0.25447223 -0.11010433
-0.08609063 0.3457474 -0.0071979836 0.13497436 0.23865122 0.083115995 0.25336912 0.5056969
0.0083582215 0.019147951 -0.019167375 0.050226588 -0.12599503 0.43135792 0.18209507 0.0072591803
-0.16399114 -0.27090484 0.12473925 0.02129272 0.23869738 0.24459466 0.106039345 -0.0088882
-0.033398528 0.17211409 0.21507615 -0.14887168 -0.19611888 0.20835698 0.15221854 -0.012642503

decoder.4.bias f4 [32]
00000000: 6083 e33d 9a14 7d3d 7814 41bc 81d1 6cbe
00000010: cdea 153d 0d5d 283e 5c7f 863d 6137 df3d
00000020: e2bb cf3d faff 42bc 2b46 2dbe a760 b63d
00000030: 1edf bd3d 8046 f73d 8c03 0bbe 9039 3f3e
00000040: 13a4 d53d b58a 033e 6c29 08bd b6fa 803e
00000050: b6b8 48be e729 d6bd 5804 0cbe d7bc 7c3e
00000060: a140 8a3e 0fcc acbd 04d1 65bc 2cad 993d
00000070: d141 62bd f492 01be d156 ffbd f314 b7bd
0.11109042 0.061787225 -0.011784665 -0.23126794 0.036600877 0.16441746 0.065672606 0.108992346
0.10143258 -0.01190185 -0.16921298 0.08905154 0.09271072 0.12073994 -0.13575572 0.18674302
0.10431685 0.12845881 -0.033242628 0.25191277 -0.19601712 -0.10457211 -0.13673532 0.24681412
0.27002433 -0.084373586 -0.014026884 0.07503733 -0.05523855 -0.12653714 -0.12467731 -0.089395426

decoder.6.weight f4 [3, 32]
00000000: 5838 60be f5c3 c4bd c318 803d 931f b1bf
00000010: d8b2 39be e9d3 67bd 2127 c93c f1f7 803e
00000020: 0ce3 3c3e ab60 683f ecba 8f3d ec39 f03d
00000030: 81c9 8f3c cb92 3d3e eaa6 8e3e be10 cabe
00000040: bfa6 34bd 9751 c0be 0e3a 3abc 3803 ea3e
00000050: df70 a43e a03e dcbe e285 7d3e ee96 d5bc
00000060: 609e 8d3e 74f2 803c 4e61 88be 4cac 2bbf
00000070: 1bf7 48bf 6ebd 6abe ccfa cabb 3b08 0c3e
00000080: 20bc 36be c1dc 4ebe 0ed3 a8bd 5428 4dbf
00000090: 3691 173e d3e0 8c3e 2831 ce3e e8a2 e1bc
000000a0: 6606 13be ba92 e13e 6ea5 c43d 89cb 17be
000000b0: 1006 d43d e1e4 843e 89e0 58be fc04 2d3d
000000c0: f295 123e 4850 69be a00c 643d 0e05 323e
000000d0: d319 a8be 1820 9dbe 6677 d93e 645d 0dbd
000000e0: d30f 533e 9d95 9dbe fba0 8ebe ad6b b8be
000000f0: 5d79 28be c54b 41be 2fe1 23be bbb8 1c3e
00000100: 3c08 883e 69e3 81be 6784 2a3e 3136 5dbe
00000110: 65f0 0cbe 8ec4 88be 1a78 323d 072f 153e
00000120: 5528 e2bd 940a 02bf 88ec 813d abdf 273e
00000130: 3817 0dbe fdcc 173e 16ef 193e 41af 823b
00000140: 7b4f 24be da1f 283c 723d 42bd 700c 8b3d
00000150: f4ac 3abe a2a1 b53d 1164 c8bf f49b 553e
00000160: 216b 25bd b52a b8bd 11f9 d43d a119 143e
00000170: 9d7a 833e beda 6a3f 9011 d1bd 3589 8ebd
-0.21896493 -0.09607688 0.06254723 -1.3837761 -0.1813463 -0.056598578 0.02455479 0.25189164
0.18445987 0.90772504 0.070180744 0.11729798 0.01755214 0.18513028 0.2786172 -0.39465898
-0.044104334 -0.37562248 -0.01136638 0.4570558 0.32117364 -0.4301653 0.24758103 -0.026072945
0.27659893 0.01574061 -0.26636738 -0.6705978 -0.78502053 -0.22923824 -0.006194448 0.13675015
-0.17845201 -0.20201398 -0.082433805 -0.8013966 0.14801487 0.27515277 0.40271878 -0.0275435
-0.1435791 0.44057256 0.09601866 -0.14823736 0.10352719 0.2595587 -0.21179403 0.04224108
0.14315012 -0.22784531 0.055676103 0.1738474 -0.32832202 -0.30688548 0.42473906 -0.034512892
0.20611505 -0.30778208 -0.27857193 -0.3601965 -0.16452546 -0.1887656 -0.1600387 0.15304844
0.26568782 -0.25368813 0.1665207 -0.21602704 -0.13763578 -0.2671246 0.04357157 0.14568721
-0.11042849 -0.5079739 0.06343943 0.16393916 -0.13778389 0.1482429 0.1503261 0.003988177
-0.16045944 0.0102615 -0.04742188 0.06789482 -0.18230039 0.0886872 -1.5655538 0.20860273
-0.04038537 -0.08992521 0.10399068 0.14462902 0.25679484 0.91740024 -0.10208428 -0.06959764

decoder.6.bias f4 [3]
00000000: 7418 903d fc85 11bd 3e2f 303d
0.07035914 -0.035528168 0.043013804
